model/epoch_403.pth (torch, 499043 bytes, 18 tensors)

lstm.weight_ih_l0 f4 [256, 20]
000000 45 64 2a bf a0 f5 37 3e 82 d4 2c bf 62 3a 85 bf
       -0.6655925 0.17964792 -0.6751176 -1.0408442
000010 0a e0 ef be 22 c4 97 3e 0a f1 70 3f 0f ee 49 3f
       -0.46850616 0.29641825 0.94117796 0.78878874
000020 fd 94 44 3e 9f 10 8d 3f fc 92 0b be 63 38 0c bf
       0.1919746 1.1020697 -0.13630289 -0.5477354
000030 c2 d1 e6 be 1e 32 71 3f b1 b0 55 bf da 26 b7 bd
       -0.45081908 0.942171 -0.83472735 -0.08942957
000040 50 f3 05 bf de 86 6b 3f 29 5b 1c 3e e1 35 56 3f
       -0.5232439 0.92002666 0.1526915 0.8367596
000050 e1 6b 31 bf 3f 29 f4 3f 9d 9d 9d 3f 2c c2 89 3f
       -0.69305235 1.9075087 1.2313725 1.0762382
000060 8f 93 4b 3f 54 ff 8c 3f ed 6d a2 bc ce 5d 4d bf
       0.7952203 1.101542 -0.019827807 -0.8022126
000070 5e 7c 38 be 8f 6c 05 bf de 24 96 be 72 32 31 3f
       -0.18016192 -0.5211877 -0.29325002 0.692176
000080 4b 37 8e 3e da ad 0d bf af de fa be fb b4 5f bf
       0.2777656 -0.553434 -0.4899802 -0.8738553
000090 39 56 a3 bf eb 00 77 3f ee 3a 5b bf f9 08 be 3e
       -1.2760688 0.96485776 -0.85636795 0.3711622
0000a0 1e 7e 5f be 46 dc f5 bc c0 26 67 be a7 3c 53 3e
       -0.21825454 -0.030012261 -0.22573376 0.20628606
0000b0 da ac 35 3f 71 26 98 3e 91 9e 88 3e d8 38 52 3f
       0.70966876 0.29716828 0.26683477 0.82117987
0000c0 8f 22 c8 bc 79 3d 17 bf e6 0f 4a bf 4d bb 5d be
       -0.024430541 -0.59078175 -0.7893051 -0.21653481
0000d0 13 a9 e1 bc 3c ac 6d be 36 18 9e 3e e2 dc d8 3e
       -0.027546441 -0.23210233 0.30877846 0.4235602
0000e0 27 70 1f be bb 3b 03 3e 34 7e 37 3e a0 6f 27 be
       -0.15570126 0.12815754 0.17919236 -0.16351175
0000f0 28 de 87 3f 48 63 d0 3f ee 86 b0 be d0 63 20 3f
       1.0614672 1.6280298 -0.34477943 0.626523
000100 e6 d4 bd be 6a 8b 04 3f 50 18 00 be a8 6a 2a bf
       -0.3707649 0.5177523 -0.12509274 -0.66568995
000110 5f 4f 8c 3f ec f1 80 bf 12 b2 28 be b9 7f 56 3e
       1.0961722 -1.0073829 -0.16474178 0.2094716
000120 ac 52 b5 be da 4f 59 3d 84 5b 76 3e 96 d5 8a 3e
       -0.35414636 0.053054668 0.24058348 0.27116078
000130 cf 20 a4 3f e3 81 c1 bf 97 aa f7 3e 44 35 68 bf
       1.2822512 -1.5117763 0.48372337 -0.90706277
000140 7a 61 a7 be 46 2b 54 3f 4c 46 d7 3f ff 72 1b 3f
       -0.32691556 0.8287853 1.6818328 0.60722345
000150 72 96 8a bf 60 a3 87 be 88 b6 88 3d 23 6e a7 bf
       -1.0827162 -0.26491833 0.0667544 -1.3080486
000160 93 7b ff be 26 36 2a 40 ef 33 84 3e e8 5b 20 3f
       -0.49898967 2.659555 0.25820872 0.6264024
000170 9f fc 07 3f 61 78 ec be b8 76 1a 3d 84 ee 85 be
       0.53119844 -0.46185592 0.037710875 -0.26158535
000180 6d 19 9b be 0b 41 2e 3f 67 f8 4c bf 5c e6 12 bf
       -0.30292836 0.68068 -0.8006653 -0.5738275
000190 49 e9 59 be 00 05 c1 bf 6b 6d a5 3f ec a3 b1 be
       -0.21280397 -1.5079651 1.2924017 -0.34695375
0001a0 83 92 9d 3f bb d1 30 3e b9 b6 60 bd 91 57 fd be
       1.2310337 0.17267506 -0.054861758 -0.4948087
0001b0 11 e2 3f bf cd c4 d1 3e 64 07 88 3e b4 dc 0e be
       -0.74954325 0.4097046 0.2656814 -0.13951379
0001c0 2c c3 3e be f7 91 d4 be a3 55 46 bf c6 93 6e 3e
       -0.1862914 -0.41517612 -0.7747442 0.23298559
0001d0 0e f8 80 3f 4e a9 89 bf d6 84 4e 3e 80 7c 64 3f
       1.00757 -1.0754793 0.2016786 0.8925247
0001e0 8d 5c e7 bf 1b 6b a5 3f 0a 7f 80 bd 4c f6 f1 3f
       -1.8075119 1.2923311 -0.06274231 1.8903289
0001f0 74 8d 2f bf d1 bf d4 be 40 5c a6 be f2 dd 61 3f
       -0.68575215 -0.41552594 -0.32492256 0.88229287
000200 24 39 b8 be 47 83 ee 3d 10 30 7e 3c 10 4a 2e 3f
       -0.35981095 0.11646133 0.015514389 0.6808176
000210 86 a6 3c 3f 4a 83 b3 be 21 fe 93 bd 2e f2 53 3f
       0.73691595 -0.35061103 -0.072262056 0.8279141
000220 c1 06 b4 be aa c7 9f be 6b 59 3d bf b1 00 b5 3e
       -0.35161403 -0.3120702 -0.73964566 0.3535209
000230 c1 2b e3 3e f1 87 db be 90 a8 8b 3f bd 9d e2 bf
       0.4436932 -0.42877153 1.0910816 -1.7704388
000240 0f 77 1c 3e 75 53 5e 3e 2b df 5a 3f 03 a8 4a bf
       0.15279792 0.21711524 0.8549678 -0.79162616
000250 cc b7 bc bf 1f 04 84 3f e6 67 65 bf cc 83 4a 3e
       -1.474359 1.0313758 -0.8961166 0.19776839
000260 34 1e 97 bd 4a cf 92 3f e7 b4 b0 3e 3b 7f a5 be
       -0.07378808 1.146951 0.34513018 -0.32323632
000270 61 6d e5 3f 20 46 9c bf e6 3a fb be e4 5a 3c 3f
       1.7924005 -1.22089 -0.49068373 0.7357619
000280 5f 3f a0 be 7c f6 2f 3f bd cf 6c 3f 62 5d 5f 3f
       -0.31298348 0.6873548 0.92504483 0.87251866
000290 15 e4 d3 bf a4 0d c5 bf fa 73 0d 3f 64 42 9a 3f
       -1.655398 -1.5394788 0.5525509 1.2051511
0002a0 4f 56 50 bd 17 88 b8 3e f4 d2 a4 3f c5 dc 9a be
       -0.05086356 0.36041328 1.2876878 -0.3024656
0002b0 3b 15 73 bf b7 0c ef be 31 ef 5a 3e 4f 67 25 be
       -0.9495427 -0.46689388 0.21380307 -0.1615269
0002c0 4d 5f 03 3f 19 bd e9 3e 25 4b a4 bf b4 ae 42 3f
       0.5131729 0.45652083 -1.2835432 0.76047826
0002d0 f0 1e cf bd dd 60 18 3f 8c a7 6d 3f ba 05 7c 3f
       -0.10113323 0.595228 0.9283378 0.9844624
0002e0 3e 09 18 3f ad 36 cb be 17 16 88 bf b9 25 e5 3d
       0.593891 -0.39690152 -1.0631741 0.11188836
0002f0 87 1a ac bf 20 8d 71 3d 90 ac 7f be a4 88 47 3f
       -1.3445596 0.058972478 -0.24968171 0.7794287
000300 5f 0a 60 bf 52 92 6f 3f 6a 6b 80 3e 2a e5 b2 3e
       -0.87515825 0.9358264 0.2508195 0.34940463
000310 7a f3 00 bf 64 47 80 3f 05 60 99 3f 63 e5 5c be
       -0.50371516 1.0021787 1.1982428 -0.21571879
000320 10 9b b8 3f 9a 79 ce bf c8 b1 6e be 69 d2 85 bf
       1.4422321 -1.613086 -0.23310006 -1.0454837
000330 36 a9 89 be ef 4b c0 bd 96 db 5f bd 77 83 a9 3e
       -0.2688691 -0.09389483 -0.054652773 0.33108112
000340 dc 95 c5 bd 79 e6 31 bf c6 ff 99 bf 7e 3f b7 3f
       -0.09647724 -0.694923 -1.2031181 1.4316251
000350 26 67 f0 bd f3 6f 96 bf 80 b7 1b 3e a2 92 b9 bd
       -0.11738424 -1.1752914 0.15206718 -0.09061171
000360 26 ca 43 bf 70 11 e5 3f 1c 18 c3 be 15 9c 0c 3e
       -0.7648033 1.7895947 -0.38104331 0.13731416
000370 98 71 d2 3f 58 14 9d 3f cc fc 97 3d 27 c6 a1 3f
       1.6440916 1.2271833 0.07421264 1.2638596
000380 4b 11 f6 3e 14 3e 19 3f c8 96 1f be 94 da 09 be
       0.48060068 0.5986035 -0.15584862 -0.13462287
000390 c1 d4 a7 bd 93 aa b8 3d 83 f6 af 3e d9 3a 0d 3f
       -0.081948765 0.090169095 0.3436776 0.5516792
0003a0 6a e1 4a be 94 99 2d bf 54 19 b1 be 02 12 26 3e
       -0.19812551 -0.67812467 -0.34589636 0.16217807
0003b0 fb fd b4 3e 6c 0e c9 be 56 6a 27 40 b1 0d 3f bf
       0.35350022 -0.39268816 2.6158652 -0.74630266
0003c0 af c1 5b be d7 c3 b4 3f 4e e8 d4 3f 6e 5f 64 3e
       -0.21460603 1.4122266 1.6633394 0.22302029
0003d0 7e ef be 3f 6a 65 00 3f b7 26 40 3f 9c 8a 38 bf
       1.4916837 0.50154746 0.75059074 -0.720865
0003e0 da 1e d0 3e 04 db 7d bf 20 fa 1c 3e ab 87 5d 3f
       0.40648538 -0.99162316 0.1532979 0.8653514
0003f0 76 71 30 be 3c 5b 8e 3e 16 eb d3 be ce eb a6 3e
       -0.17230782 0.2780398 -0.41390294 0.3260178

lstm.weight_hh_l0 f4 [256, 64]
000000 6e 79 e9 3e 19 64 ef 3e b9 1a 1a bf 4e 9c b6 be
       0.45600456 0.46756056 -0.60197026 -0.35666126
000010 d1 d2 d7 be f8 a5 47 3f 00 d1 36 be 08 5c 85 bd
       -0.42153028 0.77987623 -0.17853165 -0.06511694
000020 14 bb da be e6 b8 8d be 56 74 e6 3e 55 e8 b0 be
       -0.42720854 -0.2768013 0.45010632 -0.34552255
000030 b3 c2 b7 bd a1 c5 44 3e ef 09 08 bf 59 25 1c 3f
       -0.08972683 0.19216014 -0.5314016 0.6099449
000040 cd db 45 3e f9 ba dc bc 6d c9 c5 bb 22 ac b4 3e
       0.19322129 -0.026944624 -0.0060359747 0.35287577
000050 88 f7 f1 3d 52 e9 0e 3f 2e aa 2c 3e 91 64 e3 3d
       0.11814791 0.5582477 0.16861793 0.11103166
000060 d7 9f 1e be 73 dd 5e 3e 71 7d 06 3f 90 74 de bd
       -0.15490662 0.21764164 0.5253516 -0.10862076
000070 be 67 22 bf e8 03 40 3d 76 d0 08 be 6c c9 1a 3e
       -0.6343955 0.046878725 -0.13360772 0.15115899
000080 79 63 21 3e 07 ad 16 bf a1 83 0e bf f7 7e 55 be
       0.15760602 -0.5885777 -0.556696 -0.20849214
000090 d0 b5 0c 3f c4 52 0f 3f ca 30 14 3d 24 d8 06 bf
       0.54964924 0.55985665 0.03617934 -0.52673554
0000a0 7f 38 26 bf bc 8d c0 3d 40 10 36 be 22 c9 c9 be
       -0.64929956 0.09402034 -0.17779636 -0.39411265
0000b0 10 d8 a2 bd 7c c1 0a bf 90 e6 1f 3e d7 71 63 3e
       -0.07951367 -0.54201484 0.15615296 0.22211395
0000c0 53 62 8a 3f fb 8c 2b 3f 95 22 22 be 30 d4 d7 be
       1.0811256 0.67011994 -0.15833504 -0.42154074
0000d0 aa cf 21 3f 93 2e 8b 3f 95 69 5a bf a9 6a ba 3e
       0.63207495 1.0873588 -0.85317355 0.364095
0000e0 27 56 29 be d0 f1 dd 3e 7d 0b bf be dd 9a 01 3e
       -0.16536771 0.4334855 -0.37313452 0.12656732
0000f0 4a 0b 8f bf ad 2e 06 bf 21 fd 7a be 4a 3b 5d 3e
       -1.117532 -0.5241497 -0.24510624 0.21604648
000100 cb 9f 1c 3e e6 ff 95 be 20 44 3d 3e e4 54 86 bf
       0.15295331 -0.29296798 0.18483019 -1.0494657
000110 b1 36 cd bd d7 86 b2 3c 73 ff 0c 3f 76 4d 16 bd
       -0.10020197 0.021792812 0.55077285 -0.036694966
000120 37 90 c4 3e f4 d7 2a 3f 0a 57 28 3e bf 35 d7 3e
       0.38391277 0.6673577 0.16439453 0.42033193
000130 53 7c 08 3f 5f 63 47 be 32 07 d0 be 48 0e f4 3e
       0.53314704 -0.19471501 -0.4063049 0.47667146
000140 18 da 87 bf e5 71 e2 3e a2 56 38 3e f0 a4 fc 3e
       -1.0613432 0.4422752 0.18001798 0.49344587
000150 98 64 48 bf 30 07 9d be 85 a0 01 be 10 d6 34 3f
       -0.78278494 -0.30669546 -0.1265889 0.70639133
000160 4c 75 93 3e 69 da cd 3e bd b1 1f 3e 16 f5 d7 3d
       0.28800428 0.40205696 0.15595146 0.10544793
000170 20 5d 86 bf f8 8c 27 be e3 d3 db 3d ec dc 09 3e
       -1.049717 -0.16362369 0.107337736 0.13463181
000180 bc 06 24 bf 78 24 0d 3c 4a 95 2f 3d 18 ab 24 bf
       -0.64072776 0.008614652 0.042866983 -0.6432357
000190 d9 fc 6e 3e d7 23 0b 3e 20 6d 61 3f 5a 83 a9 3e
       0.23338641 0.1358789 0.88057137 0.33108026
0001a0 27 d8 7f 3e 87 10 e3 3e 2a 20 ae be c7 fa c5 3d
       0.249848 0.44348547 -0.34008914 0.096669726
0001b0 b4 1f 96 bf af 76 93 3d 90 e0 06 bf 31 7c 58 be
       -1.1728425 0.072003715 -0.52686405 -0.21141125
0001c0 c4 4c a2 3e a9 02 3e 3e 3e 74 19 be 5d f2 37 bd
       0.31699193 0.18555702 -0.14985749 -0.04490887
0001d0 34 0b 8f 3f 6a da a8 3e b4 92 72 3e d8 b2 fa 3d
       1.1175294 0.32979137 0.23688775 0.12241143
0001e0 7c 82 8d be 98 17 22 bf f8 3f 5d 3d 87 4c da 3e
       -0.27638614 -0.6331725 0.054016083 0.4263651
0001f0 72 5c 43 3e a9 13 3f 3f b5 9e 64 be 1a fa 2d 3c
       0.19078234 0.74639374 -0.22326167 0.010618711
000200 aa 51 18 3f 40 0f 69 be 99 f2 9b be e8 fd 4f 3e
       0.5949961 -0.22759724 -0.30458525 0.20311701
000210 d4 4c b3 be bb 95 0e 3f 14 fc d3 3d 4f 17 a6 be
       -0.35019553 0.5569722 0.103508145 -0.32439658
000220 7d 92 12 3d 02 32 2f bf d3 c2 5c 3d 59 60 5d 3e
       0.035784233 -0.6843568 0.053896736 0.21618785
000230 2f aa aa 3e 27 e0 b1 3d 97 e8 81 3c 2b 6b ec 3e
       0.33332965 0.08685332 0.015857978 0.46175513
000240 3f cb 58 be b9 54 32 bf 07 00 c7 3d 17 07 a0 be
       -0.21171282 -0.69660527 0.09716802 -0.3125541
000250 c5 a1 b1 be 20 15 85 be 56 bd 42 3e 87 95 83 be
       -0.34693733 -0.2599268 0.19017538 -0.25700018
000260 2a 68 63 bf 0b 69 af 3e 57 2c d2 3e 50 c5 3d 3e
       -0.88830817 0.3425983 0.41049454 0.185323
000270 54 68 6a 3e 43 61 1a bf eb fa 52 be 53 30 19 be
       0.2289136 -0.6030466 -0.2060353 -0.1495984
000280 8e 6a 38 3e 49 a0 9a be 25 02 a3 3e 1a 40 f2 be
       0.18009397 -0.30200413 0.31837574 -0.4731453
000290 36 f2 86 be d2 3c 0f bf 20 54 e0 3e 44 ff 5f 3f
       -0.26356667 -0.5595218 0.43814182 0.8749888
0002a0 a6 d2 c6 be c4 34 0b 3e dc 4a 55 be c6 40 1e 3e
       -0.38832587 0.13594347 -0.20829338 0.15454397
0002b0 b2 df 29 be bc ed 16 3e 00 12 36 3f d9 86 5c bd
       -0.16589239 0.14739126 0.71121216 -0.05383954
0002c0 c7 e3 f4 be 96 d6 d6 3d aa a0 fa 3e c6 ca 43 bd
       -0.4783003 0.10490148 0.48950702 -0.0478008
0002d0 42 30 51 3e 6f ad 90 3e 13 b9 bc 3d e0 59 b6 3e
       0.20428565 0.2825732 0.092149876 0.35615444
0002e0 12 0c 86 be 40 ab 4c bf 7b 2b 69 be ae 46 04 3f
       -0.26181084 -0.79948807 -0.22770493 0.5167035
0002f0 1b bd 0b bf d1 2c dd 3d 8a 02 e9 bc c4 8e 22 bf
       -0.5458543 0.10799564 -0.028443594 -0.63499093
000300 8d a0 84 3d 24 46 f3 3d ed f6 51 3e 87 cf 36 bf
       0.06475935 0.11878613 0.20504351 -0.7141041
000310 21 0c a5 3e bb 04 66 3e fb c5 15 bf 5e 48 53 3f
       0.32235816 0.22462742 -0.5850522 0.825323
000320 4d df 51 3e fa b3 88 be 91 e8 60 be 93 cc 32 be
       0.20495339 -0.2669981 -0.21963717 -0.17460851
000330 fa df 53 bf 68 b5 99 3d e4 3f 60 3e d6 b9 de 3e
       -0.82763636 0.075053036 0.21899372 0.43501157
000340 7b f7 00 bf 9a ae 0c bf 65 59 03 3e 00 b3 d9 be
       -0.50377625 -0.5495392 0.1282707 -0.4251938
000350 ca 2a 5c 3e 73 70 82 3e 45 0a 8a bd 92 45 da 3e
       0.21500698 0.25476417 -0.0674024 0.42631203
000360 84 10 2f be d8 39 8c 3e 8e 4a 76 be 56 6b 58 3e
       -0.17096144 0.2738788 -0.24051878 0.21134695
000370 fa 00 30 bf 8d 9e 7a bf 56 40 07 be 69 4e bb 3e
       -0.6875149 -0.9789818 -0.13208136 0.3658326
000380 b0 5d e5 3d 45 01 50 be a4 47 43 bf d6 d3 10 3e
       0.1119951 -0.20312984 -0.7628119 0.14143309
000390 67 fd 92 3e f8 ed 70 be d6 fc a0 3e 39 da 3f be
       0.28708956 -0.23528278 0.314429 -0.18735589
0003a0 36 4a 50 3e 9b 52 be bd 5e e7 ac be 6b dd 67 3e
       0.20340809 -0.092930995 -0.3377027 0.22643058
0003b0 c0 2e 5e bf 6a 97 3a 3e d6 e5 e1 3d 99 bc 1a 3f
       -0.86790085 0.18221822 0.11030166 0.6044403
0003c0 d7 a0 c3 3e 7d ed d0 3e 9d b4 c0 3e b9 e8 20 3f
       0.3820865 0.4080619 0.37637797 0.62855107
0003d0 52 20 a3 be 78 e1 44 be e2 04 3a 3e 03 cf cf 3e
       -0.31860596 -0.19226635 0.18165925 0.40587625
0003e0 99 aa 71 3e 2f be 9b 3d 1c a6 2f 3e 98 34 9b 3e
       0.23600234 0.07604634 0.1715321 0.30313563
0003f0 c5 14 4b be d6 c0 fc 3e cc d2 68 3e 68 59 a9 bd
       -0.19832142 0.49365872 0.22736663 -0.08269006

lstm.bias_ih_l0 f4 [256]
000000 a6 1f 10 bd 0c 4c 0c 3e c6 b6 7a 3e 8f 91 5c 3e
       -0.035186432 0.13700885 0.24483785 0.21539901
000010 da 06 12 3f 9b c9 12 3d 8c e0 20 be 25 ef 70 3e
       0.57041705 0.035836797 -0.15710658 0.23528726
000020 37 e3 23 3e 90 ba 1c 3f 6b 12 95 bd bd 7e 40 3e
       0.16004644 0.6122217 -0.072789036 0.18798347
000030 0b be ba 3e 2d 35 9c 3e 13 6b 6d 3e 26 ec eb 3e
       0.36473116 0.3050932 0.23185377 0.46078604
000040 2d b1 27 3e 30 ef ae 3e 53 f1 ff 3e cf ff 9d 3e
       0.16376181 0.3416686 0.49988803 0.3085923
000050 22 72 79 3c 12 db ac 3e 11 73 d1 3e d0 5b e3 3e
       0.015224965 0.33760887 0.409081 0.44405985
000060 a4 f0 16 be 14 89 2c 3e 3e 79 5c 3d 39 71 24 3f
       -0.14740235 0.16849166 0.053826563 0.64235264
000070 07 1e d6 3e 15 6f 10 3f 5d 17 d3 3e bd ae 22 3d
       0.41819784 0.564195 0.41228762 0.039717425
000080 bd 4c 8c 3e eb 12 17 3f 5f 58 eb 3e 4c 80 12 3f
       0.27402297 0.5901324 0.4596586 0.57227015
000090 13 4d 76 3d e6 9a 99 3e 27 c0 1b 3e 58 af 87 3e
       0.060132097 0.3000099 0.15210019 0.26500964
0000a0 af 9a d4 3e 9d 06 29 3e da 05 73 3b 6a cc bf bd
       0.41524264 0.16506429 0.0037082345 -0.09365161
0000b0 b7 d5 ee bd 75 2a 0f 3f 11 0f 24 3f da 3c c9 3d
       -0.116618566 0.5592416 0.6408549 0.0982606
0000c0 f5 94 e3 3d b3 c8 97 3e 0b cf 1f 3e 22 dc 22 be
       0.11112396 0.2964531 0.15606324 -0.15904287
0000d0 1f 3f 59 3e bc ce 7a 3d 3c 3f 81 3e 17 48 aa 3e
       0.21215485 0.061232314 0.25243556 0.33258125
0000e0 ef 77 35 3e 0b 4d 1d 3e c8 33 c5 3e 5e 8b 4d 3e
       0.17721532 0.15361421 0.38516068 0.20072696
0000f0 c4 1e 00 3e ad 42 d3 3c f5 b5 cb 3e 02 a3 07 3d
       0.12511736 0.02578863 0.3978726 0.03311444
000100 4e ea 94 bd 68 4b 77 be ca 80 b1 3e ad 58 9b 3d
       -0.072712526 -0.24149859 0.3466857 0.07585273
000110 3a 26 d9 3d 81 76 6b be db 3f ad 3e ab 18 53 be
       0.10602994 -0.22994424 0.3383778 -0.20614879
000120 b7 4f 3c bc 42 40 85 be e7 c2 dd bd 62 79 61 3e
       -0.011493615 -0.26025587 -0.1082819 0.2201896
000130 3e d9 52 be e1 75 c0 3e 97 c4 b6 3d 98 00 e7 3c
       -0.20590684 0.37589934 0.08924215 0.028198525
000140 73 b2 bf 3e 3d f6 84 3e 27 dc 89 3d 3e f8 64 3e
       0.37440833 0.25969115 0.06731444 0.22360322
000150 f5 5e ad 3e e6 50 05 be e8 23 06 3e ed 2b 07 bd
       0.3386151 -0.13019142 0.13099635 -0.033000875
000160 4e 47 84 3e 11 ac 6e 3e 5d dc a7 3e 8f 83 d1 3c
       0.2583565 0.23307826 0.3278531 0.025575427
000170 06 e1 ba 3d bb 26 af bd ff 3c a2 3d 85 cc 88 3e
       0.09124951 -0.08552309 0.0792179 0.26718536
000180 9a 9b d9 3e 9f d8 c2 bc d5 e1 d8 3d e1 99 64 bd
       0.42501527 -0.023784934 0.10589949 -0.055810813
000190 39 a4 94 3d 96 24 8e 3e 99 52 19 3d c9 30 b2 3d
       0.072578855 0.27762288 0.037432287 0.08700711
0001a0 7f 3f a3 be ef 9b 89 3e 63 48 74 bd 1d aa ea bd
       -0.3188438 0.2687678 -0.059639346 -0.11458228
0001b0 66 f3 b5 3c 45 a7 de be 88 10 43 3d 1f a0 81 bd
       0.022210788 -0.43486992 0.047623187 -0.06329369
0001c0 23 9f 79 b9 d2 55 9a 3e d5 41 15 be 1e 27 40 3e
       -0.00023805774 0.301436 -0.14575894 0.18764922
0001d0 66 da 29 3d fc fc d2 3d ce 8f d9 3d 06 2b c2 bd
       0.041468047 0.10302159 0.10623132 -0.09480862
0001e0 19 51 34 3e 29 32 9d bc 59 b2 36 3e 42 0d d1 3e
       0.17609061 -0.019188957 0.17841472 0.40830427
0001f0 c1 80 55 bd a3 d4 b4 be 33 7c 88 3e 5f d7 2c 3e
       -0.052124742 -0.3531848 0.26657256 0.16879033
000200 38 f2 c4 3d e5 c7 37 3d b7 8b 82 3d c3 3b 99 bd
       0.09616512 0.04486837 0.06374305 -0.07482102
000210 12 f2 ec bd a7 a6 b5 bd f4 19 11 be 2c ce 42 3d
       -0.11569609 -0.08869677 -0.14170057 0.047559902
000220 89 e7 7f 3c a1 6f 5f bd 3d f7 89 3d cb ab 82 bd
       0.015619167 -0.054549817 0.0673661 -0.06380423
000230 99 aa 9a 3a b7 4b 21 3b 78 5d 8f 3c c4 3b f9 bd
       0.001180011 0.002461178 0.017500624 -0.121696025
000240 25 f0 69 3d 3e ad 94 3d e3 bc 02 3e 79 55 e5 bc
       0.057113785 0.07259606 0.12767367 -0.027994858
000250 72 fc b2 3b bf a9 21 bb 78 05 dd 3b 20 d0 6d 3d
       0.0054622227 -0.0024667827 0.0067450367 0.05805981
000260 2c 47 14 3e 08 62 81 bd c7 23 5e 3d db e1 f3 bc
       0.14480275 -0.06317526 0.05423334 -0.029770782
000270 33 3e 3e 3d 1b 2a 0d bd 26 36 f9 3b 0c 83 22 3e
       0.046446037 -0.034463983 0.007605332 0.15870303
000280 7c a8 eb bd 71 f0 47 3d 30 2d bb bb 0f 68 94 3d
       -0.11506745 0.048813287 -0.005712174 0.0724641
000290 bf 16 f1 bc 08 4f 79 3d 00 57 a0 bd 18 d4 5a 3d
       -0.029429791 0.060866386 -0.07829094 0.053424925
0002a0 2c 86 cf bc 42 d1 28 bd 10 15 bf bd f8 65 67 3d
       -0.025332533 -0.04121519 -0.09330189 0.05649373
0002b0 5a de 95 3d 8e 33 b8 bd 35 66 88 3d 42 af 36 3d
       0.07317801 -0.08994208 0.066601194 0.044600733
0002c0 3e 98 03 bd 1d f3 8e 3d da 19 89 3d 3b f2 43 3d
       -0.03212761 0.06979964 0.06694384 0.04783843
0002d0 9c 14 c7 3c 33 15 65 bc a8 69 84 bd d9 67 e5 bc
       0.02430182 -0.013982105 -0.06465465 -0.02800362
0002e0 10 41 b1 bc 9b e8 8e 3d 20 ee 89 bc 8c 20 02 3e
       -0.02163747 0.0697796 -0.01683718 0.12707728
0002f0 14 a0 ad bc 64 f9 f4 bc 22 48 87 3d cb 6d 71 bd
       -0.021194495 -0.029904075 0.06605555 -0.058942597
000300 69 cd 24 3e 64 35 66 3e 03 17 42 be 12 c8 ee 3d
       0.16093983 0.22481304 -0.18954091 0.11659254
000310 ce c8 6b 3e d8 99 d1 3e 8b 1b a2 3e 39 49 09 3f
       0.2302582 0.40937686 0.3166164 0.53627354
000320 2c ff 85 3e a8 0d 69 3e cf f9 cc bd 28 51 0e be
       0.26171243 0.22759116 -0.10008585 -0.13898146
000330 7f 2e 09 3f 80 93 32 be 3b 94 1d 3e c7 5a 12 3f
       0.5358657 -0.1743908 0.15388577 0.57169765
000340 c5 14 12 3e f8 45 b1 3c b5 4b 8c 3e d7 ce b6 bd
       0.14265735 0.021639809 0.2740151 -0.0892617
000350 ec ac ff bd 4b 45 96 3e af 60 6d bd 76 5f df 3e
       -0.12484154 0.2934974 -0.057953533 0.43627518
000360 94 70 9b be 88 25 5c be d8 c3 da 3d 3c 9e eb 3e
       -0.30359328 -0.21498692 0.106818855 0.4601916
000370 4c c8 3f 3e 8e 8b f0 3e 13 e1 97 3e 30 87 a0 be
       0.18728751 0.46981472 0.29663906 -0.3135314
000380 3b 41 ca 3d 21 8e 89 3e 1a 16 21 3e c2 31 08 3f
       0.09875723 0.26866248 0.15731087 0.53200924
000390 22 8b 11 3f fa bb 20 3e 7e e7 87 3e 24 d8 b5 3e
       0.56852925 0.15696707 0.26543802 0.35516465
0003a0 9c 4a 04 3f 89 a3 ca 3e 5a b8 90 bd a2 4b c4 3d
       0.51676345 0.39577892 -0.07066412 0.09584738
0003b0 96 3d 4c 3e 32 7f 75 3e 09 bd 78 3e dd 2a 1a 3e
       0.19945368 0.23974302 0.24290861 0.15055414
0003c0 0f d9 b6 3e b1 00 a3 3c 58 d3 bb 3e 13 c2 4d 3d
       0.35712478 0.01989779 0.3668468 0.05023391
0003d0 ae 01 d1 3e af 86 c7 3e c4 ec 20 3e 78 12 c7 3e
       0.40821594 0.38969943 0.15715319 0.38881278
0003e0 22 2d 71 3e 6e 1b 44 3e f4 32 bf bc f4 dd 03 bd
       0.23552373 0.19151089 -0.023339726 -0.032194093
0003f0 32 78 ef 3d 96 62 96 3e 34 c9 ea bc 5e 0d a8 3d
       0.11692847 0.2937209 -0.028660394 0.082056746

lstm.bias_hh_l0 f4 [256]
000000 28 ec 63 3a dc 61 c8 bc 13 38 4d 3d 40 f0 69 3e
       0.0008694553 -0.024460725 0.050102305 0.22845554
000010 8d 00 10 3f c7 26 0a bb 56 89 31 be e8 f0 85 3e
       0.5625084 -0.0021080242 -0.17337546 0.2616036
000020 4d 4a dc 3d f5 72 30 3f 62 c7 8b be a5 ed 04 3e
       0.10756359 0.6892541 -0.27300555 0.12981279
000030 65 13 b6 3e 7b 1b 9d 3e 6a 9a 9f 3e 41 5e 17 3f
       0.35561672 0.30685028 0.31172496 0.59128195
000040 3f d2 48 3b 81 78 73 3e b3 d0 ef 3e e5 4a 72 3e
       0.0030642895 0.23776437 0.46838912 0.23661382
000050 0a 1c b8 3d a4 e8 59 3e 66 a6 50 3e 43 92 e9 3e
       0.08989723 0.21280152 0.20375976 0.456194
000060 fb 0e 09 3d 25 72 bf 3d 99 98 de bc ac b1 1f 3f
       0.033461552 0.09347943 -0.027172374 0.6238048
000070 07 c1 57 3e 6a 82 0d 3f f6 04 ed 3e 62 f2 10 bb
       0.21069728 0.5527712 0.46292847 -0.0022117128
000080 30 57 39 3e b6 9a f0 3e 44 d1 fa 3e 3e 49 32 3f
       0.18099666 0.46993035 0.48987782 0.6964301
000090 6e f7 04 3d 35 a6 00 3f 27 8d ba 3d b7 0a b3 3e
       0.03246253 0.5025361 0.09108954 0.34969112
0000a0 0d 17 02 3f b2 2e b7 3e 86 ed 84 bd e5 6d dc bd
       0.5081642 0.35777813 -0.064906165 -0.10763148
0000b0 c1 c1 13 be 19 67 10 3f 36 19 36 3f e7 75 0a 3e
       -0.1442938 0.56407315 0.7113222 0.13521539
0000c0 fc 19 80 3e 17 b4 af 3e 5d f9 71 3e b7 16 03 be
       0.25019825 0.34317085 0.23630281 -0.12801634
0000d0 36 14 91 3e b0 28 8a 3e 31 a2 86 3e 87 64 69 3e
       0.28335732 0.26984167 0.26295617 0.22792254
0000e0 3d 24 7d 3e 64 76 6d 3e 4f 27 b5 3e be 0c 18 3e
       0.24720855 0.23189694 0.35381553 0.14848611
0000f0 59 0b 0c 3e 9b 1a 17 3e d4 b6 4f 3e 58 21 8b 3d
       0.13676204 0.14756243 0.20284587 0.06793469
000100 86 73 f3 bc a3 d8 a7 bd dc c0 93 3e 91 60 70 3d
       -0.029718172 -0.08195617 0.28858078 0.058685843
000110 09 99 c5 3d 14 29 92 bc 7c ca 69 3e b2 21 70 be
       0.0964833 -0.017841853 0.22831148 -0.23450354
000120 6f 46 3b be c6 f1 86 be d5 f8 9d bd b9 f3 aa 3e
       -0.18288587 -0.26356333 -0.077134766 0.3338907
000130 9c ee a1 be 05 d9 93 3e f0 e6 46 3d 8a dc 8f 3b
       -0.31627357 0.2887651 0.048560083 0.004390304
000140 ef f9 b7 3e 38 9f be 3e 7b d5 22 be 46 d9 09 3d
       0.35932872 0.3723085 -0.15901749 0.033654474
000150 1b a6 9c 3e 49 7b 4d bd 57 9c 3c 3e 4b 66 2d 3d
       0.30595478 -0.050166402 0.18419014 0.042333882
000160 34 a7 d0 3e 21 06 e9 3d 7d 8c ac 3e a3 9f 9b bd
       0.40752566 0.11378122 0.33700934 -0.07598808
000170 cc 9b 22 3e b0 37 77 bd 85 9a bc 3c 46 6a 92 3e
       0.15879744 -0.060355842 0.0230229 0.28596705
000180 4d 83 9f 3e 05 79 3f be 20 ba e2 3d 38 d0 73 be
       0.31154862 -0.18698509 0.11070657 -0.23809898
000190 78 28 0e 3d 06 90 70 3e 86 f5 a5 3d 62 41 2d 3e
       0.034706563 0.2349244 0.081034705 0.16919473
0001a0 ea 4a 28 be 3c f5 9b 3e d2 38 de bd 86 32 ab bc
       -0.16434827 0.30460536 -0.10850681 -0.020898115
0001b0 bc d7 2f 3e dd 43 0f bf 1f 31 62 3d 19 10 90 bd
       0.1717214 -0.55962926 0.055222627 -0.070343204
0001c0 ad 4a b4 bd 65 31 56 3e 07 37 63 be ee 3b f2 3d
       -0.08803306 0.2091728 -0.2218896 0.11827837
0001d0 9d 8c 61 3e 94 34 69 bc b9 e8 2a 3e cf 7f 22 bd
       0.22026296 -0.014233727 0.16690339 -0.03967267
0001e0 fd 45 1c 3e 65 f0 91 3b f9 81 81 3e 98 a9 d0 3e
       0.15261073 0.004453706 0.25294474 0.4075439
0001f0 1e 25 2e bd de 1d d4 be 0a 9c df 3e f5 4f 19 3e
       -0.042515866 -0.41429037 0.43673736 0.14971907
000200 7f 2f db bd ea c0 db 3c 36 d3 87 bd ae b3 1b 3d
       -0.107024185 0.026825387 -0.06632082 0.038013153
000210 46 6d 8f bd 1e 86 b3 3d 83 5f 19 be c4 0a 34 3c
       -0.07003264 0.08765815 -0.14977841 0.010988895
000220 e5 8e cd bd 7d 96 4a 3d 1f d9 96 bd 03 b8 8f bd
       -0.100370206 0.049459923 -0.07365631 -0.07017519
000230 53 8b 3d bd 63 1b cb bc 7a 20 c3 3d 6c 9c bb 3d
       -0.046275448 -0.024793332 0.09527679 0.091606945
000240 91 76 84 bd 00 be 74 bd 76 2f 0a 3e 29 43 06 3e
       -0.06467927 -0.05975151 0.13494667 0.13111557
000250 a7 4a 9c bc 0e 0a ec 3b 74 9e 28 bc 1f b6 af 3b
       -0.019078566 0.007203347 -0.010291684 0.0053622867
000260 4f 48 1b bd 13 1b 17 3b b5 02 95 3d 27 02 4c bd
       -0.037910756 0.002305691 0.07275907 -0.04980674
000270 11 08 4d 3c f6 ae 8e 3d b4 72 30 3e 2d 17 ca 3d
       0.01251413 0.06966965 0.17231256 0.09867702
000280 5c db 27 be ec cd 9b 3d f8 33 a4 3b 08 bd b4 3d
       -0.16392273 0.07607636 0.005011078 0.08825117
000290 9c 3a 11 3d a7 54 0b 3d d6 99 c1 3d 65 32 02 3d
       0.035456285 0.034016278 0.0945317 0.03178634
0002a0 44 7c 3f bc 65 6c 19 3e b0 20 0f 3c fa e0 1c 3d
       -0.011687342 0.14982755 0.008735821 0.038300492
0002b0 9e 9e 68 3e 79 26 cd bc b1 66 1a be 9c fc 30 be
       0.22716758 -0.02504276 -0.15078236 -0.17283863
0002c0 13 61 80 bd 8e 1b e9 3d 70 93 56 bb cf e0 be bd
       -0.062685154 0.11382209 -0.0032741688 -0.093202226
0002d0 25 f5 ff bc 34 0e e0 bc c5 ab 27 3e 32 3e 00 bc
       -0.031244824 -0.027350523 0.16374119 -0.0078273285
0002e0 09 65 22 bc 52 36 e0 3c 00 3c b3 bd 18 6b a0 bd
       -0.009911784 0.027369652 -0.087516785 -0.078329265
0002f0 c4 98 99 bd e1 a9 ad bc ae e7 b0 bd 08 0a 56 bd
       -0.07499841 -0.021199169 -0.086379394 -0.05225566
000300 d7 9e 47 3e 21 92 dd 3e 02 69 ee 3c 61 98 76 3d
       0.19494186 0.4327555 0.029102806 0.060203914
000310 59 6f 83 3e 6f eb d8 3e 06 9b 90 3d 31 0c a5 3e
       0.2567089 0.42367122 0.070608184 0.32235864
000320 fc 7c 57 3e 6c 08 81 3e 0a eb ad 3c 31 e8 f9 bd
       0.21043772 0.25201738 0.02123024 -0.1220249
000330 ae eb e3 3e ac ba 8b bd 3a d4 ac 3d 04 a3 f7 3e
       0.44515747 -0.06822714 0.084389165 0.4836656
000340 bd ed 54 3e 39 b1 a3 3d 21 51 a9 3e 58 fe b0 bc
       0.20793815 0.07992787 0.3306971 -0.021605656
000350 08 4a 0f be 4a 72 e7 3e e2 5d a9 b9 27 60 f8 3e
       -0.13993084 0.45204383 -0.0003230414 0.48510858
000360 d5 54 12 be a7 90 69 3c 39 2b 9f 3d 0c 7b 06 3f
       -0.14290173 0.014255679 0.07771916 0.52531505
000370 f4 6a 82 3e c3 f7 cb 3e 79 0a af 3e b9 f3 9a be
       0.25472224 0.39837465 0.34187678 -0.3026407
000380 5d ee 48 bc 51 5d 64 3e 27 7e 0e 3e 68 0c f7 3e
       -0.0122638615 0.22301222 0.13915311 0.48251653
000390 f7 05 19 3f 84 68 ee 3d 16 1a 89 3e 43 b5 a0 3e
       0.59774727 0.116410285 0.26777714 0.31388292
0003a0 3f af dd 3e d3 9e 70 3e 70 58 cf 3d fa d6 21 3e
       0.43297765 0.23498087 0.1012429 0.15804663
0003b0 62 26 4d 3e 40 94 89 3e 9d 24 80 3e 2d a2 e2 3d
       0.20034173 0.26870918 0.25027934 0.11066089
0003c0 35 74 26 3e 31 82 f1 bc 77 7f 8f 3e 9c 11 4f bc
       0.16255267 -0.029481025 0.28026935 -0.012638476
0003d0 89 5c 1c 3f 7b 60 cc 3e 46 85 31 3e e4 6a ad 3e
       0.610787 0.3991736 0.17335996 0.33870614
0003e0 02 d7 c1 3d 3a ec 90 3e c4 a2 03 3e 24 da 0c 3e
       0.094648376 0.28305227 0.12855059 0.13755089
0003f0 85 c4 82 3e 86 68 a6 3e 8b 05 4a 3e 4a 4f 47 3e
       0.25540558 0.3250162 0.19728677 0.1946384

lstm.weight_ih_l1 f4 [256, 64]
000000 87 4d a8 bf 71 04 cc 3e 5a fd 1a 3f c6 13 ea be
       -1.314866 0.3984714 0.60542834 -0.4571821
000010 d2 b0 12 3e db e3 ed 3e 68 82 82 3e 16 59 9c 3e
       0.14325264 0.46462902 0.25490117 0.30536717
000020 fc 75 17 3f 66 27 57 3e 4b 06 85 bd 22 6e 87 bd
       0.59164405 0.21011123 -0.06495341 -0.06612803
000030 0e 84 c7 3c 02 ec 32 bf 8e 50 12 bf 29 64 a5 be
       0.02435496 -0.6989137 -0.57154167 -0.3230298
000040 5f 96 43 3d cc 46 22 bf 7f 5c 13 be ea 28 25 bf
       0.047750827 -0.6338928 -0.14390753 -0.64515555
000050 f0 2c e1 3d 96 19 87 bf 75 47 05 3f ab b8 8d bf
       0.10994899 -1.0554683 0.5206216 -1.1071981
000060 49 bb 91 bc ed ec ec 3c 67 8b c8 bb a6 5d be 3e
       -0.0177895 0.028921569 -0.0061201337 0.37180823
000070 40 c4 45 3d c1 9b 27 3e 49 52 a0 be 6b f7 19 bf
       0.04828286 0.16368009 -0.3131278 -0.60143155
000080 9d cd b3 3e 4d a2 42 3d 9a e3 b5 3b 0d 40 09 bf
       0.35117808 0.047518063 0.005550814 -0.5361336
000090 9b 4a e1 3e 21 15 26 3e d7 24 b5 3e 3e 86 09 3e
       0.44002232 0.16218998 0.3537967 0.13430116
0000a0 13 02 12 3e 7b 1f 21 bf 0e 0b b2 be 25 e2 3f be
       0.14258604 -0.6293866 -0.3477406 -0.18738611
0000b0 e3 b2 16 3e b5 5d ae 3e ac 4f a7 be 93 d2 11 3d
       0.14716677 0.34055868 -0.32677972 0.03560121
0000c0 fe 50 b7 3e ec 35 46 3f d3 fe e8 be 9b f5 79 3f
       0.3580398 0.7742603 -0.45506915 0.9764039
0000d0 ed 7e f3 3d 12 e8 d7 bc 68 fa 0c bf fa 31 24 bf
       0.118894435 -0.026355777 -0.5506959 -0.6413876
0000e0 8c a3 29 3f 2e 9b 59 be 2e 08 81 3e f0 9e 35 bd
       0.6626518 -0.21250603 0.25201553 -0.044341028
0000f0 10 13 3d bf 42 52 4d be 8a 0d 25 bf 96 2e d7 3e
       -0.7385721 -0.2005091 -0.64473784 0.4202773
000100 cc 1b 04 bb 5e b1 e1 3d 18 d3 6e bf 40 13 87 3e
       -0.002015817 0.11020158 -0.93290854 0.26381874
000110 e7 9a f0 bd 01 8d d2 3e e4 96 b7 be d1 2f 1f be
       -0.11748295 0.41123202 -0.35857308 -0.15545584
000120 19 83 89 3e 1f 04 9c be d1 24 91 be 00 6c f9 3e
       0.26857832 -0.30471894 -0.283484 0.4871521
000130 4a 5a 0c bd 09 3a 3c bd 0a cf c1 bd 9c 4d 3a be
       -0.034265794 -0.045953784 -0.09463318 -0.18193668
000140 e7 5d 24 3f d6 91 10 3f 11 2c 51 3e f9 09 10 3f
       0.64205784 0.5647253 0.20426966 0.5626522
000150 19 de be 3e b9 ec 03 3d c2 eb 05 be e3 0d 4c 3d
       0.37278822 0.03220818 -0.13078216 0.04981793
000160 05 86 a3 3e 77 30 14 3e 34 92 7f 3e e6 35 7c bc
       0.31938186 0.14471613 0.24958116 -0.01539371
000170 34 3b e1 be d7 d6 4b 3c 99 0e 87 3e 78 69 42 be
       -0.4399048 0.0124413585 0.26378325 -0.18985546
000180 9b 93 92 3d d4 2e 68 be a0 99 cb 3b c3 a1 a6 3d
       0.0715706 -0.22674114 0.006213382 0.08136322
000190 1a 67 b7 3e 62 9b fc 3d ab 89 dd 3d 54 93 45 bf
       0.35820848 0.123343244 0.10817274 -0.7717793
0001a0 fe df 04 3e 09 f5 03 3e bb 00 99 be 13 f1 e4 3d
       0.12976071 0.12886442 -0.2988337 0.11178794
0001b0 a9 b9 ea bf 9c 9d b9 bc 21 9f 21 3d 11 44 3a be
       -1.8337909 -0.022658162 0.039458398 -0.18190028
0001c0 63 53 f4 3d aa 95 55 bf 06 e1 b4 3e af b7 0c bf
       0.11929967 -0.83431494 0.3532793 -0.5496778
0001d0 75 bc 07 3c cc 31 b8 be f6 03 e6 bc d3 07 96 3d
       0.008284678 -0.35975492 -0.02807806 0.07325711
0001e0 68 04 9d 3e 5e 69 54 be d4 ba 32 3e e8 5f 33 be
       0.30667424 -0.2074332 0.17454082 -0.17517054
0001f0 45 98 a0 3d 27 a6 b4 be c6 fb 0a 3d 76 34 71 be
       0.07841543 -0.35283014 0.033931516 -0.23555169
000200 00 85 28 3f b7 e4 59 be a2 ea 59 3e e1 62 cd be
       0.6582794 -0.21278654 0.21280912 -0.401145
000210 b2 d0 23 3f 44 5e 43 be c5 df 51 be 23 b1 fb bd
       0.6399032 -0.19078928 -0.20495518 -0.122896455
000220 e0 06 82 be b9 ba b5 3e 3c ab 6c be 55 b2 1a bf
       -0.2539587 0.3549402 -0.23112196 -0.60428363
000230 2a 08 fc be db f0 39 3d 29 18 fc 3e 50 b4 8a bd
       -0.4922498 0.045395713 0.49237183 -0.06772673
000240 a0 cd cc bd 75 63 3e 3f 5e f2 8f bf 97 ba 1c bf
       -0.10000157 0.7437051 -1.124584 -0.61222214
000250 43 5b a5 be 9a 31 5d 3e 64 13 6c 3e 96 6e 13 3e
       -0.3229619 0.21600953 0.23054272 0.14397654
000260 8e fe 57 be 0f 0a b4 3e 0b b9 0e 3f 3b aa 86 bf
       -0.21093199 0.35163924 0.55751103 -1.05207
000270 51 41 98 3e 94 1d 41 be 91 82 81 bd ec 9c 29 3f
       0.29737332 -0.1885894 -0.06323732 0.6625507
000280 70 cc 31 be b3 2f e2 be 72 9d 0a bf d2 cf 25 bc
       -0.17363143 -0.44177017 -0.5414649 -0.010120349
000290 ba da 3a 3f 41 94 7c bd 6e 62 8e bf 63 15 af 3d
       0.7299 -0.061664823 -1.1123788 0.08549001
0002a0 56 e9 cb 3d 13 d3 f1 3e fd 89 9e bd 5c b1 09 bf
       0.09956615 0.4723135 -0.07741163 -0.53786254
0002b0 99 37 d3 3e 0b cf 1d bf 68 36 d4 3e 91 4c ca be
       0.41253355 -0.6164405 0.4144776 -0.3951154
0002c0 3f 54 b4 3e b3 a3 68 3d bd c8 3e bc 63 07 9e be
       0.35220525 0.05679674 -0.011644539 -0.3086501
0002d0 a4 01 95 3e 13 a4 34 bb 44 0b e8 bf 24 88 3a 3e
       0.29102814 -0.0027563616 -1.8128438 0.18215996
0002e0 bf 9c 18 bf 5b 95 3d 3e 8c 6c 0f bf de c7 6b be
       -0.59614176 0.18514006 -0.56025004 -0.23025462
0002f0 83 14 c9 be 8b 53 66 bd a2 8c 4a be 21 56 ac be
       -0.39273462 -0.056232017 -0.1978021 -0.3365946
000300 6f cd 5a 3f 7a 68 cc bd 6c 95 30 3e 67 31 bb bd
       0.85469717 -0.09980865 0.172445 -0.09140282
000310 5d e2 99 3e 76 0a 8d 3e df 3f f6 ba d3 05 c6 be
       0.30055514 0.27547044 -0.0018787346 -0.3867632
000320 8f 5f c2 be 1e 2f 5a 3d f9 56 dd be ef 31 d1 be
       -0.3796353 0.05326759 -0.43230417 -0.4085841
000330 5b 02 c8 be 0d 8f 71 bc a9 f2 49 bf ae c0 b7 3e
       -0.39064297 -0.014743579 -0.78885895 0.3588919
000340 cd 1c f5 3d d6 95 06 3e 58 03 81 be 8e 0a d7 be
       0.11968384 0.13143095 -0.25197864 -0.4200024
000350 92 60 5b be b9 59 8b bf 2e 89 31 bd da 00 7a 3e
       -0.21423557 -1.0886756 -0.043343715 0.24414387
000360 f4 4a be be 5b 2f 9c 3f 95 f8 94 be 67 b2 1b bf
       -0.3716656 1.2201952 -0.29095903 -0.60819095
000370 04 32 54 be 00 52 7f be cd dc 5e bf 61 03 59 3f
       -0.20722204 -0.24933624 -0.87055665 0.8477078
000380 44 51 17 3f 02 f9 d4 be 69 fe b7 be 70 22 35 3d
       0.59108377 -0.41596228 -0.35936287 0.044222295
000390 11 48 16 3f a0 2d 85 3e bd ad 4d 3f ab 84 94 3d
       0.58703715 0.26011372 0.8034323 0.07251867
0003a0 e7 18 e8 3e f4 80 3a be bb 6f dc 3e fe 4c 4e bf
       0.453315 -0.18213254 0.43053994 -0.8058623
0003b0 e2 10 64 bd ee 99 8d bf 9a b0 b0 3f 09 3f 0f 3f
       -0.055680163 -1.1062601 1.3803895 0.5595556
0003c0 f6 c3 9c 3e af 5f 27 3f 1c a0 e7 3e 1c ff 9d bb
       0.30618256 0.65380377 0.4523934 -0.004821671
0003d0 2a ca 8a 3d 64 25 e2 be 2b 12 af 3c 24 3a 0f be
       0.06776841 -0.44169152 0.021370968 -0.13987023
0003e0 8b 37 ef 3c f9 83 73 3f 1d 8a b2 be de b5 68 3f
       0.02920129 0.9512325 -0.34870997 0.9090251
0003f0 b8 99 37 bf 36 01 f1 be 8c db 5e bc cf da 2d bf
       -0.7171893 -0.47071236 -0.013602149 -0.67912

lstm.weight_hh_l1 f4 [256, 64]
000000 a3 79 09 3f 8b e7 d8 bc ee 3f 26 3e 82 f0 ef be
       0.5370123 -0.026477596 0.16235325 -0.4686318
000010 87 d6 d0 3e 08 8c 5c 3e 25 a1 85 3f db 88 a4 3e
       0.4078867 0.21537793 1.0439802 0.32135662
000020 a2 ca 21 3f e2 84 12 bf f3 a9 52 3f 14 db 70 be
       0.6319982 -0.57234013 0.8229057 -0.23521072
000030 f0 43 43 3e 0d 8f 0d bf 50 ec a3 3e d8 01 cf bb
       0.19068885 -0.55296403 0.3201623 -0.0063173585
000040 7b 69 2f bf b3 9e 03 bf 55 8c de 3e 58 33 71 be
       -0.68520325 -0.5141403 0.4346644 -0.23554742
000050 0e 79 6d 3f 02 62 3b 3e b9 94 95 be ad 8a 71 be
       0.9276284 0.18299106 -0.2921503 -0.23588057
000060 a1 60 9c 3e f9 47 6d 3e 6c 69 89 3f 87 9d 33 bf
       0.30542472 0.23171987 1.0735297 -0.7016224
000070 a1 ed ce 3d c2 08 00 be b1 0a 12 3f 04 35 ea be
       0.10103918 -0.12503341 0.57047564 -0.45743573
000080 bf b8 19 be 5b e3 c7 3e 87 d9 b5 3e 22 1e 46 3f
       -0.15011881 0.39040646 0.35517523 0.7738973
000090 b2 3e 6e bd c1 8f 62 bf bc e1 d6 3d a6 88 f1 bd
       -0.05816526 -0.885006 0.10492274 -0.11793642
0000a0 12 10 b9 be 6f 6c a4 be c5 80 3b 3f a9 7d c1 bd
       -0.36145073 -0.32113978 0.7324336 -0.09447796
0000b0 de b3 c9 3d 5c 41 1f 3f 3c 45 27 3d e3 0f ca be
       0.0984876 0.62209105 0.04083751 -0.39465246
0000c0 d7 4d 35 bf 32 34 87 3e 17 12 a1 bd 39 46 f7 be
       -0.708219 0.2640701 -0.078647785 -0.48295763
0000d0 f2 9a ff be f7 47 a2 3e fa 1a 19 bf 05 e7 49 3d
       -0.499229 0.3169553 -0.5980679 0.049292583
0000e0 00 a5 09 3f 5d 60 1f bf e9 90 bd 3e a0 0b 46 3f
       0.53767395 -0.62256414 0.3702462 0.7736149
0000f0 e4 5f 0e 3f 9e 2e e8 be 45 99 17 3f 2d 89 e4 be
       0.5561507 -0.45348066 0.59218246 -0.44635907
000100 15 1c 87 be 63 ac f0 3e 27 58 ad 3d 24 e3 8b be
       -0.26388612 0.4700652 0.08464079 -0.27321732
000110 ed b1 56 3e 7b a9 1f bf 1f 4f 41 bd 7c 6d 94 3e
       0.20966311 -0.6236798 -0.047194596 0.2898978
000120 98 a0 dd bd 81 8e 82 be 7b b0 70 3e ee 6b a8 bd
       -0.108216465 -0.25499347 0.23504822 -0.08223711
000130 3f 96 e1 3e 50 30 b8 be 93 3f db be 7d 72 2d 3c
       0.4405994 -0.3597436 -0.4282194 0.010586378
000140 49 96 9a be 34 58 01 3f 87 5d ef 3d 12 b8 03 be
       -0.30192783 0.5052521 0.11687761 -0.12863186
000150 15 51 68 3e 19 fa 39 bf 0b 71 03 bf c2 1a 75 3f
       0.2268718 -0.72647244 -0.51344365 0.95743954
000160 13 40 b9 3e b6 f8 0c bf 70 d7 bc bd 3c a5 4b 3d
       0.36181697 -0.55067 -0.09220779 0.049718127
000170 d2 90 d7 3e fa 3c 8b 3e ec 3a 41 3f e4 93 61 be
       0.42102677 0.2719496 0.7548053 -0.22029072
000180 a9 aa 92 3e 9e 13 92 3e 7c 74 37 3e 77 49 af be
       0.28645828 0.28530592 0.17915529 -0.34235737
000190 8a 79 07 3e 5f 5e 05 3f 54 b4 18 bf 1b 3e 12 3f
       0.13229957 0.52097124 -0.5965016 0.57126015
0001a0 a4 34 45 bf 08 df 9f 3e 22 e6 3c bf 82 12 94 be
       -0.7703345 0.31224847 -0.73788655 -0.2892037
0001b0 5c f3 b3 3d 7b 95 1d bf 06 d9 35 be 8a 72 52 bd
       0.087866515 -0.61556214 -0.17758569 -0.051378764
0001c0 91 cc c7 be e2 89 3c 3f a4 98 49 bf 0e 0f 7d be
       -0.3902326 0.7364789 -0.78748536 -0.24712774
0001d0 48 8b 31 bf f0 e2 ca 3e 48 fa 6d bf e1 2f ab 3e
       -0.6935315 0.39626265 -0.92960024 0.33434966
0001e0 a8 60 f9 be 14 c3 53 be 62 64 af 3e b3 9e bb bd
       -0.48706555 -0.20679885 0.34256274 -0.09161129
0001f0 e3 e7 e7 3e 5f a6 6c be f6 63 2e 3f a1 c1 0a 3f
       0.45294103 -0.2311034 0.6812128 0.54201704
000200 b8 ac f7 be 95 ba 94 be 82 6f a2 bf 88 6d 51 be
       -0.4837396 -0.290486 -1.269028 -0.20451939
000210 6e 80 e0 3e 8f d1 e1 be bb bf b4 3d d6 c0 67 3f
       0.43847984 -0.44105193 0.08825632 0.9052862
000220 de 1a 8e 3f 9e a9 78 bc 94 b0 de be b8 a5 4a be
       1.1101949 -0.015177159 -0.43494093 -0.19789779
000230 d3 b9 26 3e 43 d2 b0 3f fb 1b ce be ed 60 81 3e
       0.16281824 1.3814167 -0.40255722 0.2526926
000240 71 f6 5c 3e a6 0a 26 3e 9d 37 24 3e 25 e0 f6 3e
       0.21578385 0.16215 0.1603684 0.48217884
000250 82 2f c6 3b c1 fb 84 3e cd aa 5d 3f 66 ac c0 3e
       0.006048144 0.25973323 0.86588746 0.3763153
000260 97 86 d1 bd f0 c6 12 3f 03 fa ef 3d be 6a d4 3e
       -0.10230749 0.57334805 0.11717608 0.41487688
000270 ca e3 7a 3e 29 46 79 be 4e a3 9b 3e cb 36 71 be
       0.24500957 -0.2434317 0.3039803 -0.23556058
000280 46 e2 f7 3e 32 ca 46 bf cd 5c d3 be e0 51 5a be
       0.4841482 -0.77652276 -0.4128174 -0.21320295
000290 e1 11 43 3f e8 83 d1 3e f5 44 80 be 6d d9 de be
       0.76199156 0.4092095 -0.2505261 -0.43525258
0002a0 9f 22 cd 3e b9 98 12 be 51 65 2e bf c4 1b ef be
       0.40065476 -0.14316072 -0.68123347 -0.4670087
0002b0 d6 68 e6 3d 0a cd 2f 3e 1a 72 b3 3c 47 29 ef 3d
       0.112504646 0.1716806 0.021904994 0.11677795
0002c0 25 21 bf bc e5 de 8b be 27 cb 45 3e 5e e4 b5 bf
       -0.023331234 -0.27318493 0.19315778 -1.4210317
0002d0 96 c9 72 3f 91 fd b4 be 9a 4c 45 3e 0d 24 aa 3b
       0.94838846 -0.35349706 0.19267502 0.005192286
0002e0 f2 51 3d 3e 52 d5 f3 3e d1 7a f0 bd be 62 b4 bf
       0.18488291 0.47623688 -0.11742175 -1.4092634
0002f0 70 ba cc 3d a8 50 93 be 5e d2 06 3f 20 cd 81 3e
       0.09996498 -0.28772473 0.52664745 0.2535181
000300 9a d0 22 bf 7a 0f b0 be a4 db d1 bd f5 f7 64 bf
       -0.6359955 -0.34386808 -0.10246971 -0.8944085
000310 f0 e8 90 be b7 a0 6f 3e dc 7e 8f be 01 68 01 3f
       -0.28302717 0.23401152 -0.28026474 0.5054932
000320 f4 3e e5 3e ea 3c 41 3f 87 f0 cc 3e df 63 88 be
       0.44774592 0.7548357 0.40027258 -0.26638696
000330 e3 f3 e2 be db 87 da bd 9d 26 26 be 3a fd c9 3e
       -0.44326696 -0.106704436 -0.16225667 0.3945101
000340 07 6c 03 be de 4c 5c 3f 7d 6e 12 3d 90 f6 af 3e
       -0.12834178 0.8605479 0.0357499 0.343678
000350 d8 d7 9c bd fa 59 88 3c fd 8d 27 be c6 f2 20 bf
       -0.076583564 0.016644467 -0.16362758 -0.6287044
000360 b3 84 85 3e 71 66 bc 3d e7 1c 81 be 07 7d fa be
       0.26077804 0.09199227 -0.25217363 -0.48923513
000370 8b b9 15 be fa c7 98 bd 53 0f d3 bd 2c 12 11 3d
       -0.1462156 -0.074600175 -0.10305657 0.03541772
000380 93 12 a7 bd ac 52 3c bf a5 0e 22 bf e9 fe 46 3f
       -0.081578396 -0.7356365 -0.63303596 0.7773271
000390 01 fa 41 3e 1e ee 2b 3f 53 f2 c1 3b ae 6e 31 3f
       0.18943025 0.67160213 0.00591878 0.6930951
0003a0 c6 50 ae be be 5b dd bd 03 a4 12 bf 18 3d 63 3f
       -0.34046 -0.10808514 -0.5728151 0.88765097
0003b0 ac 9a 9d 3e bc ef 27 3e 36 e9 b9 3d 0f 44 ac 3e
       0.30782068 0.16400045 0.090776846 0.33645675
0003c0 c2 7d 98 3d 74 f5 1c be eb ca 81 3e 22 6a 4b be
       0.074458614 -0.15328008 0.25350127 -0.19864705
0003d0 cc 12 ca 3e 9a 76 b9 3f 2f 3b df bb 44 dd b8 3e
       0.39467466 1.4489319 -0.006812475 0.36106312
0003e0 c9 8f a4 be a1 3a bf 3e 0a 62 96 3e c0 c5 92 3e
       -0.3214095 0.37349418 0.29371673 0.28666496
0003f0 68 5f 74 be 9b b7 6e 3e 06 11 ce be 62 8f aa be
       -0.2386452 0.23312227 -0.40247363 -0.33312517

lstm.bias_ih_l1 f4 [256]
000000 f5 e2 d1 3e ec ca 07 be 8e 44 89 3e 10 64 11 3f
       0.40993467 -0.13261002 0.26810116 0.5679331
000010 1e 4f f8 3e 07 8c de 3e 1d 58 10 3e 49 e4 c7 3d
       0.48497862 0.43466207 0.14096113 0.09760339
000020 5e 3a d7 be ea bd f0 3e bd 4d c4 3d 99 6e a9 be
       -0.42036718 0.47019893 0.0958514 -0.33092192
000030 b5 be aa 3e 59 17 40 be f2 19 80 3e aa 08 98 3e
       0.33348623 -0.18758906 0.25019795 0.2969411
000040 79 19 ec 3e cc 7d 3a 3f 58 24 cc 3e eb fa 47 3e
       0.46113184 0.728482 0.39871478 0.19529311
000050 24 a4 20 3f 0b c4 e9 3e bd 3c 32 3f 47 43 de 3d
       0.6275046 0.4565738 0.6962393 0.10852676
000060 1d 6b 43 3f a4 11 3c 3f 45 6b 95 3e 0b a8 f7 3e
       0.76335317 0.7346442 0.29183403 0.48370394
000070 dd 03 8e 3e 5d c1 ba 3e 06 16 e2 3c 07 92 af 3e
       0.27737322 0.3647565 0.027598392 0.34291098
000080 8e fe 11 3e 20 53 20 3f a7 f9 41 3f 95 d2 ce 3c
       0.14257261 0.6262684 0.75771564 0.025246898
000090 d7 f3 85 be aa 72 2c 3f 5a 84 dd 3e 7a aa a8 3e
       -0.26162598 0.67362463 0.4326504 0.32942563
0000a0 12 59 15 3f eb 9f ee 3e ac 68 4c 3e cf 14 bf 3e
       0.58339036 0.46606383 0.19961804 0.37320563
0000b0 5d 70 16 be 2a 6d f6 3c 5a f4 58 3e c7 06 c1 3e
       -0.146913 0.03008135 0.21186963 0.37700483
0000c0 5c 5e d9 3d b3 36 96 3e bd b4 26 3f 66 e1 a8 3e
       0.10613701 0.29338607 0.65119535 0.32984465
0000d0 9c 0f 9e 3d fc 7b 5a 3e a8 3d 50 3e b5 a4 ef 3e
       0.07717821 0.21336359 0.2033602 0.4680535
0000e0 49 86 03 3f 5a 2c c3 3e 0b 34 32 3f 0a 85 c2 3e
       0.5137678 0.38119775 0.6961066 0.37992126
0000f0 30 2e 83 3e 3e c8 ba 3c 82 7d b5 3e 44 b1 6a 3e
       0.25621176 0.022800561 0.35447317 0.22919184
000100 b4 ce b7 3d 00 e9 b6 3e 53 e8 22 3f c9 2e d0 3e
       0.08974972 0.3572464 0.6363575 0.40660694
000110 9e dc be bd 8a df c6 bd b3 66 49 3d 25 18 37 3f
       -0.09319423 -0.097106054 0.049170207 0.71521217
000120 70 e4 33 3f 5a 26 bd be 34 8b c5 3d d4 1f 2c 3f
       0.7027044 -0.36943322 0.096456915 0.67236066
000130 1e 92 a0 3d 82 0e 49 3f e7 db d2 bd 09 b7 1b 3d
       0.0784037 0.7853776 -0.10295849 0.038016353
000140 57 e4 73 3f e3 b3 94 be a8 4c b4 bc 08 87 8f 3e
       0.95270294 -0.29043493 -0.022009209 0.28032708
000150 9e c8 11 be 02 6c 01 3f eb 23 1f be f1 47 ef 3d
       -0.14236686 0.5055543 -0.15541045 0.116836436
000160 74 eb 95 be 15 89 1d 3f 60 2f 34 3f 2d 0e d2 3d
       -0.292812 0.61537296 0.7038479 0.1025661
000170 5d 49 61 3e f9 3d b4 3e ce cd 76 3e c4 61 24 be
       0.22000642 0.3520353 0.24101946 -0.1605292
000180 72 87 7c bd 4c 47 c2 3d a4 dd d4 be ef 78 da 3d
       -0.06165261 0.09486255 -0.41575348 0.106675975
000190 af b9 0b 3f 61 54 3f be e8 f4 05 be 7e 9e 66 3e
       0.54580206 -0.18684532 -0.13081706 0.22521397
0001a0 45 d4 ac be 19 a6 4e 3e 65 ed 8b 3d 59 d3 2e 3f
       -0.337557 0.20180549 0.06832389 0.6829124
0001b0 79 e7 10 be 4a 95 af 3e 6e d2 42 be 76 e7 6e 3e
       -0.141508 0.34293586 -0.19025585 0.23330483
0001c0 58 47 d8 3e 78 c3 d5 be 92 b6 01 bd 95 88 cc 3e
       0.4224193 -0.41750693 -0.031668253 0.39947954
0001d0 37 79 aa 3e 7f 56 33 3e 99 2c e4 3e 41 b4 ca bd
       0.33295605 0.17513464 0.44565275 -0.09897662
0001e0 21 61 9d be fd f9 e5 3e 37 61 db be e3 af 8c bd
       -0.30738166 0.44917288 -0.42847607 -0.06869485
0001f0 90 d1 bc 3e d8 d1 4f 3d d8 17 48 be eb 1a d6 be
       0.36878633 0.050737232 -0.19540346 -0.41817412
000200 a3 e2 09 be fc e0 89 bc ea 3d 2d be 07 47 b2 be
       -0.13465361 -0.016830914 -0.1691815 -0.34819815
000210 f5 34 fa 3d a8 f3 1f be 37 a7 84 be 06 32 58 be
       0.12217132 -0.15620291 -0.25908825 -0.21112832
000220 62 e9 17 3e 1a 10 87 3c 1f 52 1d 3c a2 d9 90 be
       0.14835122 0.01648717 0.009602099 -0.2829104
000230 4d 7e 00 3d 74 f5 6e 3d bc ba e3 3d a3 3a 78 bd
       0.03137045 0.05833955 0.11119601 -0.060602795
000240 b9 17 95 be 17 fc 8d 3d a6 de 2e be 03 c2 d7 bd
       -0.2911966 0.06932848 -0.17077121 -0.10535052
000250 0f c1 62 3c ae 60 7b 3e c3 b6 68 bd 17 66 e3 3c
       0.013839974 0.24548599 -0.05681492 0.027758641
000260 ca 43 a6 3d 5b 32 92 bd 43 d4 f1 bc f7 7c b5 3e
       0.081183985 -0.07138511 -0.02952016 0.35446903
000270 f3 86 af 3e 46 0e 3f be f3 b2 86 be 6f eb 83 be
       0.34282646 -0.18657789 -0.26308402 -0.2576556
000280 db a1 68 3e 2c 6a 09 3e e5 a7 e7 3d 65 9e 5a 3e
       0.22717993 0.13419408 0.1131132 0.21349485
000290 8a 35 a5 bd d6 77 fe 3c db 26 63 be b8 7e 84 3c
       -0.080668524 0.031063002 -0.22182791 0.016173705
0002a0 70 07 1d 3d 88 f0 83 be e6 cc 1a bd 6d e4 4a 3e
       0.03833717 -0.25769448 -0.037793063 0.198137
0002b0 79 eb 67 3d 7d 69 32 3e 11 53 05 be b6 2c a4 bd
       0.05662105 0.17423053 -0.13019969 -0.080163404
0002c0 e4 6e 34 be 6d df da bd 27 aa 04 bd 63 b4 31 be
       -0.17620426 -0.10687146 -0.032388832 -0.17353968
0002d0 21 e5 62 be 36 cb 89 bd 40 ad 25 be 0d 9d 9f be
       -0.22157718 -0.067282125 -0.16179371 -0.31174508
0002e0 71 a5 77 3d d6 55 5f 3e e4 08 20 3e ce 7d b9 bd
       0.06046051 0.21810088 0.15628392 -0.090571985
0002f0 9a d5 f8 bc 60 50 bf 3e de c1 c5 bd 7f 5a 25 3e
       -0.03037529 0.3736601 -0.09656118 0.16147803
000300 29 7c 24 3e cf 95 a1 bd 4b 2e d5 be 5d 12 7b be
       0.16062988 -0.07889902 -0.4163688 -0.24518724
000310 0c 05 b8 3e d8 0f f5 3e b8 80 46 3e 12 e7 2f 3e
       0.3594135 0.4786365 0.1938504 0.1717799
000320 cd bf 56 3d 7e 4c 8f 3e 2a df 8a 3e 81 f9 cd be
       0.05242901 0.27988046 0.27123386 -0.4022942
000330 03 2e 8f 3e 99 98 05 be 5f 62 89 3e 2a ce c1 3e
       0.27964792 -0.13046493 0.26832864 0.37852603
000340 2e ef 06 bf 93 c9 bc 3e ff be dd 3e 54 99 16 be
       -0.5270871 0.3687254 0.4330978 -0.14706928
000350 0d 31 83 3e 7b 25 b1 be 26 95 2c 3f 32 a4 3f 3e
       0.2562336 -0.34598908 0.6741508 0.1871498
000360 90 d1 01 3f 6d 94 f2 bd b0 e2 0f be e8 1b 57 3e
       0.5071039 -0.11844716 -0.14051318 0.21006739
000370 5e 2a 75 3d 03 9c ef 3d 42 9c 1f 3f 42 37 62 3d
       0.059854858 0.11699679 0.62347806 0.05522848
000380 86 47 2d 3b 22 e4 18 3f e2 4c 7a 3f dd 3d 7b 3e
       0.0026440336 0.59723103 0.97773564 0.24535318
000390 ae 25 a5 bd c2 ea 4a 3f eb f7 8d 3e e5 79 ea bc
       -0.080638275 0.7926446 0.2772821 -0.028622577
0003a0 5a b7 0f 3e 47 2d 0a 3f b0 c2 32 3e 23 97 a4 3b
       0.14034787 0.5397534 0.1745708 0.0050228997
0003b0 60 0a 8c 3e 62 80 f5 be 1d 6d 06 3f 30 97 de 3e
       0.27351665 -0.4794951 0.52510244 0.43474722
0003c0 61 00 c2 be 20 9b 2a 3f 40 1c 16 3f 04 8f f1 bd
       -0.37890914 0.6664295 0.58636856 -0.11794856
0003d0 8e 14 2d 3f 90 00 4f 3d 7a 42 0b 3e 11 fd a9 3e
       0.6760949 0.050537646 0.13599578 0.33200887
0003e0 23 2a f2 3e 39 b4 09 be 42 62 6a 3f 65 5a e6 3d
       0.47297773 -0.13447656 0.9155618 0.1124771
0003f0 c5 d3 0c 3e 86 20 b4 bd 88 c0 54 3e 28 c9 48 3e
       0.13752659 -0.08795266 0.2077657 0.19607985
