model/epoch_790.pth (torch, 235619 bytes, 10 tensors)

lstm.weight_ih_l0 f4 [256, 20]
00000000: 0154 dd3e 23dc 13bf c371 b73f 0839 203e
00000010: 7c6d 8bbf b743 adbf 9c00 0e40 d717 cf3f
00000020: 2dbc aa3f 985f 03bf b208 743e da11 22bf
00000030: 852f 5e3f e7b8 b53c 0d3a 433e ec64 cbbe
00000040: 49b5 9dbf 511d 3abe 34f8 59be 39ce 88bf
00000050: 6fd0 1bbf 9792 a6bf 4755 4c3f 4e79 2c40
00000060: 31fe 0340 102d 7fbf 79e2 84bd d3f6 d2bf
00000070: 58ff 013f 0721 ae3f 4cd2 0a3c f640 0abf
00000080: 3505 2dbe 288f dc3f ee6f 2abd 382d f73f
00000090: 827a 933e fea6 dabe c9b0 f8be a2de 9a3e
000000a0: 408b 8740 fc6b 9c3f 2e4c 063f b751 a2bc
000000b0: ebae d2be f814 e83e 63ef 723e 61fd fe3e
000000c0: 1f36 3ebe e477 3cbd 1004 813f ebba 0d3f
000000d0: 7b5a e6bf c9c6 c9be 7d93 a1be d74e d73e
000000e0: 8ee7 a1bf 4ed3 7b3f 5f14 083f dec9 5f3e
000000f0: 7a2d cdbe cedf e03e 706e 0a3f dd44 513e
00000100: 0b21 633d bb4a 3f3f 4f7f ac3f 2fbd f23f
00000110: f33c c83f 7add 7e3f cdcf 8dbe 10fc b6bd
00000120: 19bd c5bf 7947 70bf 0eab 5abf 92a1 a4bf
00000130: 68bb 0c3e 18c2 c63f 99ed 863f 9e0c 2bbc
00000140: ec8c 01bf 9146 49be 5be3 3f3f 1acd ad3f
00000150: 43f1 3c3f 2a3b da3f beef 0abf 473e 423f
00000160: a6a0 1fbf e816 8d3f 9204 04bf 094d ba3f
00000170: 89e7 2dc0 2594 acbf cfed 083f fbe1 66be
00000180: 6bd5 f2bf d5aa fe3f f3a1 f0bf cd08 3cbd
00000190: fc09 e43f 0e52 7fbf 3c7f a63f 9f48 8e3d
000001a0: 61c0 f0bf be40 153f 3efe 803e 4f39 0a40
000001b0: 8ad1 05bf 6d6a ffbc 336f aa3d 41a5 52be
000001c0: 3834 a43f 1389 9040 77ff 6cbd cc8e 623f
000001d0: 995a f53f 975e 64bf d337 2f3f 625f a6be
000001e0: cc5e 9f3e 4e8f e43f d4cf 7a3d ae83 0f3f
000001f0: c1bf 0f3f 9a5d 1040 542b c5be 5722 0640
00000200: 89e2 f93e 6bed e33c 1728 fa3f 5314 febe
00000210: 94c0 203e 9346 b5bf b0c3 ee3e d479 d6bf
00000220: ef9c 2e3f eb78 333f 6621 58bf b068 4cbf
00000230: 6c57 8fbe 5deb c23e bbae bd3f fbad 273f
00000240: 4e75 873f ee5b 743e 6081 c6be abe1 bd3f
00000250: 30ce 433f dcf0 cabe ae63 f8be 0aac 8f3f
00000260: d503 e3bd 3535 80bf 34e2 d63b 6384 18c0
00000270: 6896 a8be a530 eebe f41a 84bf ab5a 1b3e
00000280: b2c0 5e3f 0acc eabf 8cb1 c23c b7ac 0e40
00000290: d0f0 853f 9374 333f 87ae 683f 15dd d8be
000002a0: b3e4 cf3e 1d47 c3be 5f15 2e40 8010 1bbe
000002b0: 887d df3d 2741 5b3f 626a 74bd 9846 46bf
000002c0: bab8 aa3e e3b4 773f 0df2 aebf 5108 6d3f
000002d0: da92 05bf b9a2 f03f 5f5c 05bd fbe8 05bf
000002e0: c595 063f 2176 a03f 9980 32bd c628 733e
000002f0: 09c3 85bf ab35 c73f 35d3 18c0 b06d 4d3f
00000300: d083 26bf e048 0340 e6eb 533f f873 a940
00000310: f53d 9a3f 487f 7b40 14a1 48bf 9eee 07bf
00000320: 042d a2bf 9c28 8dbf 4a81 25bf b5ae 1640
00000330: 7050 3e3f 62ac 913e 822c 7f3e 94ce adbf
00000340: 81bb 543e 0f8e 0b40 3f09 be3f dae2 363c
00000350: fd8b adbe a2ba 69be 9186 39be 67e5 363e
00000360: e513 473f 4246 14bf 4068 78be cbcc abbf
00000370: 642f f33e aa39 d73f 7d5f 6cbf a25c 01c0
00000380: b498 a4bf e5b0 abbf 8c3c 1dbf a3ef 3d40
00000390: 55ba cb3e b00b b0bd 789a 97be 18c8 113f
000003a0: 8c34 7a3e 6c56 2b3e 43d8 943e e995 d5be
000003b0: 7a40 0340 16f5 6ebe 64d2 83be 17c8 41bd
000003c0: 4507 22be 93f7 5c3f 3dbd 0f3f 3fe4 b53d
000003d0: 1c3c 2140 ef46 7f3e 2328 0440 d54a 043e
000003e0: 6652 b7bf adbb bd3e 1753 a9bf 9664 b6bf
000003f0: eeb0 2440 d42e 9fbf bce3 8c3f 6606 a7be
0.43228152 -0.57757777 1.4331592 0.15646756 -1.0892787 -1.353629 2.2187872 1.617915
1.3338677 -0.5131774 0.23831442 -0.6330849 0.8679126 0.022182895 0.19065113 -0.39725435
-1.2320949 -0.18175246 -0.21286088 -1.0687934 -0.6086492 -1.3013486 0.7981762 2.6949039
2.0623896 -0.99678135 -0.06488509 -1.6481575 0.5078025 1.3603829 0.00847299 -0.5400537
-0.16896518 1.7231188 -0.04161065 1.9310675 0.28804404 -0.4270553 -0.48572376 0.3024798
4.2357483 1.2220454 0.5245999 -0.019814355 -0.41149077 0.45328498 0.23724131 0.49802688
-0.18575333 -0.046012774 1.0079365 0.5536334 -1.7996362 -0.39409474 -0.31557837 0.42052338
-1.264879 0.983693 0.53156084 0.2185435 -0.40073758 0.4392075 0.54074764 0.20436426
0.055451434 0.74723405 1.3476351 1.8963984 1.56436 0.99556696 -0.27697602 -0.08934796
-1.5448333 -0.9385906 -0.8541726 -1.2861807 0.13743365 1.5527983 1.0541259 -0.01044002
-0.50605655 -0.19655825 0.7495629 1.3578217 0.73805636 1.7049305 -0.5427207 0.7587628
-0.62354505 1.1022615 -0.51569474 1.4554759 -2.7172568 -1.348271 0.5348787 -0.22547142
-1.897138 1.9895884 -1.8799423 -0.04590683 1.7815547 -0.9973458 1.3007579 0.06947445
-1.8808709 0.58301914 0.2519397 2.1597478 -0.52272856 -0.031178677 0.08321991 -0.20570852
1.2828436 4.5167327 -0.057860818 0.8849914 1.9168273 -0.8920683 0.68444556 -0.32494646
0.31127012 1.7856233 0.061233357 0.560603 0.5615197 2.255713 -0.3850962 2.095846
0.48805645 0.02782317 1.9543484 -0.4962488 0.15698463 -1.4162163 0.46633673 -1.6755929
0.6820821 0.7010638 -0.8442596 -0.7984724 -0.27996385 0.38070193 1.4818949 0.6549985
1.0582674 0.23863193 -0.3877058 1.4834493 0.7648649 -0.39636886 -0.4851355 1.1224377
-0.11084715 -1.0016237 0.006557727 -2.3830802 -0.3292725 -0.46521488 -1.0320725 0.15171306
0.8701278 -1.8343518 0.023766302 2.2292917 1.0464115 0.70099753 0.9089131 -0.42356172
0.4060417 -0.38140193 2.7200544 -0.15143013 0.10912615 0.8564629 -0.059671767 -0.7745147
0.3334406 0.96760386 -1.3667618 0.92590815 -0.521772 1.8799659 -0.032558795 -0.52308625
0.5257228 1.253605 -0.04357967 0.23746023 -1.0450145 1.5563253 -2.387891 0.80245495
-0.6504488 2.051323 0.8278183 5.2954063 1.2050158 3.9296436 -0.78370786 -0.53098476
-1.2669988 -1.1028018 -0.64650404 2.3544133 0.7434149 0.2845183 0.24919322 -1.3578668
0.20774652 2.1805456 1.4846572 0.011162484 -0.33895865 -0.22825101 -0.1811774 0.17860948
0.7776473 -0.57919705 -0.24258518 -1.3421873 0.47497094 1.6814473 -0.92333204 -2.0212789
-1.2859101 -1.3413359 -0.6142051 2.9677513 0.39790598 -0.08595979 -0.29610038 0.56945944
0.24434108 0.16732186 0.29071245 -0.41715935 2.0508103 -0.2333568 -0.25746453 -0.04730996
-0.15823086 0.8631527 0.5614813 0.08881425 2.5192938 0.24929403 2.0649498 0.12919171
-1.4322021 0.37057248 -1.3228482 -1.4249446 2.573299 -1.2436166 1.1006999 -0.3262207

lstm.weight_hh_l0 f4 [256, 64]
00000000: 0bcc 88bf 8233 00bf 4806 ecbd d234 07bf
00000010: 79f2 cabe c9a5 1140 a17f 56bd 4f8b 2d3d
00000020: ec52 03bf a4b7 973f 8c55 fcbe a20c 0c3f
00000030: 10a8 53be 2d8a 913e 9109 073e 20d2 ad3d
00000040: b8f9 343f 15e1 a0bd 14e0 1a3f 3f7d 53be
00000050: 493d 643e 615d 55be 0952 2e3e a526 813d
00000060: 68d6 8c3d 368b af3e c232 2bbe 7f6e 30be
00000070: 964f fc3e 1988 39bf 8aa1 0fbf 38eb bebd
00000080: bdca 413f 6b4d 283f 7ef2 e9bc eef2 423e
00000090: a2f7 ed3e 014b 66bf f8df 86bd 09d6 a33e
000000a0: 37ba 7bbf 2edf 04bf 2558 113c 7085 313f
000000b0: b54f 943f 7445 123f f583 ea3e 7a50 e23e
000000c0: 8e94 a13d ed9f be3d a514 a7be 8c39 393e
000000d0: 54f2 043f cfc4 88be a327 97be 6d85 41bf
000000e0: c937 09bf f9e1 9fbe 96f4 783f 189a 8ebd
000000f0: 5da4 86be 6351 7b3f 8ee4 533e 90a0 ddbd
00000100: cc09 213e 304b 9bbd d062 34be 3e4d 14be
00000110: 67d8 e23e 6729 823f b295 f93d c90b 723f
00000120: cc40 a6bc 09e1 4dbf 501f 93be 8558 30be
00000130: 6437 8e3d 6ed5 2bbf e9a3 1dbf 2a25 6b3f
00000140: ed50 ba3c 4894 47be 0452 c03e fa06 cb3c
00000150: a521 ba3e f659 d43e a407 b43e 1e94 e73e
00000160: 431c 4c3e 4036 103f 0a83 933f 484f d8be
00000170: 25de 9f3f ad54 373f 5c8e 4c3f 56a8 db3e
00000180: 121f e2bd 75bb 60be d455 c4be e9b3 893d
00000190: c60c b4be 6adb 0c3f 8fac 99bc dc9c 71be
000001a0: 429f 10bf 6353 e93d 1c3a 5fbf 1008 9cbf
000001b0: 99b1 d43e bd7b c3bd 3fba 7b3d 6ea0 663f
000001c0: 2e75 8fbe 7624 643f cab9 92be f14e 6cbf
000001d0: 66fd ab3e 7be5 3abf 10a3 3abf a083 f0be
000001e0: e651 e93e f4e5 50be 6345 c3be d697 72be
000001f0: 18d1 e4be ba6e a13f 8a8c a2be 3a3e 35be
00000200: 72ea 07be 81b7 c73e b6c1 88bf 47cc b0bd
00000210: 845f d7be 2d62 833f 6e1c c2be 869b 99be
00000220: 121b 3fbf 88a5 84be dc29 44bf 3e1f 2e3e
00000230: 5d00 6d3d 8359 113e 3068 57be 3671 613f
00000240: 0884 83be 625e afbd 4860 803e 88b4 ffbd
00000250: d8df 4c3f b076 883e 2ebb 243e b115 82be
00000260: 09e8 d13d 38c8 b33d 1c1d cabd a98f a73e
00000270: c9e4 4fbf e134 363f dbe4 d2bd 3f24 763f
00000280: d9e6 fb3e 0c32 ae3e cbd4 d83e 83f2 cdbe
00000290: af89 15bf 6f7e 133f d2bb f6bc 6a0c a8be
000002a0: 6035 193f 335e 963d ef44 e6bd bf26 b9be
000002b0: ffc5 0a3d 1c46 0bbf 0dd0 303e bec6 853f
000002c0: c593 063f d903 03bf 0bf9 58be 2f61 e03e
000002d0: 4920 27bf adab 0c3e 9d3f 0c3f a059 adbe
000002e0: 2703 303f 4b41 53bf cef0 5b3f 4d5a cebe
000002f0: e407 babe e1c9 e13e 51e2 81be 0319 0dbd
00000300: 1161 d5be 4a29 49bf 1a57 d1be 88d2 7fbf
00000310: 30f6 efbd 2139 343f 8135 ad3f 6f0a a4bd
00000320: 58b4 a73e e43c b53f 0788 80be df33 d13f
00000330: e176 df3e ba14 c7bf ab62 a23e 1b2f 0f3f
00000340: cd24 373e 0c58 c8bf d8f0 74be ab79 1bbf
00000350: 0a2a 923f 74fe 0b3e 190d 66be f331 353e
00000360: 1257 79bf 8ccd 093f a53a 1bbe c4e0 b53e
00000370: 0835 3e3f 5c9a 55be 3739 243f 168f 653f
00000380: 96ca ea3e bce3 053e 3e30 d93e 4a7b 1cbf
00000390: 0152 0ebf 144c f83d 7bb7 44bf 37c6 09be
000003a0: 375e 3a3f a5a5 033f 1214 72bf 33bc 913c
000003b0: 1e12 a13f 6336 18bf dcfc 46bf ca04 8cbe
000003c0: c140 1e3d c981 15bf d796 173e 11ef 43be
000003d0: 9e33 493e 3a0b 89be 4750 423f 5f2d 95be
000003e0: 50cc 3dbe c526 13bf ca09 c63e 8295 56be
000003f0: 68fc a3be 71d5 b23f 57c8 0f3f b9e2 96bd
-1.0687269 -0.50078595 -0.115246356 -0.5281497 -0.39638117 2.2757437 -0.05236781 0.042369183
-0.51298404 1.1852918 -0.49284017 0.54706776 -0.2066958 0.28425732 0.13187243 0.08487344
0.7069354 -0.07855431 0.60498166 -0.20653246 0.22289003 -0.20836402 0.17023481 0.06306199
0.06876832 0.34285897 -0.16718581 -0.17229651 0.4927947 -0.72473294 -0.56105864 -0.09322208
0.7569998 0.6574313 -0.028558012 0.19037983 0.4647799 -0.89958197 -0.065856874 0.31999233
-0.98331016 -0.51903045 0.008871113 0.69344234 1.1586825 0.5713723 0.458038 0.44202024
0.07889663 0.09307847 -0.32632938 0.18088359 0.51932263 -0.26712653 -0.29522428 -0.75594217
-0.53600746 -0.3122709 0.9724821 -0.06962985 -0.26297274 0.9817106 0.20692655 -0.108216405
0.15726393 -0.075827 -0.17615819 -0.1448259 0.44305727 1.0168885 0.12186755 0.9454923
-0.02029457 -0.804215 -0.28734827 -0.17221268 0.06944159 -0.6712254 -0.6157823 0.9185358
0.022743667 -0.19490159 0.37562573 0.0247836 0.36353794 0.41474885 0.3516208 0.45230192
0.19932656 0.5633278 1.1524365 -0.42247987 1.2489668 0.7161358 0.79904723 0.42901868
-0.110410824 -0.21946509 -0.38346732 0.06723768 -0.35165995 0.550223 -0.01875904 -0.23594993
-0.5649301 0.11392858 -0.8719804 -1.218996 0.41541746 -0.095450856 0.061456915 0.90088546
-0.28019089 0.89118135 -0.2865737 -0.92307955 0.33591765 -0.7300641 -0.72905064 -0.46975422
0.45570296 -0.2040022 -0.38138875 -0.23690733 -0.44690776 1.2611916 -0.31747848 -0.17699519
-0.13273028 0.3900719 -1.0684116 -0.08632713 -0.4206506 1.0264336 -0.37912315 -0.30001467
-0.7465068 -0.2590754 -0.7662637 0.17004105 0.057861675 0.14194302 -0.21035838 0.8806337
-0.2568667 -0.08562924 0.25073457 -0.124856055 0.8002906 0.2665305 0.16087028 -0.25407174
0.10249335 0.08778423 -0.098688334 0.32726792 -0.81208473 0.71174437 -0.10297557 0.9614906
0.4919956 0.34022558 0.42349848 -0.40224084 -0.58413213 0.576148 -0.030118857 -0.3282197
0.5984707 0.07342186 -0.11243617 -0.36162373 0.03388023 -0.54403853 0.17266865 1.0451276
0.5256923 -0.51177746 -0.21188752 0.43824145 -0.6528364 0.13737364 0.54784566 -0.3385744
0.6875481 -0.82521504 0.85914314 -0.4030327 -0.36334145 0.44099334 -0.25367978 -0.03444768
-0.41675618 -0.7857863 -0.40886766 -0.9993062 -0.117168784 0.7039967 1.3531953 -0.080098026
0.3275478 1.4159207 -0.2510378 1.6343955 0.43645385 -1.55532 0.31715903 0.5593125
0.17885132 -1.565187 -0.2392 -0.60732526 1.1419079 0.13671285 -0.22465934 0.17694835
-0.97398484 0.53829265 -0.1515909 0.35523045 0.7429967 -0.20859665 0.641498 0.89671457
0.45857686 0.13075155 0.42419618 -0.61125624 -0.5559388 0.12123886 -0.7684247 -0.13454519
0.7280001 0.5142463 -0.94561875 0.017789936 1.2583654 -0.5945799 -0.7772958 -0.27347404
0.038635973 -0.5840116 0.14803635 -0.19134165 0.19648597 -0.26766378 0.75903744 -0.29136178
-0.1853497 -0.5748103 0.38679343 -0.2095547 -0.32028508 1.3971387 0.5616507 -0.07367463

lstm.bias_ih_l0 f4 [256]
00000000: 170b bb3e 0fd4 873e 7f61 343e b1f3 e43e
00000010: d408 f63d e598 8b3e 7b49 8b3e 1eb8 9cbd
00000020: 43de 813e 56dd 393f aae4 f53b abd8 edbc
00000030: 4d6a 493f 74c5 02be 1b90 a63e 6d4f 1cbc
00000040: bd1c a73e a649 ec3e 757a b83d 09b1 6e3d
00000050: 91e7 ee3e 08c9 803e 94e0 993e 7edf 3e3f
00000060: f3e6 523f ba02 813f 6ef4 5ebe 9a24 943e
00000070: 8451 733f 8842 553d 4e2e 7f3e 788c 233f
00000080: d7e2 903e 25b4 0d3f 99ff 6a3f d5bb 1b3f
00000090: 1156 523f cedd 01bf 6b94 0e3f a457 b4bd
000000a0: 1702 b63e 6dd2 533f f909 443f 1776 4e3f
000000b0: 27f3 b53e 16ce 2c3f 3d46 3c3e 2c9e fb3e
000000c0: 5c23 cf3e dc42 823e 0d00 3a3f e073 2e3e
000000d0: d0bd c83e bda2 0e3f 4c36 a73e 307b 5a3f
000000e0: 8687 fb3e 2a16 673f ac3f 0b3f 7964 013f
000000f0: 744c 223e d02c d83e 9d4e ac3c dddf 8dbc
00000100: 48cf d43d 1d6b 0b3f a8b7 3f3e 9fef b73e
00000110: f9dc 603e b807 9f3e a887 db3e a013 4c3f
00000120: 9035 d6bd 7a6c 6d3e 33d1 a73e 968d e63e
00000130: 349f 3d3e ae1d 1e3d 96c6 4e3e d76c ba3e
00000140: 9754 013d 2f87 933e 8e99 ac3e fd39 0bbd
00000150: e3ab 193f d347 d53e 7be7 603d 14e4 1abf
00000160: a1e9 7d3e d8f5 db3d 9268 213e 8973 453c
00000170: 3402 33bd b286 a73e d469 b63c 86a9 ebbc
00000180: e068 293e 4d26 dfbc 2014 f23d 2a5d 1cbe
00000190: 709a 253e 900e 0a3f 32f9 973e b011 c03e
000001a0: aab1 163e e46c 9fbc af13 0f3e 5d73 b63e
000001b0: dec2 013e 513c 753e 5dd4 af3e f8f6 e53d
000001c0: 12b3 f83e 10d9 bfbd ddb9 23bf 3222 6dba
000001d0: 4989 3f3e 010f 523e 3f2c c13d 9307 e83d
000001e0: a660 d13d a2a3 c4be 4111 3b3c ed3f 4ebd
000001f0: 99f2 ef3d e31b acbc 8f59 b33e d924 ed3e
00000200: f2ac 1abe 94ed 363e 7405 ffbd 19e5 b8bc
00000210: 6e90 91bc 997b acbd 535b 3f3d b6ee 903d
00000220: 3ad2 103d 2764 463d 80f1 a53c 68c4 3bbd
00000230: 4853 c7bd 1be0 fd3d b14f d93c 3dad 183e
00000240: 2a8d ea3d 3320 23be 6bd2 dcbd 1be2 c83c
00000250: 6df3 463d c05c a13d 7ac1 0aba 49c2 47bd
00000260: 70f9 b5bd ea08 e03b 57c4 093e a8d6 4bbd
00000270: 2d08 de3c beb5 e8bd 01b2 30bc d123 03be
00000280: fb82 95bc ca12 26bd 1212 393d a3f9 b23c
00000290: 0349 ef3d f6cc 9abd 3002 46bd fc92 6abb
000002a0: ea21 263d b11b c3bc 6677 4cbd becf 14be
000002b0: d4a1 9f3d a951 98bd 15ad a13d 9f27 5a39
000002c0: c042 8cbe 7b1d edbd 58b2 ae3d e859 dcbd
000002d0: 7e77 0c3e b0d9 2abd a964 0b3e a8be 06be
000002e0: d31a cf3d 0c21 9ebb e983 e63d cc46 8e3d
000002f0: 77bc 033d d12f cfbc 6181 51bd 9505 903d
00000300: 41d3 b93e c7e8 be3e fbae 0b3e 51f8 6f3e
00000310: e99c 23bb 349d ec3c 1e39 e03e e2f6 62bd
00000320: a349 0e3f c6fc 273f 9f40 593e 673b f4bc
00000330: 1ba6 063f 2bf7 25bd 4412 393f 49be 10be
00000340: 5b77 423f 61f6 903d ea68 59bb 93c9 383e
00000350: 6e17 1e3e 5ae9 8f3e 5c7b 1d3f 44e0 2c3f
00000360: a1c0 0c3f 8167 673e 9e65 9dbb 7ca1 1a3f
00000370: 8f91 ad3e 4bf7 5e3e c82d 883e 3791 513f
00000380: 380f bb3d ba30 053f dfa0 473f 064f 373f
00000390: 2c2e 103f 0627 2f3e 4aa6 cabb 1465 a1bd
000003a0: 7bf8 8a3e 9c13 473f ba41 323f 1999 5e3e
000003b0: 1a9e 273f b4f1 1a3f 7927 113e 6774 803e
000003c0: 619e 27bc aa06 c13e a30e 953f 6f08 be3e
000003d0: 0e53 733e 34f0 0b3f 85f7 a63c aa94 e33e
000003e0: da00 093f d3f4 e23e 676b 243f d1c0 f03e
000003f0: 1cce de3e 46f4 9d3e e8bc 093e 87e5 4d3d
0.36531898 0.26528975 0.17615317 0.44717172 0.120134026 0.27265087 0.272045 -0.07652305
0.25364885 0.72603357 0.0075040655 -0.02903398 0.7867783 -0.12770635 0.3253182 -0.009540421
0.32639113 0.4614994 0.09007732 0.058274303 0.46661046 0.25153375 0.30054152 0.7455977
0.8238365 1.0078957 -0.2177293 0.28934175 0.9504626 0.052065402 0.24920008 0.63886213
0.28298065 0.55353004 0.9179626 0.60833484 0.82162577 -0.5072907 0.5569522 -0.088057786
0.3554847 0.8274296 0.7657772 0.8064894 0.35537073 0.6750196 0.18386169 0.49144113
0.40456665 0.25441635 0.7265633 0.1703639 0.39207315 0.5571707 0.32658613 0.8534422
0.49126834 0.90268195 0.5439403 0.50543934 0.15849477 0.4222169 0.02103358 -0.01731866
0.10391098 0.54460317 0.18722403 0.35925004 0.21959294 0.31060576 0.42876935 0.79717445
-0.10459435 0.23185912 0.32776794 0.45029896 0.18517762 0.038602524 0.20192942 0.36411163
0.03157481 0.28814074 0.33710903 -0.03399085 0.60027903 0.4165636 0.054908257 -0.6050427
0.24796154 0.1074025 0.15762547 0.0120514715 -0.043703273 0.32719952 0.02226726 -0.028767359
0.16543913 -0.027239943 0.11820245 -0.15269914 0.16172194 0.5392847 0.29682308 0.37513494
0.14716211 -0.019461103 0.13972352 0.3563489 0.12671992 0.2394879 0.34341708 0.11228746
0.4857412 -0.09367573 -0.6395548 -0.0009045928 0.18704714 0.20513536 0.094322674 0.1132957
0.10223512 -0.38406092 0.011417688 -0.050353933 0.11716194 -0.021009391 0.35029265 0.46317175
-0.15105036 0.17864066 -0.12452212 -0.02257018 -0.017769065 -0.08422012 0.046717953 0.070767805
0.035356738 0.048435356 0.020256758 -0.045841604 -0.097326815 0.1239626 0.026527258 0.14909835
0.11452706 -0.15930252 -0.107823215 0.024521878 0.048571993 0.07879019 -0.00052931125 -0.04876927
-0.08885467 0.006837 0.13453804 -0.04976526 0.027103508 -0.113627896 -0.010784627 -0.12806632
-0.018250933 -0.040545262 0.04518325 0.021847552 0.11683848 -0.075586244 -0.04834193 -0.0035793176
0.040559687 -0.023816915 -0.049918555 -0.14532372 0.07794538 -0.074374504 0.07894341 0.0002080486
-0.27394676 -0.115778886 0.0853011 -0.10759336 0.13717458 -0.04171151 0.13612618 -0.13158667
0.10112538 -0.004825717 0.112556286 0.06947097 0.032162156 -0.025291355 -0.051148776 0.07032315
0.36293986 0.3728697 0.13640969 0.23434569 -0.0024965352 0.028883554 0.43793577 -0.055411227
0.5558111 0.65620077 0.21216057 -0.029813481 0.52597207 -0.04051892 0.72293496 -0.14135088
0.7596337 0.07078243 -0.0033174106 0.18045644 0.15438625 0.2810772 0.61516356 0.675297
0.5498143 0.22598077 -0.0048033735 0.60402656 0.33900115 0.21774022 0.26597428 0.81862205
0.09133762 0.52027476 0.77979845 0.71604955 0.5632045 0.1710473 -0.006184374 -0.07880607
0.271427 0.77764297 0.6963154 0.2173809 0.6547562 0.6052506 0.14175214 0.25088808
-0.010230632 0.37700397 1.1645092 0.3711581 0.23762152 0.54663396 0.020381698 0.4444936
0.53516924 0.4432741 0.6422638 0.47022107 0.43516624 0.30850428 0.13450968 0.050267722

lstm.bias_hh_l0 f4 [256]
00000000: c5f8 2c3e 68e9 953e 7bc6 563e 7a7c 1c3f
00000010: 3305 523e 63bb 243e 1640 ed3e dbff 90bc
00000020: 8443 1b3e 6df2 173f 8c35 2fbd c75a 853c
00000030: 8477 263f c60f 64be e638 983e 45f4 15bc
00000040: 8dc2 b43e 5be1 d73e 5b9a e93d d4b3 c03d
00000050: 6f56 073f 34b2 253e 8dfd 183e 3f5e 2e3f
00000060: 5457 443f e9b6 863f 67cc 61be fde4 ab3e
00000070: bc99 5e3f fc23 1b3e db15 353e 9551 0d3f
00000080: a7b6 823e 1579 143f f995 573f 816b 073f
00000090: 337f 403f 6f30 a5be cec6 143f f2ab f33d
000000a0: ebb8 c43e 6226 3d3f 4be5 613f c98d 4d3f
000000b0: e4c0 0f3f 3543 0c3f edcb 253e acb2 f03e
000000c0: 392d db3e 47b7 d53e 52d5 223f c481 963e
000000d0: ee59 073f 1be3 2f3f bdd0 e13e 0d65 433f
000000e0: 688b 0b3f edf2 5d3f 6603 fa3e 9640 ac3e
000000f0: 86fd 903e 7537 af3e ac02 043e 5d72 a03c
00000100: 3aab 2d3d daa3 173f 5f87 3c3e bdfc 973e
00000110: 7381 903e 04c4 123e f25c d43e eb06 523f
00000120: 38e9 f73c 1cd8 463e 2741 9a3e b84f 783e
00000130: 0e3c d93d 8588 403d 52c5 4c3e c763 893e
00000140: d9bf babc 208e f23d b298 933e 3f88 efbd
00000150: ab06 1a3f a751 c33e d0dd 423e 5ffe 43bf
00000160: 5c86 453e db44 cd3c 30bf 3f3e c4e1 00bc
00000170: f7d2 85be 49a0 de3d 00db 3b3e 8a7d f3bd
00000180: 0a1f 8d3e b4d2 3abe 777b 06bd cd38 19be
00000190: 072d 103e a74e 1a3f fd95 863e c929 de3e
000001a0: 995e 083e 9e44 bfbc 4933 1f3d c8e7 b33e
000001b0: 3e3f 843e 2afa 333e 7ab7 9f3e bbbd e33d
000001c0: 4259 cb3e 2d11 b73d 6e61 2abf d8ad 5a3e
000001d0: 07ea fb3d a2d6 3bbc 8d68 213e e928 513d
000001e0: 8d6e 093e 4e8d d4be fb36 443e c038 96bd
000001f0: 5919 02bd 5a85 b5bd 1710 be3e dd9b ef3e
00000200: f3f1 e1bc 5871 5c3d ed6a 333d 6dee fbbb
00000210: cfe2 e23b dd43 03be 8a36 513c 8d53 b93d
00000220: 7ef0 25bd 408a 8dbd b196 ab3d 2487 3e3d
00000230: 2c04 863d b2a2 94bd 4c71 1a3e cdfa fe3d
00000240: b128 b13c 8110 2ebe 5e7a 1abe 0a79 f63d
00000250: 9182 2e3d a27c 2d3e 3178 a33d 09c2 273d
00000260: c40c e0bd 990e c9bc 5b60 033e 221d 2e3c
00000270: 1ada 7e3b 4602 8d3b 7fd9 d03d a06e 16bc
00000280: f1dd f9bb d201 16bd 19ef 14bd efe7 6bbc
00000290: 4be9 8a3c 35b4 623b 37e1 68be 40dd bb3c
000002a0: b12c 08bd 958c d1bc 0745 69bd 2bd7 74bd
000002b0: 3733 cf3c 514d 873d b120 883d cabf 04be
000002c0: cbb2 95be ceaa 2f3d 9ec1 ac3d 2bd7 d7bd
000002d0: d216 c4bc 29ac 833d 8223 0b3e 73bd e5bd
000002e0: b2a5 49bb 8421 2bbe fcbc bcbd 8b8c 6c3c
000002f0: 1dc8 263d be82 aebd ed10 a13d 2e42 4fbd
00000300: 01c2 8f3e e53e 493e 691c d53c 9d46 2b3e
00000310: 4e6e 58be 669b 363c 04dd 903e 6dd7 01bc
00000320: 0a54 d23e fd4c 3d3f ae46 b83d c947 0dbe
00000330: 1a26 223f b190 7bbc d448 3f3f 638e 1dbc
00000340: 2ac1 3c3f 90e2 dc3d 9952 d2bb a802 833e
00000350: 459c 923e ba22 9a3e 40b3 433f 481d 213f
00000360: 1cd8 0b3f 1a60 843e c113 4b3e dea0 053f
00000370: 6755 003f 81a5 143e c66c 8f3e c8da 353f
00000380: d9c8 be3b 2966 013f 0536 453f 4bd1 223f
00000390: e13c 1d3f 4ec1 a83e 9b64 6abe f8c2 aabd
000003a0: 79c9 ce3e ee6b 5f3f d2ec 2c3f 5a28 a33e
000003b0: a936 2f3f 5970 d13e 7ef8 4f3d 13fb 5a3e
000003c0: b728 3dbe c81e ea3e 1ee2 8a3f 7212 c03e
000003d0: e94c b93e cd5e 033f dee7 163c ebdb dd3e
000003e0: 3672 f23e 1f76 ed3e 4927 333f 067f dc3e
000003f0: 3303 e23e 6481 8f3e 7034 d63d 36f2 8a3d
0.16891773 0.29279637 0.20974152 0.61127436 0.20509796 0.16087107 0.46337956 -0.017700126
0.15162474 0.5935429 -0.042775676 0.016278638 0.65026116 -0.22271642 0.2973091 -0.009152477
0.3530468 0.4216412 0.11406394 0.094092995 0.5286626 0.1618126 0.14940472 0.6811256
0.7669575 1.052457 -0.2205063 0.33573142 0.8695333 0.15150446 0.17684118 0.5520261
0.25529978 0.57997257 0.84213215 0.5289841 0.7519409 -0.32263514 0.5811585 0.1189803
0.3842233 0.7388669 0.882405 0.8029447 0.561537 0.5479005 0.16191073 0.47011316
0.4280794 0.41741392 0.6360675 0.29395878 0.52871597 0.6870591 0.44104567 0.76326066
0.5450959 0.866988 0.48830718 0.33643025 0.28318423 0.34221998 0.12891644 0.019585783
0.042399622 0.5923439 0.18411015 0.29685012 0.28223762 0.14332587 0.41477162 0.82041806
0.030262575 0.19418377 0.30127832 0.2424916 0.10607158 0.047005195 0.19997147 0.26833937
-0.022796558 0.118435144 0.28827435 -0.11695909 0.60166425 0.38148233 0.19029927 -0.76560014
0.19289535 0.025057247 0.18725276 -0.007866327 -0.26137516 0.10870416 0.1834526 -0.11889179
0.27562743 -0.1824444 -0.03283259 -0.14963074 0.14079677 0.60276264 0.26286307 0.43391255
0.13317336 -0.023348149 0.03886727 0.35137773 0.258295 0.17575899 0.3119467 0.111201726
0.39716536 0.08938823 -0.66554916 0.21355379 0.123004965 -0.011464747 0.15762539 0.051064406
0.13421078 -0.41514057 0.19161598 -0.07335043 -0.031762455 -0.088633254 0.3712165 0.46798602
-0.02758119 0.05381903 0.043803144 -0.0076883347 0.0069240103 -0.12818857 0.012769351 0.09049139
-0.040512554 -0.06911135 0.083783515 0.0465156 0.065437645 -0.07257594 0.15082282 0.1245018
0.021625848 -0.16998483 -0.15085742 0.12034805 0.042604987 0.16942075 0.07981909 0.04095653
-0.10939935 -0.024543094 0.12829725 0.010627063 0.0038887323 0.0043032495 0.10197734 -0.0091816485
-0.0076253344 -0.03662283 -0.036360834 -0.014398559 0.016956946 0.0034592275 -0.22742163 0.022932649
-0.033245746 -0.02557973 -0.056950595 -0.059775513 0.025292976 0.06606544 0.066468604 -0.12963787
-0.2923797 0.0428875 0.08435367 -0.10539087 -0.023936663 0.06429321 0.13587764 -0.11217775
-0.0030768928 -0.16712004 -0.092157334 0.014437805 0.040718187 -0.08521031 0.078645565 -0.050600223
0.280777 0.19652899 0.026014524 0.16726156 -0.21135828 0.011145448 0.28293622 -0.007924897
0.41079742 0.739456 0.08997856 -0.13796915 0.6333939 -0.015354321 0.747205 -0.009616467
0.73732245 0.10785401 -0.006418538 0.25587964 0.2863485 0.3010462 0.7644539 0.62935305
0.5462663 0.2585457 0.19831754 0.5219859 0.50130314 0.1451626 0.28012675 0.7103696
0.0058222828 0.5054651 0.7703555 0.63600606 0.6142102 0.3295998 -0.2288994 -0.083379686
0.40388086 0.8727406 0.6754886 0.31866723 0.6844278 0.40906027 0.05077409 0.2138484
-0.18472563 0.4572661 1.0850255 0.37514073 0.3619149 0.5131653 0.009210555 0.43331847
0.4735276 0.46379182 0.6998182 0.4306566 0.44143066 0.28028405 0.104592204 0.06784479

lstm.weight_ih_l1 f4 [256, 64]
00000000: 398d 533e 94f8 a63e f149 97bf f116 ea3b
00000010: 37b3 883c e6d9 5dbe 66d7 d33e 4499 5c3d
00000020: ff9a adbe 7e9a 91be faf4 f7bd bec5 c53e
00000030: 00a1 a0bd 1068 863b b8ce a93d 889e 4c3e
00000040: a178 86bf c606 08bf 5f8a aebe 6c7c 223f
00000050: 1328 423e fe49 ee3d ee52 ae3e 0a0b dc3e
00000060: 7387 be3d 1d05 d0be 682b 04bd 19ac 93be
00000070: fe40 9b3e f5d1 863e 5e77 97be 77eb 41bf
00000080: a98a 35bf 9db5 41bf 137e cf3e 01fd aebd
00000090: 70b6 e03e 85cc 893e b9b9 363e 9cdb a63d
000000a0: 423a 56be dbb1 3fbf 029a c43e c879 3e3e
000000b0: 58bf 233f 83fc 4cbe c37a e13e 4353 91bf
000000c0: a2e6 133e 7872 39be cfa4 37bf 78f3 d83c
000000d0: 0e4f 6fbf 23f2 babd 24ea a1be c84a 2fbe
000000e0: 25e8 6d3f a390 4a3f 8992 393e 40e2 c83e
000000f0: d6b2 73be 1bc9 ccbf 3894 183e 0a05 19bf
00000100: 14c7 bc3d e283 d13e 9264 09bf 65e6 2abf
00000110: e0cf ddbd 017e 1cbf fa47 2f3f a649 60be
00000120: 5a4a 2cbf 9e62 1b3e d235 473e 8cc4 603f
00000130: 1dc2 b63d 5d91 afbe d41d c13d d43c 8dbe
00000140: 3aa3 1f3b 7c28 d6be d209 cebd 1aca 033f
00000150: 12f5 ca3d 7684 263f 97f8 813e 3009 10bf
00000160: 24dc 99be b547 96be e96c 473f 1d63 12be
00000170: 9f11 033f 5288 f73e 385d c63e 0c39 2b3b
00000180: e3ac 123e 2691 88be ede8 23be 4b36 e33e
00000190: 9211 3e3c 72e6 00bc 8cd0 a3bd e8fd af3e
000001a0: e540 5c3f 7e90 083f 276d 3b3f bab9 a9be
000001b0: 596e 45be d53b 933e dbc0 1ebe 46ad 25be
000001c0: 6cd4 643e 9eca 35be ef3e 18bf b8ec a03e
000001d0: e837 8bbd eaad 013f e115 143f 6c8e 93be
000001e0: 13e0 04bf b8ec 08bf eef0 893d eb9c eb3e
000001f0: 4550 0cbe a0ed a13e f919 203a 6b9e 8a3d
00000200: 2ea7 ad3e 7749 043f 2912 1ebf b90c 24bf
00000210: 4e9b 2e3f 67ac 24bf 937a b8be b6ca d93e
00000220: 5d37 233e bf2b 91be 87f5 723e be4a 36bc
00000230: ca4d 2b3d d748 d53e eeef 733e a112 883e
00000240: 82b2 68bd 1f14 52be 2cc0 923e 6a51 56bc
00000250: a237 5abe 84a2 10bf 2469 f83e 31d1 083f
00000260: 4a99 96bd 1aa7 58bd aee2 0c3f daeb 03bf
00000270: b136 4b3f 7dd8 23bc 6d35 f4be 7637 8b3e
00000280: 9ac9 82be f60f 40bf cf58 45bf b851 5cbe
00000290: 9267 2abc 18b5 2cbf 2820 563f a011 8f3c
000002a0: 8438 07bf 96dd c8be 9a84 55bf fe75 1dbf
000002b0: 4632 d83e 7382 63be 827f 37be 5506 013e
000002c0: b92d 183f 382a 863e 3668 263e c2f8 353e
000002d0: fefe 073f 7072 8f3f dacb 0f3e 2102 9cbe
000002e0: 6115 363e 5da3 f53e 3285 103f d29a fd3e
000002f0: 1146 ee3e 0638 493e d5d4 af3d e933 153f
00000300: 7f5a 82be 7502 a53f 5e04 903e ccdd 26bf
00000310: b325 e73d efaa 9cbe 0d22 0bbe bd8d 5b3f
00000320: 6aea 21bf e36a fcbe 2d46 c3bc fb7d 9a3e
00000330: e159 a4be 5c69 b63e 6079 ad3e 3495 ed3e
00000340: c245 f53d 80c7 dd3e d313 e83d 913b 173f
00000350: 5fab c53d 0b8c a9bd e8c0 ee3e bf13 dcbe
00000360: 630e 783e 23e5 d0bd ae39 953e ae42 0bbf
00000370: ee1e bfbe 5d13 9b3e c369 c7bd 6039 42bd
00000380: d98c df3e c254 cfbd 1c0c 3fbf ef32 4bbf
00000390: 1b6b 4b3e f28e 3fbe 1233 56be bb52 edbc
000003a0: 6381 023e d0e6 fbbe a4d1 83be 6796 753e
000003b0: d3b7 143f 1d20 cebf 79e2 09be f81d 5cbc
000003c0: ada3 393e 253b 3a3e fbed 053d b208 29be
000003d0: 413d 56bf e9ae 433e 3c3d d33e 6ded cfbe
000003e0: f9f4 30bf 1dd9 063d f71c d8bd c59f 773d
000003f0: 7067 e73d 9487 ee3e 3853 e23d 84ee b53e
0.20659341 0.32611525 -1.181944 0.007143848 0.016687019 -0.21665153 0.41375273 0.053857103
-0.33907315 -0.2843818 -0.121072724 0.38627428 -0.07843208 0.0041017607 0.082913816 0.1998235
-1.0505563 -0.53135335 -0.34089944 0.634711 0.189606 0.11635207 0.34047645 0.42977172
0.09303179 -0.406289 -0.032267958 -0.28842238 0.30323023 0.2633206 -0.29583257 -0.75749916
-0.70914704 -0.75667745 0.40525874 -0.085443504 0.4388919 0.2691385 0.17844285 0.08147356
-0.20920661 -0.7488076 0.3839875 0.18601143 0.6396384 -0.200182 0.44038972 -1.1353534
0.14443448 -0.18110073 -0.7173585 0.026483282 -0.9348 -0.09128215 -0.31623948 -0.1711837
0.9293235 0.7912695 0.18122305 0.39235115 -0.23798689 -1.5998873 0.14900291 -0.59773314
0.09217659 0.4092093 -0.53669083 -0.66757804 -0.10830665 -0.61129767 0.684692 -0.21903095
-0.6730095 0.15174338 0.19454125 0.87799907 0.08923743 -0.3429059 0.094295174 -0.2758547
0.0024358765 -0.41827762 -0.10060467 0.5148026 0.09910025 0.6504587 0.25384971 -0.5626402
-0.30050766 -0.29351583 0.7790056 -0.14295621 0.5119876 0.48346192 0.38742995 0.0026126532
0.14323764 -0.2667324 -0.16006823 0.4437736 0.011600869 -0.007867442 -0.079987615 0.34373403
0.8603652 0.5334548 0.7321343 -0.3314951 -0.19280376 0.28756586 -0.15503256 -0.1617938
0.22346658 -0.17753074 -0.5947103 0.31430602 -0.06797773 0.50655997 0.57845885 -0.28819597
-0.5190441 -0.53486204 0.06735407 0.46018156 -0.13702495 0.31626606 0.0006107386 0.06768497
0.3391661 0.516746 -0.6174646 -0.64081913 0.68205726 -0.64325565 -0.36031017 0.4253747
0.15939088 -0.28353688 0.23726474 -0.011126218 0.041822232 0.41657135 0.23821995 0.26576713
-0.056810863 -0.20515488 0.2866224 -0.013080934 -0.21310285 -0.5649798 0.48517716 0.534442
-0.07353456 -0.052893735 0.55033386 -0.51531756 0.7938033 -0.010000345 -0.4769701 0.2719075
-0.25544435 -0.75024354 -0.77088636 -0.21515548 -0.01040067 -0.6746383 0.83642817 0.017464459
-0.5282061 -0.39231557 -0.8340546 -0.61508167 0.42225856 -0.22217731 -0.17919734 0.12600072
0.5944477 0.26204085 0.16250691 0.17770675 0.5312346 1.1206799 0.14042607 -0.30470374
0.17781593 0.479762 0.5645324 0.4953218 0.4653783 0.19650277 0.08585516 0.58282334
-0.25459668 1.2891375 0.28128332 -0.65182185 0.112864874 -0.30599162 -0.13587208 0.8576315
-0.6324831 -0.49300298 -0.023837173 0.3017424 -0.32099822 0.35627258 0.33881664 0.46402895
0.11976196 0.4331627 0.11331906 0.59075266 0.09651827 -0.08278664 0.4663155 -0.42983815
0.24224238 -0.10199954 0.2914557 -0.5439862 -0.37328285 0.3028821 -0.09736969 -0.047418
0.43662146 -0.10123588 -0.7462785 -0.79374593 0.19865076 -0.18706873 -0.2091792 -0.028970113
0.1274467 -0.49199533 -0.2574588 0.23983155 0.58092993 -1.610355 -0.13465299 -0.0134348795
0.18128844 0.18186624 0.03269766 -0.16507223 -0.83687216 0.19109692 0.41257656 -0.4061083
-0.691238 0.0329219 -0.105523996 0.060455102 0.11299026 0.46587813 0.11051029 0.35533535

lstm.weight_hh_l1 f4 [256, 64]
00000000: 624e 183f 4b57 bebe ca88 0a3f 455d 413f
00000010: 39e8 cfbf 2b9c 143f 2eaf f83e c33d 213f
00000020: d267 da3e cced 453e 896a 553e a469 423e
00000030: 543f 0e3f b638 6abf c202 5fbe b2e4 803f
00000040: 5ebb 6dbf 9cdf 793f 99a5 0ebf 0d5a 803e
00000050: c53f 03bf ed9f dcbe 262e 9a3f 1d35 6dbf
00000060: eed9 74bf c295 c13e 6375 883f 9574 a93f
00000070: 8780 b5bf 95e8 60bf 315b 523f b2cc 263e
00000080: 8172 5bbf 35d3 9ebe e278 5abe ed0d da3e
00000090: fc05 843e 48d9 9cbf 0d03 d83e b00f 56bd
000000a0: 37b7 ebbe f7a3 87be 66c4 4cbf 03d3 033f
000000b0: eb91 aabf 5e58 c2be 93f8 03be 64c3 643f
000000c0: 06d5 63bf 7a1d 1bbf 1caa 8abf 3d5d 643f
000000d0: 6583 9e3e 2245 fabf 38bc 89bf 76df 0ebf
000000e0: b8b3 91be b196 94be c7ef 7f3e 3555 88be
000000f0: 9f1b 14bf a306 e7bf 6ca8 1f3e 6114 333f
00000100: 7430 18be 6be7 88bd 85c2 823e 1793 e6be
00000110: a8ab 6bbf a10f c73d 6c87 8c3e fc9c b6be
00000120: e803 633f 421e acbd dbc5 833f 9cf9 343f
00000130: 7b29 90bd a5db 1e3f ff84 79be 51c6 6d3e
00000140: 09f1 27bc 4e3b 88bd 8ef4 fa3e a35e 81be
00000150: f4c1 1c3f 6999 c3be 5164 01bf 6246 84be
00000160: 5e8b 083f 6871 883e fdd1 23bf 6d43 0b3c
00000170: 560b 4abf f9cc 0bbd e7c3 d53e 0eb7 6d3f
00000180: f0ce 46bf 3b7d f0bd e9a0 c5be 08ab 1c3f
00000190: 5feb 2a3f 57de 76be 70cd 9b3e abd2 39bf
000001a0: 5421 013f 0d6e ecbe f59a d6be a4af d7bf
000001b0: 8445 88be 0b71 d4be c31f 503f 1f4b 55bf
000001c0: dd74 13bf 4d4f 1ebf fa56 0dc0 5e44 8a3e
000001d0: 1c2d bc3e be87 9b3e be1d 24be 7300 0abf
000001e0: a6fc 263f ea6a c7bd 65fd 8dbe 4472 333f
000001f0: 3181 a4bf 6f28 f4be 499a 9a3f fdf9 cfbc
00000200: 389a 0fbf 4498 563e 7e2b 8d3f 4f7d 6e3f
00000210: 4246 b03e d4af ccbd eb5c 63be f03c c23f
00000220: f6a0 a73f 41a1 2dbf 00d3 5ebd 1c5e 263f
00000230: 8f70 da3d c300 62bf fbd3 643f a152 c43e
00000240: 817f b5be 33c0 20be d641 86bf c813 b8be
00000250: 4b84 b13e 0cd6 babe 5c4d 0bbd 1321 f5be
00000260: 3008 a43e b66b c5bf e0fd 5e3f 3c52 6a3e
00000270: 7fea 683f b5df 723e 1736 19bf e7d8 01bf
00000280: 06c1 2a3f 1078 81bf 590a 77be f2d2 1fbd
00000290: bd74 4ebf d885 72bf 362d 733e 70e7 efbe
000002a0: 8b5b aabe 1b9e 803d 9950 193f ecd2 093f
000002b0: 4709 0f3f b574 473f c3e3 15bf 6436 16be
000002c0: ffb5 0a3f ae29 39bf 8084 85b9 bda5 41bf
000002d0: 086c c2bc 8356 04bf 5c2e 4f3f bed0 113f
000002e0: 358e 1f3e 3246 84be 0513 dabf c710 143f
000002f0: 261f 04be 427a ad3e 1aa8 4a3f f911 973e
00000300: 0329 10bf fecd b7be b900 ff3e 4377 edbe
00000310: e44d 0cbf 2d53 c63e ce01 e8be 0d42 893d
00000320: 0c58 883f e191 543d c340 ac3d 9a1f 49be
00000330: 6f60 12c0 1fe7 03bf ce59 c43d 7c90 9d3f
00000340: 413d ca3e 3e76 36be 6854 f0be cbbe 863f
00000350: 0ff7 41bf 30a5 2ebf 05fb fbbd 07f2 3ebf
00000360: 3823 a03c 211f 7cbf 16bc b3be 4f54 4f3f
00000370: 6c92 a3be 43b2 683e 6ff1 dfbe 03e6 923f
00000380: 3278 993f 73b3 1ebf 4beb d1be c00b 0b3f
00000390: 38eb 883f 2fc9 98bd baf5 8ebf 2b7f 92bf
000003a0: 150d 48be 9431 cbbd a3f2 ed3e 278d 443e
000003b0: 7ab9 39bf a2a3 21bf 022a 4b3f 906e ba3f
000003c0: 255e 893e b028 86bd 143b 3dbe 74a1 bcbf
000003d0: f584 9b3e c8dd 4cbf 4912 e1bf deea 3c3e
000003e0: 4efa f3be 4ca6 d53e 7062 993e 22f1 96be
000003f0: 7e88 4e3f b842 2dbc 24da cdbd 644f 8f3e
0.594946 -0.37175974 0.54114974 0.75532943 -1.6242744 0.58050793 0.48571151 0.62984866
0.42657334 0.19328994 0.20841421 0.18985611 0.5556538 -0.91492784 -0.21778396 1.0069792
-0.92864025 0.97606826 -0.5572143 0.25068703 -0.5126918 -0.43090764 1.2045333 -0.9265917
-0.95645034 0.3780957 1.0660824 1.3238703 -1.4179848 -0.8785489 0.821704 0.16289023
-0.85721594 -0.31020513 -0.21335176 0.4258875 0.25785816 -1.2253809 0.42189828 -0.052261055
-0.4603822 -0.26492283 -0.7998718 0.51493853 -1.3325781 -0.37958044 -0.12887792 0.8936064
-0.8899692 -0.6059185 -1.0833163 0.8920477 0.3095962 -1.9552348 -1.0760565 -0.55809724
-0.28457427 -0.29021218 0.24993812 -0.26627508 -0.57854646 -1.80489 0.15591592 0.6995297
-0.14862233 -0.066847645 0.25539032 -0.45034096 -0.920588 0.09719778 0.2744707 -0.35666645
0.88677835 -0.08404209 1.0294756 0.70693374 -0.07039162 0.620539 -0.2436714 0.23220183
-0.010250338 -0.066519365 0.49014705 -0.25267515 0.6123345 -0.3820298 -0.50543696 -0.25834948
0.5333766 0.26649022 -0.6399229 0.008499962 -0.7892355 -0.034131024 0.41751024 0.92857444
-0.7765951 -0.11742636 -0.38599327 0.6119847 0.667654 -0.24108253 0.30430174 -0.7258708
0.5044148 -0.46177712 -0.41915098 -1.6850476 -0.26615536 -0.41492495 0.81298465 -0.8331775
-0.57600194 -0.61839753 -2.2084336 0.27005285 0.36753166 0.30377 -0.1602697 -0.53906935
0.6522926 -0.09737189 -0.27732387 0.7009623 -1.2851926 -0.47687098 1.2078334 -0.025387758
-0.56094694 0.20956522 1.1028898 0.93159956 0.34428602 -0.09994474 -0.22203414 1.5174847
1.3095996 -0.6782418 -0.054400444 0.6498735 0.10666 -0.8828241 0.89385957 0.3834429
-0.3544884 -0.15698318 -1.0488842 -0.35952592 0.34671244 -0.3649143 -0.034009323 -0.47876796
0.32037497 -1.5423496 0.8710613 0.22882932 0.9098281 0.2371815 -0.5984816 -0.5072159
0.6670078 -1.0114765 -0.24125041 -0.039019533 -0.8064688 -0.9473548 0.23747715 -0.4685626
-0.33272967 0.06280156 0.5988861 0.53837466 0.5587353 0.77912456 -0.5855066 -0.14669186
0.54183954 -0.72329223 -0.00025466457 -0.7564352 -0.023733154 -0.51694506 0.80930114 0.5695914
0.15581591 -0.25834805 -1.7037054 0.578381 -0.12902507 0.33882338 0.7916275 0.295059
-0.5631258 -0.35899347 0.4980524 -0.46380052 -0.5480635 0.38735333 -0.45313877 0.06702051
1.065187 0.051896933 0.0841079 -0.19640961 -2.2871358 -0.5152454 0.095874414 1.2309718
0.39499858 -0.17818543 -0.46939397 1.0526975 -0.75767606 -0.68220806 -0.123037376 -0.74588054
0.019548044 -0.98485 -0.35104436 0.8098802 -0.3194765 0.22724251 -0.43738887 1.1476444
1.1989806 -0.6199257 -0.40999827 0.54314804 1.0696783 -0.07460248 -1.116874 -1.1445059
-0.1953624 -0.09921566 0.4647418 0.1919447 -0.7254864 -0.6314031 0.79360974 1.4564991
0.2682964 -0.06550729 -0.18479568 -1.4736772 0.30374876 -0.8002591 -1.7583705 0.1844897
-0.47651905 0.41728437 0.29957914 -0.29480845 0.8067702 -0.010574989 -0.10051373 0.27990258

lstm.bias_ih_l1 f4 [256]
00000000: 7dfa a83e 1323 9e3d 43e3 003f 1374 173f
00000010: d3b1 5c3d fee0 2c3d 6d68 913d 8776 8e3f
00000020: da2b 7a3d 5869 213e 1256 033f f183 1c3f
00000030: 1920 243f 53b6 c93c bbce 0c3f f5c9 843e
00000040: 66c9 383e 024e 093f 250f 8fbd 73b1 f93e
00000050: ac80 2fbd 525d b13e 7096 043f fd10 a3be
00000060: b9c1 303f ae62 cb3e 157d a23e f4de d33d
00000070: 70f6 253f c3f6 9d3e 4f5b 3a3e a44e 363f
00000080: 8023 123f 4921 b43f 4219 f83c 3580 143d
00000090: 7c3a 8d3e 8d4c 393f 9247 5f3f 7e09 3c3f
000000a0: 1a99 8cbc cf45 063f 4f5f 01be 0c02 813e
000000b0: 0838 adbc 28c0 f9be 73df 803f ea72 ffbd
000000c0: 26cd 643f c7ed 663e bef4 f63e 3daa 353f
000000d0: 1aee 19be 4e90 583e 8f33 a13e 6979 9bbe
000000e0: e145 523f 8221 ed3e 9955 2c3e 8363 67be
000000f0: c502 a03e 29bd 0c3e 4389 963d bd14 cd3e
00000100: 2aa6 efbe 07aa 80be 80a7 3abe 8f1e 04be
00000110: ed60 633e 72f3 ba3e 4a17 2d3e e9e5 12bf
00000120: 7444 f23e 3b2b cabe 0a8f b73e 9bd7 1bbe
00000130: a390 81bd 8f2f f6be 1018 4c3e 8f55 013f
00000140: 9e0b 1f3f 9bc3 2abe 31cc 383f 26db c3be
00000150: 4c05 11bf a914 20bf d077 c7bd d855 513f
00000160: 933d 253e e005 3e3f c40a 8a3d 7538 003e
00000170: ade5 d43e 06b5 f2be 7b28 403f 854a 433e
00000180: 926f e5be 6a6e cdbe 0c3e 2c3e 7f15 b53d
00000190: 022d fbbe 08ea 233e 70d5 39be 68ca f1be
000001a0: c417 c6bd 372d eabe 9a83 063f e622 0abf
000001b0: 60b4 72bd 6613 52be 60aa 753e 1e25 afbd
000001c0: 7a85 0cbe 0fdb 0f3e 5a82 70bc f0cc 88bd
000001d0: de93 f8be 3d04 473e c179 333e 7040 093f
000001e0: f680 53be 46e3 a5be a292 083f a888 893e
000001f0: f91e a4be 2bf9 8abe 7199 a8be 1203 2e3c
00000200: a185 60be c79c 7d3e 07f1 a1be 487a 99be
00000210: d19e f6bd e28e 7cbe 5869 5cbe d720 f5be
00000220: 5f6f 3bbf 231a 603e 0327 253e 174f 8cbd
00000230: 1f0e 7a3e 5b27 523d 9160 893d c6d5 37be
00000240: ba37 a13d c457 153d c931 f3be d63f dcbd
00000250: e013 6a3e cd74 a6bd c3f7 9f3e adee 05be
00000260: bfdc eb3e 20c2 d73d e7fa 1a3e 1a28 5d3c
00000270: 16fb f23d 16ad 63be 9caa 3abc 6860 f03a
00000280: 50e6 38be d66c a2be 4b27 913e 5434 c6bc
00000290: e11d 613d 0d13 f73d 3736 83bd b367 203e
000002a0: 7d47 1f3d a479 9abe 6950 abbe 6b78 c33e
000002b0: deb4 19be dba4 ba3e 3f3e 123f 8d5a d1bb
000002c0: 239d d8be 4e3a 3bbe aad3 95bd d6c7 4bbe
000002d0: 5f75 623d 1a56 8cbb 0166 943e 4019 41be
000002e0: 61b6 b43e 791d 4a3d b48a 06bf 0501 d93d
000002f0: 64b1 163e 9cb2 1fbd a4e7 a53e e9d4 a33e
00000300: fd47 69be e338 e93d 3405 423e ac91 583e
00000310: ad0f 31bf 8bf8 1a3e 5a4a b53e cb34 6f3f
00000320: 6f73 4fbf 140c 8c3f b8fe 383f abef b03f
00000330: 408e 96bc e15c f63e ec1c 213f a5cc bdbe
00000340: bac2 c3be 5c45 083f 8b0c d93e 50a3 8d3f
00000350: 39c2 1e3f d599 f53e 1f4e ed3e 490c f83e
00000360: ea2b 81be 0bad 103f df7d 993e b13a 9fb8
00000370: aaa5 63bd 2d9a 933e 1a4b e5bc c9bf 823f
00000380: afb2 013e aad9 9dbd 459f 0f3f bafd 943e
00000390: 2944 b23e 4eed 92be 24a6 b23f c0be 743f
000003a0: 0711 c13d 2818 b43e 55b9 bebd 30d2 883e
000003b0: 1096 97be e4dc fe3e 75ce 50be 7ed3 e53d
000003c0: adf1 633f e61e 61bd 4a23 243e 7813 863c
000003d0: 9728 c93e b1a8 bfbe a658 18bf 1466 9d3e
000003e0: d605 e43e 8e3f 303f ee8f 023e 250a 803e
000003f0: ecb9 4a3f 0788 273f 31d6 9c3e fe35 043f
0.33003607 0.077215336 0.50346774 0.5916149 0.053880524 0.042206757 0.07099996 1.1129922
0.061076976 0.15762842 0.5130321 0.61138827 0.6411148 0.024623072 0.55002946 0.2593533
0.18045577 0.53634655 -0.069853105 0.48768196 -0.04284732 0.3464151 0.5179205 -0.318489
0.690456 0.39723724 0.31736055 0.10345259 0.6482916 0.30852327 0.18198894 0.71213746
0.5708542 1.4072658 0.030285481 0.03625508 0.27583683 0.7238243 0.8721858 0.73451984
-0.017162848 0.5245027 -0.12634014 0.25196874 -0.021144882 -0.48779416 1.0068191 -0.1247309
0.8937553 0.22551642 0.48233598 0.7096289 -0.15032235 0.21148798 0.3148465 -0.30366066
0.82137877 0.46314627 0.16829528 -0.22596554 0.31252113 0.13744034 0.07350399 0.40054885
-0.4680646 -0.2512972 -0.18227959 -0.12902282 0.22204943 0.3651386 0.16903415 -0.57382065
0.4731785 -0.39486107 0.35851318 -0.15218966 -0.063264154 -0.4808316 0.19931054 0.5052118
0.621271 -0.1667618 0.7218657 -0.38253134 -0.5664871 -0.62531525 -0.09739649 0.8177161
0.1613677 0.74227715 0.06740335 0.12521537 0.4158148 -0.47403735 0.7506177 0.19071396
-0.44811684 -0.40123302 0.16820544 0.08841991 -0.49057776 0.16007245 -0.18147826 -0.47224736
-0.09672502 -0.4573762 0.5254456 -0.539595 -0.05925405 -0.20515212 0.23990774 -0.085520014
-0.13722792 0.14048408 -0.014679516 -0.06679714 -0.48550314 0.1943521 0.17526914 0.5361395
-0.20654663 -0.32399958 0.53348744 0.26862073 -0.3205488 -0.27143225 -0.32929567 0.010620849
-0.21925975 0.24766837 -0.31629202 -0.29976106 -0.120420106 -0.2466388 -0.2152456 -0.47876617
-0.73216814 0.2188497 0.16128163 -0.06851023 0.2441945 0.051307064 0.06707872 -0.17952642
0.07871957 0.036460653 -0.4749892 -0.10754363 0.22859144 -0.08127747 0.31243715 -0.13079329
0.46066853 0.10535073 0.15134774 0.0134983305 0.11864297 -0.22233996 -0.0113932155 0.0018339278
-0.18056607 -0.3172366 0.2835029 -0.024194874 0.054960135 0.120641805 -0.06406825 0.15664558
0.038886536 -0.3017093 -0.33459786 0.3817781 -0.15010402 0.364539 0.5712623 -0.0063889683
-0.42307386 -0.1828396 -0.07315762 -0.1990045 0.055287715 -0.004282725 0.28984073 -0.18857288
0.35295394 0.049344514 -0.52555394 0.105958976 0.14716107 -0.038988695 0.3240329 0.31998375
-0.22781368 0.113878034 0.18947297 0.2114932 -0.69164544 0.15133874 0.35408288 0.9343993
-0.8103551 1.0941186 0.7226367 1.3823141 -0.018378377 0.48117736 0.62934756 -0.37070194
-0.38234502 0.53230834 0.42392382 1.1065464 0.6201511 0.47968927 0.46348664 0.48446873
-0.25228816 0.5651404 0.29978845 -7.592643e-05 -0.05557791 0.28828564 -0.027989913 1.0214778
0.12665819 -0.07707532 0.561024 0.29099828 0.34817627 -0.28696674 1.3956952 0.9560356
0.09427076 0.3517468 -0.09312693 0.2672286 -0.29606676 0.497779 -0.20391257 0.112219796
0.8904064 -0.054961108 0.16029087 0.016366705 0.3928878 -0.3743339 -0.59510267 0.30741942
0.44535702 0.68846977 0.12750217 0.2500774 0.79189944 0.65441936 0.30632165 0.51644886

lstm.bias_hh_l1 f4 [256]
00000000: acff d53e de67 7fbd 30a7 d33e 13f9 0f3f
00000010: ee63 3f39 8877 6a3d 174a 483e 0527 8f3f
00000020: 4bf9 e6bc 18e5 963e 6dfc e53e 4004 d13e
00000030: fbfd 043f f099 d8bd 9d62 0c3f 04ff 053e
00000040: c2d3 383e 7065 263f c792 48be ca70 e13e
00000050: 459c b8bd c448 953e d5ca 133f d9f6 dcbe
00000060: 3495 133f c0ec a63e 480c 8c3e 43b6 2ebd
00000070: 0be3 293f 7315 8f3e a157 473e fa09 0e3f
00000080: f0ed 133f 535a cb3f 433f 6fbd e087 f33d
00000090: 8a47 de3e 7ea9 1b3f 7632 823f 7149 163f
000000a0: d70d 203d c166 f03e de4f 08be 8f02 4e3e
000000b0: 1def 16be 144e dcbe 6f4b 583f 4bc0 24be
000000c0: 7b92 3d3f e3a1 3e3e 191f d93e ce4a 433f
000000d0: 5327 3bbe 9e83 583e 2911 a03e 22b4 c5be
000000e0: 288e 7d3f abf4 9f3e 9e88 643e 1e9c 92be
000000f0: dcbf f93e 4f67 213e f217 41bc f515 9d3e
00000100: 82ad 80be 0840 4ebe 4b59 89be 6fcf 92be
00000110: 5957 9a3d a4bb 2c3e aad2 9b3e 6607 16bf
00000120: c9fb f83e 266b 02bf df7a 813e 6bd2 7fbd
00000130: 0355 28be 337b 03bf 923c 303e 5980 1f3f
00000140: 7971 103f c657 4abe 249c 1a3f 71b2 bebe
00000150: 3e99 f8be c74e 0abf c5e3 8ebd 6cc9 613f
00000160: a99f 723d d9f0 0b3f 519d 663d 0dfc c63c
00000170: 4ca3 ca3e 8fad eabe 2571 4e3f e027 d33d
00000180: dd49 afbe 7f7e c7be 136a 0a3e 1eba 1c3d
00000190: c751 a8be ed9b 0a3e 368b 17be 8fde 17bf
000001a0: c1b2 92bd 2a19 fbbe af34 973e 922c dbbe
000001b0: 0039 db3c bce1 d2be 98d8 813e 28e0 b1bc
000001c0: 2e4d 31be 06f0 ac3d 572a dcbc 2da9 08be
000001d0: 05d2 ddbe cf95 053e d757 503e a14b 153f
000001e0: 398c 38bd 497d 18be 062e 073f e738 bb3d
000001f0: 436b 04bf 5c14 17bd 2e6e 8bbe bb00 793e
00000200: 3a06 95be 42fa 653e 0c3b 5fbe 19b2 02be
00000210: 3482 d13d 5e3b 06be 1387 4fbe 35f4 a9be
00000220: 9f09 09bf c658 853e 7206 943e 5b74 3dbe
00000230: 4fff df3d bf2e 133e e698 bbbd 343e 94be
00000240: ddb2 2a3e e7f5 32bc d477 8bbe 5913 1ebd
00000250: a46e 493e c92d 8e3c 102d 1e3e 8f09 cabd
00000260: 9971 183f 196f fc3d eab8 3e3e 9c31 ab3d
00000270: 6f05 063e dfbb 6fbd 87bb 85bd 3434 56bd
00000280: 31e3 02be e49a e1be 1f97 c93e 7b98 073e
00000290: adba cebd ae93 f33d 7e76 ea3d e6a1 c53d
000002a0: ccfa c63b 3df3 1bbe 5a60 a1be c11a 803e
000002b0: 1d58 d43b 5f40 fc3e 0b14 ec3e f116 323d
000002c0: 27f8 08bf 6cb9 21bd a3a8 b4bd 74de 11be
000002d0: 3d7c 9dbd bb94 dfbd 6151 6b3e 5eeb 5ebe
000002e0: 2216 ac3e 115b 92bc d1b9 ffbe 8c7c 993d
000002f0: 7995 003e 61eb dabd 06df 833e c66f d73d
00000300: b7a7 bebe ae24 133e 8439 443d 519d 5a3e
00000310: a177 1ebf f7a0 373e 0971 7e3e 9378 4e3f
00000320: a47d 33bf 38d6 793f 3938 483f d30e ad3f
00000330: 4b6b ac3c 3994 f73e 007f 233f 9a7f 0abf
00000340: 8a4d cbbe 3d53 053f a0d9 dc3e 0186 813f
00000350: 221b 003f 0547 db3e 555e 1b3f fd19 223f
00000360: 7fba 38be 6368 013f 263b d23e add0 14bd
00000370: 99ad 913c 5ae4 993e 88b4 403d b43d 983f
00000380: 0466 a43e 455f 10be 5b40 063f 5095 213e
00000390: 3519 cd3e 7ffa 98be 261d b73f 7fb5 723f
000003a0: 8160 013e 37c2 df3e 39cd 18be 6d75 763e
000003b0: 33c7 5abe 7cdd 2d3f fc3b 51be bd3e 433e
000003c0: dcd5 4c3f a523 26be 45a7 b03e a793 a2bd
000003d0: 8928 d33e f2bb cabe 3a6a f6be aa4b 573e
000003e0: 6c65 173f 7698 243f 2f5e 9c3e cfac 703d
000003f0: 0947 433f 7c9d 173f 016c 983e f323 1a3f
0.41796625 -0.062354915 0.4133849 0.5623943 0.00018252406 0.0572429 0.19559513 1.1183783
-0.028195044 0.2947166 0.44919148 0.40823555 0.51950043 -0.10576236 0.5483797 0.13085562
0.18049529 0.6499853 -0.19587241 0.44031364 -0.09014181 0.29157078 0.5773137 -0.4315708
0.5764954 0.326025 0.2735312 -0.042654287 0.66362065 0.27946052 0.19467022 0.55483973
0.5778494 1.588694 -0.05840994 0.118911505 0.43413955 0.608055 1.017165 0.5870581
0.0390757 0.46953395 -0.13311717 0.20118164 -0.14739652 -0.4302832 0.844901 -0.16088979
0.74051636 0.18616442 0.42406538 0.7628602 -0.1827672 0.21143958 0.31263092 -0.38613993
0.9904504 0.31241354 0.2231774 -0.28634733 0.4877919 0.15762065 -0.011785494 0.30680814
-0.25132376 -0.20141613 -0.26825938 -0.28673884 0.075361915 0.16868454 0.3043416 -0.5860504
0.48629597 -0.50944746 0.25289056 -0.06245653 -0.1643868 -0.5135986 0.17210606 0.6230522
0.56423146 -0.19760045 0.603945 -0.37245515 -0.48554415 -0.54026455 -0.06977037 0.8819797
0.059234295 0.5466438 0.056302372 0.024290109 0.3957771 -0.4583554 0.80641395 0.1031034
-0.3423604 -0.38963696 0.13517027 0.038263433 -0.3287489 0.13536043 -0.14799199 -0.5932397
-0.07163001 -0.49042636 0.29532382 -0.42807442 0.026760578 -0.41187847 0.2536056 -0.021713331
-0.17314598 0.08444218 -0.026875658 -0.13345785 -0.43324295 0.13045429 0.20346008 0.58318526
-0.0450556 -0.14891542 0.528046 0.09141713 -0.5172617 -0.03688465 -0.27232498 0.24316685
-0.29106313 0.22458747 -0.21799868 -0.12763251 0.102299124 -0.13108584 -0.2026637 -0.33194128
-0.53530306 0.2604429 0.28911167 -0.18501417 0.10937368 0.14373301 -0.091600224 -0.28953707
0.16669793 -0.0109228855 -0.2723986 -0.03859267 0.19671112 0.017355816 0.15446877 -0.098651044
0.59548336 0.12325878 0.18625227 0.083590716 0.1308801 -0.058528777 -0.065299086 -0.05229588
-0.12781979 -0.44063485 0.3937311 0.1324176 -0.10094199 0.11893402 0.11448382 0.0965002
0.006072378 -0.15229507 -0.31518823 0.25020412 0.0064802305 0.4926786 0.46109042 0.04347891
-0.5350365 -0.039483473 -0.088212274 -0.14245015 -0.07689712 -0.1091704 0.22980262 -0.21769473
0.33610636 -0.01786569 -0.49946454 0.074944586 0.1255702 -0.10689426 0.2575609 0.10519366
-0.3723733 0.14369461 0.047906414 0.21349074 -0.6190129 0.17932497 0.24847807 0.8065273
-0.7011359 0.97592497 0.7821079 1.3520149 0.021047255 0.48355272 0.6386566 -0.54100955
-0.39707595 0.52080137 0.43134785 1.011902 0.500414 0.4282762 0.60690814 0.63320905
-0.18039893 0.50549906 0.41060752 -0.03633182 0.017782973 0.3005703 0.047047168 1.189383
0.32109082 -0.14098842 0.5244195 0.15779614 0.40058294 -0.29878613 1.430577 0.9480819
0.1263447 0.43702862 -0.14922036 0.24068232 -0.21365051 0.67916083 -0.20433038 0.19066902
0.80013824 -0.16224535 0.34502617 -0.07938319 0.41241863 -0.39596516 -0.4812792 0.21024957
0.5913913 0.64295137 0.30540606 0.058758553 0.76280266 0.5922468 0.297699 0.60211104
