model/epoch_527.pth (torch, 233251 bytes, 10 tensors)

lstm.weight_ih_l0 f4 [256, 20]
0.3912642 -0.815719 1.2264117 -0.05030454 -0.96315634 -1.3756415 2.1233115 1.0983986
1.1605765 -1.3531525 0.6368669 -0.12946878 1.0464491 0.28101173 -0.12537375 -0.29875693
-0.8939517 -0.15962501 0.08521342 -0.5974107 -0.18194474 -0.9313153 0.6353408 1.3853686
1.8573437 -0.71034604 0.10305103 -1.2026855 0.4586706 1.3523438 0.118036196 -0.7488453
-0.095865145 1.5179163 -0.11718219 1.7365553 0.84220994 -0.76556003 -0.41204682 0.34407234
2.8627925 1.1580709 0.2706859 -0.2674895 -0.2812476 0.4055435 0.099188566 0.045852672
-0.16736622 -0.16152538 1.4439378 0.6299678 -1.2740644 -0.3922327 -0.06561522 0.58357686
-0.636263 -0.009138508 0.34907088 0.22002445 -0.25926703 0.13660444 0.0470632 0.3902108
0.05053803 0.56220514 1.2003055 2.1905422 1.7181551 0.6827725 -0.66307807 -0.46480158
-1.0831693 -0.8546478 -0.6906128 -0.5203993 0.6297577 1.3961182 0.51772594 0.21605122
-0.40983513 -0.68564457 0.40949255 1.0307845 1.4074833 1.9373838 -0.48376876 0.6301823
-0.5800812 1.1229339 -0.6495495 1.2856218 -2.3087294 -1.011857 0.34424862 0.15615015
-1.4873109 1.4401885 -1.7203828 -0.04473139 1.4528769 -0.6540744 1.0603448 -0.3995535
-1.4831898 0.82530224 0.12268698 2.3480973 -0.6331936 0.1020636 -0.05960737 -0.2916064
1.3469133 3.2803206 -0.04341559 0.94629216 1.3383801 -0.7220318 0.75516516 -0.23848917
0.8037472 1.7070577 0.021541448 0.7844331 0.3818078 1.7665459 -0.44786724 1.6957675
0.2670658 0.07734585 0.6636865 -0.56455773 0.12214636 -0.9641575 0.40780127 -1.3673232
0.8822984 1.2499069 -0.6843332 -0.7117303 0.31695494 0.3672941 1.1380326 1.2151347
1.0520973 -0.050892558 -0.23400138 1.065789 0.6167063 -0.49824235 -0.66815555 1.1208017
0.19142246 -1.2307137 -0.118117206 -2.1131294 -0.08154763 0.13141865 -0.84502465 0.18023847
0.8179234 -1.660843 -0.11953557 2.1847208 0.8887989 0.752256 0.50227225 -0.15030591
0.40435386 -0.15551901 2.1268559 -0.086526014 0.16772729 1.2163048 0.15620604 -0.4892635
-0.25058806 0.6030285 -1.1693884 0.44076705 0.14218716 1.5256872 0.015362989 -0.31857657
0.069075055 0.5834615 -0.094186395 -0.12511806 -0.7042935 1.5898552 -1.8680538 0.7604065
-0.83431566 1.4495323 0.67130256 3.620289 1.3106406 3.4255164 -0.4816017 -0.30842617
-0.4925865 -0.5972041 -0.77895343 1.7731755 0.10395543 0.29119724 0.34836996 -1.0882735
0.5553691 1.7159932 1.2637566 -0.40128756 0.1259839 -0.53899884 -0.3043388 0.4179212
0.7320332 0.2534935 -0.3625325 -0.89736074 0.42113093 1.3297992 -1.0627598 -2.0069883
-0.30385563 -1.0763514 -0.34152633 2.550221 -0.11153705 0.1727413 0.32343075 0.9668786
0.20982029 -0.04879921 -0.08903253 -0.02726923 1.183066 -0.46875173 -0.7377042 0.2429439
-0.5229949 0.48181295 0.7677396 0.6024055 2.0993543 0.01617582 1.6244521 0.13587888
-0.83566046 0.3814447 -0.68671376 -1.427652 1.6075965 -0.9870248 0.80990297 -0.19149417
00000000: c853 c83e f6d2 50bf 0ffb 9c3f 220c 4ebd
00000010: 6a91 76bf 0515 b0bf 56e4 0740 5398 8c3f
00000020: c58d 943f 1a34 adbf b609 233f 7793 04be
00000030: 0bf2 853f c5e0 8f3e fa61 00be abf6 98be
00000040: 05da 64bf bd74 23be 6084 ae3d e8ef 18bf
00000050: b94f 3abe ae6a 6ebf b2a5 223f c253 b13f
00000060: 70bd ed3f 3dd9 35bf 6b0c d33d 99f1 99bf
00000070: dfd6 ea3e 9a19 ad3f f6bc f13d 53b4 3fbf
00000080: f254 c4bd 154b c23f 37fd efbd 7247 de3f
00000090: 129b 573f befb 43bf cdf7 d2be 402a b03e
000000a0: fe37 3740 ab3b 943f 5897 8a3e 62f4 88be
000000b0: afff 8fbe 66a3 cf3e 6023 cb3d 03d0 3b3d
000000c0: 0d62 2bbe e966 25be f4d2 b83f 9245 213f
000000d0: 8b14 a3bf b9d2 c8be 4661 86bd 4b65 153f
000000e0: 22e2 22bf aeb9 15bc 6bb9 b23e 174e 613e
000000f0: a6be 84be 09e2 0b3e 58c5 403d b6c9 c73e
00000100: f700 4f3d adec 0f3f 9ca3 993f d831 0c40
00000110: 82ec db3f 2eca 2e3f 7cbf 29bf 79fa edbe
00000120: 4ba5 8abf 33ca 5abf 00cc 30bf e338 05bf
00000130: cd37 213f 00b4 b23f b089 043f 883c 5d3e
00000140: e9d5 d1be 6786 2fbf 02a9 d13e bff0 833f
00000150: 6a28 b43f 31fc f73f 8ab0 f7be a153 213f
00000160: 3480 14bf 4cbc 8f3f e048 26bf 418f a43f
00000170: 39c2 13c0 8884 81bf 5b41 b03e d3e5 1f3e
00000180: 3460 bebf 1958 b83f 8135 dcbf 4338 37bd
00000190: dff7 b93f 6b71 27bf 61b9 873f 4792 ccbe
000001a0: 2ad9 bdbf 0247 533f 5043 fb3d 3a47 1640
000001b0: fa18 22bf b906 d13d dc26 74bd 6f4d 95be
000001c0: a867 ac3f c6f0 5140 8cd4 31bd 3440 723f
000001d0: 0a50 ab3f 13d7 38bf 8152 413f 8136 74be
000001e0: 60c2 4d3f de80 da3f b177 b03c 9cd0 483f
000001f0: 507c c33e 2d1e e23f db4e e5be e90e d93f
00000200: d9bc 883e 8067 9e3d 5ce7 293f db86 10bf
00000210: df27 fa3d 07d3 76bf 54cb d03e 7204 afbf
00000220: 4fde 613f f3fc 9f3f 7630 2fbf f533 36bf
00000230: eb47 a23e f90d bc3e 0dab 913f 8989 9b3f
00000240: 20ab 863f b774 50bd 0f9e 6fbe c66b 883f
00000250: 77e0 1d3f 9f19 ffbe 3e0c 2bbf 6e76 8f3f
00000260: 4004 443e 0788 9dbf 6fe7 f1bd 833d 07c0
00000270: 7202 a7bd 9c92 063e 8953 58bf 6f90 383e
00000280: 6e63 513f 8196 d4bf 11cf f4bd 77d2 0b40
00000290: 5388 633f d993 403f ea94 003f cbe9 19be
000002a0: 7807 cf3e 6040 1fbe 681e 0840 8d34 b1bd
000002b0: b4c0 2b3e e0af 9b3f 7af4 1f3e bf80 fabe
000002c0: 144d 80be 1360 1a3f 85ae 95bf 38ac e13e
000002d0: 8399 113e b849 c33f 0cb5 7b3c 781c a3be
000002e0: 3977 8d3d bc5d 153f cce4 c0bd f31e 00be
000002f0: 944c 34bf 6080 cb3f 631c efbf 00aa 423f
00000300: b695 55bf 468a b93f 7cda 2b3f d1b2 6740
00000310: 12c3 a73f a93b 5b40 7f94 f6be 09ea 9dbe
00000320: 4c34 fcbe 5ee2 18bf 7e69 47bf 6af7 e23f
00000330: 96e6 d43d ce17 953e 8c5d b23e 8c4c 8bbf
00000340: ab2c 0e3f aaa5 db3f c7c2 a13f 9075 cdbe
00000350: ec01 013e d4fb 09bf 4cd2 9bbe c4f9 d53e
00000360: 8766 3b3f e6c9 813e dc9d b9be 6fb9 65bf
00000370: 799e d73e dc36 aa3f 8308 88bf 7f72 00c0
00000380: f792 9bbe e2c5 89bf 8adc aebe d236 2340
00000390: 896d e4bd 18e3 303e b798 a53e 5b85 773f
000003a0: 21db 563e aee1 47bd b056 b6bd b863 dfbc
000003b0: b56e 973f 3a00 f0be 2fda 3cbf 49c6 783e
000003c0: fee2 05bf 30b0 f63e 958a 443f 3f37 1a3f
000003d0: d25b 0640 2783 843c 0cee cf3f d523 0b3e
000003e0: d8ed 55bf b84c c33e 79cc 2fbf 4dbd b6bf
000003f0: b9c5 cd3f a8ad 7cbf cd55 4f3f 0c17 44be

lstm.weight_hh_l0 f4 [256, 64]
-0.9264353 -0.112414196 -0.044998076 -0.33548492 -0.265681 1.727533 0.034869254 0.014922773
-0.5615162 1.1098714 -0.38416815 0.2813014 -0.13810502 0.027929612 0.32861122 -0.0022655728
0.42464876 0.21781519 0.5991969 -0.20908287 0.13616627 -0.2545083 0.0049806777 0.21463677
0.22119711 0.20909873 0.021079168 -0.3408483 0.38305354 -0.7434925 -0.47027814 0.057768654
0.6280953 0.72053236 -0.13376577 0.37864423 0.2989088 -0.79956746 -0.048439156 0.29324034
-0.94901043 -0.4708041 -0.062375996 0.68916583 0.82454276 0.49010628 0.37252706 0.28549436
0.15411331 0.25741616 -0.20315553 0.2514206 0.57252175 -0.44734284 -0.04894836 -0.92188424
-0.28668702 -0.4099482 0.4921008 -0.2620202 -0.40314516 1.0246999 0.091187865 0.2051549
0.06692094 0.043047894 -0.11224163 -0.08683295 0.21325749 0.97163516 0.15984519 0.6654408
-0.027864752 -0.7931257 -0.47052926 -0.08957126 -0.099275954 -0.7020873 -0.43582416 0.97263896
-0.19841003 -0.19872662 0.47658178 0.080275126 0.062225062 0.8416473 -0.1963015 0.70615566
0.26376715 0.49641195 1.1202706 0.09910511 1.0008355 0.8026573 0.8121504 0.23416497
-0.31937814 -0.23433943 -0.34918442 0.053482223 -0.18006216 0.45311174 0.31332082 -0.07303035
-0.5597488 0.013452979 -0.80830127 -0.82556975 0.33419073 -0.3319512 0.17412554 0.8320351
-0.18858951 0.8043519 -0.40885898 -0.96075106 -0.06270294 -0.61633986 -0.43792805 -0.53294146
0.3009886 -0.35360014 -0.10037807 0.0071118874 -0.47305655 0.96520823 -0.3069021 0.0862438
-0.3160175 0.35773003 -0.96829414 -0.1737073 -0.04006108 0.7099624 -0.32844085 -0.15314747
-0.6247048 -0.50632226 -0.8672569 0.28408805 0.30492154 0.03371076 -0.07165567 0.7039289
-0.20353302 0.16873144 0.22438414 -0.22237225 0.9934723 0.16575767 -0.040756326 -0.17044348
0.0677341 -0.051730864 -0.285178 0.34928587 -0.81886566 0.72176987 -0.30644348 0.6203535
0.320152 0.28583094 0.41674057 -0.45760387 -0.7208246 0.026968151 0.035718918 -0.37273687
0.41311732 0.13902617 -0.061419826 -0.33291054 0.0009337666 -0.44241735 0.24337554 0.72879565
0.31747282 -0.50469786 -0.043776713 0.35256487 -0.56441987 0.021598382 0.48366332 -0.25606844
0.81760156 -1.027769 0.59567773 -0.07174547 -0.2577884 0.641669 -0.3709892 0.14940117
-0.18629481 -0.67141986 -0.006772278 -0.9444495 -0.11371281 0.54840434 1.3661312 -0.25547013
0.87548095 1.0287514 -0.018409653 1.062567 0.32916567 -1.221713 0.32021165 0.57767904
0.1450663 -1.0948788 -0.1616563 -0.7198646 1.1523179 0.21360065 -0.25805554 -0.0022153489
-0.75547385 0.22814918 0.02063283 0.15533383 0.8211973 -0.28336194 0.6511713 0.73435295
0.5497094 0.13200381 0.2775473 -0.47230282 -0.3541612 -0.0712916 -0.64834994 -0.26207155
0.4901399 0.5356307 -0.69334173 0.015794504 1.3136141 -0.42846057 -0.86654174 0.097526
0.09748392 -0.33873355 0.29446828 -0.044982817 -0.0076118954 -0.37475738 0.47095057 -0.14779542
-0.1607036 -0.5158485 0.59326226 -0.12475013 -0.25087562 1.0632833 0.10009363 0.114962175
00000000: dd2a 6dbf 6a39 e6bd e74f 38bd aec4 abbe
00000010: 5707 88be cd1f dd3f 10d3 0e3d a67e 743c
00000020: 87bf 0fbf 4410 8e3f b0b1 c4be bd06 903e
00000030: 676b 0dbe a4cc e43c bb3f a83e 017a 14bb
00000040: 906b d93e f20a 5f3e f864 193f d219 56be
00000050: 2c6f 0b3e e94e 82be f434 a33b bec9 5b3e
00000060: 7f81 623e fa1d 563e 38ae ac3c ab83 aebe
00000070: 981f c43e 8655 3ebf 4cc8 f0be d39e 6c3d
00000080: dbca 203f cf74 383f e5f9 08be a8dd c13e
00000090: 930a 993e 74b0 4cbf 2368 46bd 9923 963e
000000a0: 59f2 72bf 3c0d f1be f97d 7fbd 2c6d 303f
000000b0: 3c15 533f 36ef fa3e debb be3e 512c 923e
000000c0: e1cf 1d3e 0dcc 833e 0108 50be 33ba 803e
000000d0: c990 123f 1f0a e5be 137e 48bd 9b00 6cbf
000000e0: a4c8 92be bbe4 d1be a3f4 fb3e 8327 86be
000000f0: 0b69 cebe 5e29 833f b4c0 ba3d 2014 523e
00000100: d90d 893d fd52 303d f1de e5bd 79d5 b1bd
00000110: 2c60 5a3e 15bd 783f 75ae 233e 545a 2a3f
00000120: 9f44 e4bc 490a 4bbf 36e9 f0be 2371 b7bd
00000130: 3151 cbbd febb 33bf 5824 dfbe defe 783f
00000140: 002c 4bbe fe7e 4bbe 8702 f43e 4967 a43d
00000150: b5df 7e3d 3376 573f 4303 49be 9ec6 343f
00000160: 7d0c 873e b529 fe3e 0765 8f3f 9ff7 ca3d
00000170: 611b 803f f37a 4d3f 17e9 4f3f f1c8 6f3e
00000180: 8885 a3be adf6 6fbe 4dc8 b2be 2d10 5b3d
00000190: 3762 38be 43fe e73e 966b a03e f090 95bd
000001a0: b34b 0fbf e269 5c3c d5ec 4ebf 8a58 53bf
000001b0: 0c1b ab3e 82f5 a9be f74d 323e 4100 553f
000001c0: 9c1d 41be 02ea 4d3f f755 d1be c8f3 75bf
000001d0: 666a 80bd 73c8 1dbf 1b38 e0be da6e 08bf
000001e0: 2e1b 9a3e 140b b5be 0493 cdbd d60a e93b
000001f0: 7834 f2be e317 773f 4622 9dbe 97a0 b03d
00000200: 0ccd a1be 6428 b73e 20e2 77bf 54e0 31be
00000210: 1617 24bd 19c0 353f 6629 a8be b1d2 1cbe
00000220: a7ec 1fbf 569e 01bf 8c04 5ebf fd73 913e
00000230: ad1e 9c3e 4b14 0a3d 35c0 92bd af34 343f
00000240: f66a 50be efc7 2c3e f5c4 653e 8db5 63be
00000250: 3354 7e3f 61bc 293e 1bf0 26bd bc88 2ebe
00000260: 2db8 8a3d bee3 53bd da02 92be 99d5 b23e
00000270: 2ea1 51bf e9c5 383f 29e6 9cbe 7dcf 1e3f
00000280: f7ea a33e 6f58 923e 055f d53e 0e4b eabe
00000290: f687 38bf 50ec dc3c 004e 123d 5ed7 bebe
000002a0: 1d84 d33e e05c 0e3e 5b93 7bbd 4073 aabe
000002b0: 04c8 743a 8784 e2be 7037 793e 5a92 3a3f
000002c0: cc8b a23e e133 01bf 364f 33bd 6283 b43e
000002d0: d27d 10bf 17ef b03c b8a2 f73e 671b 83be
000002e0: 564e 513f ef8d 83bf 567e 183f 4aef 92bd
000002f0: d7fc 83be 6b44 243f 4cf2 bdbe 9ffc 183e
00000300: 11c4 3ebe 2ce2 2bbf fce9 ddbb 71c7 71bf
00000310: 43e2 e8bd 3a64 0c3f 63dd ae3f fbcc 82be
00000320: 851f 603f 20ae 833f d7cf 96bc 3202 883f
00000330: 6788 a83e 1761 9cbf c8f2 a33e c6e2 133f
00000340: 438c 143e fd24 8cbf 3b89 25be 0c49 38bf
00000350: 277f 933f 21ba 5a3e db1f 84be 632f 11bb
00000360: bc66 41bf f09f 693e 2e06 a93c d50f 1f3e
00000370: fc39 523f d114 91be 2ab3 263f 8efe 3b3f
00000380: c1b9 0c3f 022c 073e ae1a 8e3e add1 f1be
00000390: 9e54 b5be 5501 92bd 43fa 25bf 3e2e 86be
000003a0: 9ef3 fa3e 181f 093f d87e 31bf 7a63 813c
000003b0: 8224 a83f 2f5f dbbe aed5 5dbf b6bb c73d
000003c0: a6a5 c73d 7c6e adbe 8cc4 963e e73f 38bd
000003d0: 356d f9bb 33e0 bfbe 6f20 f13e af57 17be
000003e0: 7c8f 24be a60e 04bf 09e0 173f ff7c ffbd
000003f0: c572 80be ab19 883f e4fd cc3d 4a71 eb3d

lstm.bias_ih_l0 f4 [256]
0.33155522 0.36129114 0.19320141 0.27469662 0.14447889 0.22338563 0.22456601 -0.0736913
0.28116783 0.6868262 0.08808666 -0.113499664 0.7193379 0.0022821457 0.28390795 -0.089386016
0.27463242 0.25828376 0.082943045 0.05056791 0.51520234 0.1558211 0.3504301 0.6679625
0.7185913 0.8951833 -0.16116166 0.30494344 0.87715507 -0.08539111 0.3006307 0.5472304
0.21611762 0.44699702 0.81433696 0.5510846 0.5826895 -0.50824195 0.54246694 -0.029870689
0.33640024 0.8093774 0.6316377 0.70208436 0.2866688 0.628969 0.20424247 0.4088006
0.33698213 0.19082539 0.6383436 0.12550952 0.3159221 0.43209273 0.14566062 0.76736575
0.44836685 0.7631186 0.5066046 0.44161034 0.15081505 0.36368892 -0.101375975 0.02897578
0.1339516 0.44581467 0.17257345 0.30069694 0.1938483 0.2999587 0.34769017 0.7722833
-0.035764232 0.15205152 0.3108168 0.41452676 0.21447204 0.008678721 0.20984752 0.38166302
0.038415782 0.36005512 0.31045842 0.058643185 0.49533123 0.36187863 -0.0014189115 -0.65145475
0.25207868 0.14341083 0.16661729 -0.015974512 0.013513809 0.24139597 0.020463562 -0.02794118
0.20399812 -0.048261326 0.03835243 -0.09882537 0.14674482 0.534199 0.31878182 0.3307073
0.13372056 0.012009997 0.10878027 0.2411 0.10540697 0.18105014 0.2666635 0.08984409
0.41853842 -0.09280515 -0.55389893 -0.036139075 0.21067263 0.19282472 0.12670478 0.116726965
0.07293884 -0.29999617 0.016915882 -0.054122385 0.17204082 -0.021838032 0.27705383 0.3765813
-0.13403338 0.16673324 -0.11495449 -0.03681235 -0.042317808 -0.07865448 0.057694357 0.033299096
0.04181695 0.04850838 0.00889007 -0.037327714 -0.10035057 0.13749482 -0.021985797 0.12344995
0.1288778 -0.12481127 -0.08498752 0.02033463 0.04146916 0.07050281 -0.022702176 -0.060658168
-0.08276951 -0.0026079156 0.08544578 -0.029178567 0.03956232 -0.09444914 -0.023734108 -0.117086895
-0.015868947 -0.035988092 0.051657625 0.0268516 0.09654763 -0.092818946 -0.03482613 0.013043398
0.03825339 -0.061989 -0.05387323 -0.12550901 0.081269145 -0.07393268 0.08970614 -0.00406803
-0.23505391 -0.11513755 0.08509389 -0.12271064 0.12453128 -0.052342977 0.12587011 -0.13222046
0.093448356 -0.021071477 0.11010023 0.06061651 0.015948772 -0.040736925 -0.06282252 0.08942102
0.32609278 0.2874298 0.19794883 0.24914256 0.12545758 0.057853445 0.37834698 0.040066943
0.3770824 0.6493892 0.16595632 0.030828398 0.47172743 0.0066276398 0.6355804 -0.114604846
0.7175007 0.0889882 0.029917622 0.21116912 0.15769354 0.2605633 0.52885175 0.6012287
0.5609098 0.28590164 -0.0021506085 0.4117056 0.31608567 0.30110654 0.2009643 0.8589269
0.11202037 0.43801332 0.6515762 0.7499942 0.5437431 0.11897251 0.050192583 -0.06007732
0.27160487 0.6473473 0.6755438 0.19206779 0.60569656 0.58325535 0.15533142 0.21854368
0.084432214 0.314073 0.96778095 0.3546147 0.27178475 0.4718195 0.117521614 0.3402141
0.5496061 0.36598495 0.47865203 0.41689017 0.3677476 0.43075404 0.12016684 0.034094032
00000000: 9bc1 a93e 27fb b83e 97d6 453e 09a5 8c3e
00000010: 46f2 133e 34bf 643e a2f4 653e 77eb 96bd
00000020: 3bf5 8f3e d8d3 2f3f c766 b43d 8372 e8bd
00000030: 8726 383f 0d90 153b 625c 913e 0410 b7bd
00000040: 9f9c 8c3e c53d 843e 0bde a93d 4c20 4f3d
00000050: 4de4 033f 918f 1f3e 936b b33e 97ff 2a3f
00000060: 99f5 373f bc2a 653f 9007 25be 8c21 9c3e
00000070: 3c8d 603f 89e1 aebd 44ec 993e 4b17 0c3f
00000080: f04d 5d3e cbdc e43e 6378 503f e113 0d3f
00000090: 242b 153f 251c 02bf 1ddf 0a3f 60b3 f4bc
000000a0: a73c ac3e 5b33 4f3f 02b3 213f cdbb 333f
000000b0: 41c6 923e 1d04 213f f024 513e 504e d13e
000000c0: ec88 ac3e bb67 433e 7c6a 233f 9185 003e
000000d0: 8bc0 a13e 423b dd3e 0f28 153e 1572 443f
000000e0: 5790 e53e be5b 433f d7b0 013f c01a e23e
000000f0: 436f 1a3e 6f35 ba3e 359e cfbd 9d5e ed3c
00000100: 9c2a 093e d241 e43e 18b7 303e f3f4 993e
00000110: 2b80 463e 3094 993e 7204 b23e 5cb4 453f
00000120: 847d 12bd 65b3 1b3e 6123 9f3e da3c d43e
00000130: 8f9e 5b3e 3231 0e3c 45e2 563e 5669 c33e
00000140: de59 1d3d 2559 b83e 68f4 9e3e d633 703d
00000150: 0e9c fd3e 2848 b93e c5fa b9ba bdc5 26bf
00000160: 7510 813e 4ada 123e b99d 2a3e fbdc 82bc
00000170: 0669 5d3c 8130 773e 33a3 a73c e7e4 e4bc
00000180: e2e4 503e abad 45bd 7017 1d3d f564 cabd
00000190: 4644 163e 44c1 083f 5f37 a33e 7852 a93e
000001a0: 0bee 083e 94c5 443c 31c8 de3d ebe2 763e
000001b0: 9cdf d73d 3565 393e 1e88 883e 2e00 b83d
000001c0: ab4a d63e a010 bebd 52cc 0dbf 9106 14bd
000001d0: 91ba 573e d873 453e e6be 013e 8c0e ef3d
000001e0: f560 953d 1999 99be 2d93 8a3c 6faf 5dbd
000001f0: 782b 303e ace5 b2bc 00da 8d3e 44cf c03e
00000200: 0c40 09be 1ebc 2a3e 426d ebbd 8cc8 16bd
00000210: 7055 2dbd 9a15 a1bd eb50 6c3d a264 083d
00000220: 4048 2b3d b9b0 463d a8a7 113c f2e4 18bd
00000230: 9a84 cdbd 71cb 0c3e 8f1b b4bc 54d3 fc3d
00000240: 8bf8 033e 0d9d ffbd f00d aebd cf94 a63c
00000250: 91db 293d c763 903d eaf9 b9bc b374 78bd
00000260: 1083 a9bd 90e9 2abb 32fe ae3d e407 efbc
00000270: 190c 223d 8d6e c1bd 086e c2bc 41cb efbd
00000280: 98ff 81bc 4068 13bd f296 533d e3f7 db3c
00000290: c4ba c53d dc17 bebd d8a5 0ebd fab3 553c
000002a0: 96af 1c3d 2de8 7dbd 2daa 5cbd 6f85 00be
000002b0: 7070 a63d 046a 97bd dab7 b73d 1c4d 85bb
000002c0: f9b1 70be 3ccd ebbd b545 ae3d b74f fbbd
000002d0: 410a ff3d 9765 56bd 18e4 003e cd64 07be
000002e0: da61 bf3d 179e acbc 3b7c e13d 0549 783d
000002f0: 00a7 823c c3db 26bd 18a9 80bd 5e22 b73d
00000300: a2f5 a63e 002a 933e 19b3 4a3e 3a1f 7f3e
00000310: f477 003e bcf7 6c3d b2b6 c13e 3c1d 243d
00000320: f210 c13e 5f3e 263f 74f0 293e d68b fc3c
00000330: 4286 f13e ac2c d93b 66b5 223f f2b5 eabd
00000340: 20ae 373f 723f b63d cd15 f53c b83c 583e
00000350: 6a7a 213e 8e68 853e d462 073f 20ea 193f
00000360: c997 0f3f b361 923e 39f1 0cbb 14cb d23e
00000370: fbd5 a13e a32a 9a3e 96c9 4d3e a2e2 5b3f
00000380: f06a e53d 4843 e03e b3cd 263f 9fff 3f3f
00000390: bf32 0b3f dca7 f33d bd96 4d3d a313 76bd
000003a0: cb0f 8b3e 8db8 253f 70f0 2c3f 6bad 443e
000003b0: ee0e 1b3f 3950 153f 330f 1f3e eac9 5f3e
000003c0: ccea ac3d 2dce a03e 7ec0 773f 0f90 b53e
000003d0: 5f27 8b3e 5392 f13e 2caf f03d 8b30 ae3e
000003e0: fcb2 0c3f 6162 bb3e e111 f53e a172 d53e
000003f0: 6a49 bc3e cb8b dc3e 081a f63d 2fa6 0b3d

lstm.bias_hh_l0 f4 [256]
0.13515447 0.38879794 0.22678897 0.43879887 0.22944291 0.11160555 0.41590148 -0.014868544
0.17914477 0.55433553 0.037806906 -0.06818715 0.5828208 -0.09272862 0.2558991 -0.0889981
0.3012881 0.21842489 0.10693018 0.08638673 0.5772546 0.06610045 0.19929346 0.60349035
0.6617123 0.93974704 -0.16393866 0.3513331 0.7962258 0.014048299 0.22827257 0.4603914
0.18843779 0.47344044 0.7385065 0.4717344 0.51300466 -0.32358214 0.5666733 0.17716774
0.36513886 0.7208147 0.7482655 0.6985397 0.49284074 0.5018497 0.18229151 0.38747272
0.36049488 0.3538244 0.5478478 0.24910194 0.45256367 0.5619809 0.2601195 0.6771842
0.50219786 0.7274247 0.45097 0.27260384 0.27550516 0.283692 0.0065069324 0.0658801
0.07243956 0.4935562 0.16945957 0.23829564 0.2564933 0.13267858 0.33369243 0.7955269
0.09909291 0.11437612 0.28432718 0.20671856 0.13536546 0.017081331 0.20788957 0.28589076
-0.015955746 0.19035113 0.2616237 -0.024325084 0.49671623 0.32679737 0.1339723 -0.8120122
0.19701281 0.06106593 0.19624458 -0.035892453 -0.20415817 0.022900408 0.18164901 -0.11806543
0.31418654 -0.20346506 -0.112683475 -0.095756896 0.12581968 0.59767693 0.2848218 0.3894849
0.11973234 0.008123047 0.007924349 0.23612869 0.23698273 0.11732134 0.23519455 0.088758335
0.32996258 0.090258814 -0.5798933 0.17831989 0.14663066 -0.023775203 0.19000807 0.05449562
0.1049148 -0.33107582 0.19711462 -0.07711856 0.023116546 -0.089462094 0.2979777 0.38139558
-0.01056503 0.041910477 0.053370856 -0.02193033 -0.017624898 -0.12262382 0.023745619 0.053022582
-0.034052346 -0.069038354 0.072416954 0.05502949 0.062413808 -0.059043325 0.102310084 0.09885376
0.03597615 -0.13549362 -0.12802142 0.11616114 0.03550213 0.1611339 0.057646256 0.029067505
-0.10331419 -0.03398791 0.07920582 0.03121367 0.016347239 0.023482056 0.08902758 0.0017977043
-0.0052433494 -0.032065686 -0.029886262 -0.009394454 -0.0033336417 -0.01377365 -0.21390568 0.03955578
-0.03555226 -0.063751794 -0.06090493 -0.03996139 0.028616365 0.0665079 0.07723133 -0.13391352
-0.25348675 0.0435282 0.08414646 -0.12050869 -0.036579765 0.053661752 0.1256216 -0.11281036
-0.010754124 -0.18336646 -0.09461339 0.0055836285 0.024504744 -0.10065547 0.06697187 -0.03150234
0.24393044 0.11108918 0.08755348 0.18205956 -0.083403885 0.040114976 0.2233484 0.08755257
0.23206936 0.73264444 0.043773845 -0.07732712 0.57915 0.031792194 0.6598505 0.017129883
0.6951894 0.12606005 0.02681651 0.28659105 0.28965577 0.28053233 0.6781421 0.55528474
0.55736184 0.31846595 0.20096934 0.3296664 0.47838777 0.22852911 0.21511588 0.7506744
0.026504721 0.42320377 0.6421333 0.6699507 0.59474874 0.27752593 -0.17252369 -0.06465096
0.40405872 0.74244493 0.65471697 0.2933554 0.63536817 0.38706502 0.064352505 0.18150362
-0.090062775 0.39433512 0.8882951 0.35859734 0.39607763 0.43834946 0.10635049 0.32903898
0.4879667 0.38650265 0.53620636 0.3773257 0.37401202 0.4025338 0.090248525 0.051670827
00000000: ef65 0a3e 8610 c73e 5e3b 683e 3faa e03e
00000010: 15f3 6a3e 7391 e43d 0af1 d43e 329b 73bc
00000020: ba71 373e efe8 0d3f 6adb 1a3d b4a5 8bbd
00000030: be33 153f 81e8 bdbd 3505 833e a344 b6bd
00000040: 6f42 9a3e c6aa 5f3e 36fe da3d 87eb b03d
00000050: f5c6 133f ac5f 873d 9613 4c3e 587e 1a3f
00000060: fa65 293f 4393 703f 89df 27be efe1 b33e
00000070: 74d5 4b3f d62a 663c 49c0 693e 6cb8 eb3e
00000080: d6f5 403e c966 f23e c30e 3d3f 2c87 f13e
00000090: 4654 033f 8fac a5be 8011 113f 766b 353e
000000a0: 7bf3 ba3e 5087 383f 548e 3f3f 7fd3 323f
000000b0: 9f55 fc3e 3979 003f a0aa 3a3e d362 c63e
000000c0: c992 b83e 7928 b53e c13f 0c3f 9414 7f3e
000000d0: 6db6 e73e fbdd 0f3f 622e 853e f25b 2d3f
000000e0: 0a90 003f 8138 3a3f 8ae5 e63e bb92 8b3e
000000f0: 030f 8d3e 1440 913e 1b38 d53b 25ec 863d
00000100: 315b 943d 66b3 fc3e cf86 2d3e c603 743e
00000110: 1753 833e e5dc 073e bcd9 aa3e a7a7 4b3f
00000120: 39f1 ca3d 073e ea3d 5593 913e 08ae 533e
00000130: 3e9d 0a3e 26ee 8b3c 01e1 543e 4660 923e
00000140: a0b5 82bc 68eb 423e 8bf3 853e 6645 c7bc
00000150: 9751 fe3e fc51 a73e 0930 093e 08e0 4fbf
00000160: babd 493e 4520 7a3d 57f4 483e f703 13bd
00000170: d70e 51be a399 bb3c 3302 3a3e 4acc f1bd
00000180: 0fdd a03e 2559 50be 98c6 e6bd 311c c4bd
00000190: e0d6 003e 5b01 193f 2ad4 913e 916a c73e
000001a0: 3b36 f53d 8716 053c 21d5 013c b8cb 713e
000001b0: 9aab 723e 2c46 f03d d7d6 703e eec6 b53d
000001c0: dbf0 a83e 9dd9 b83d e373 14bf 7d99 363e
000001d0: 5926 163e 37c4 c2bc 7a91 423e cd36 5f3d
000001e0: 92dd d63d c582 a9be 6ad8 493e 56f0 9dbd
000001f0: e95e bd3c e737 b7bd 8890 983e 4846 c33e
00000200: f318 2dbc 52aa 2b3d 669b 5a3d 3ca7 b3bc
00000210: 1762 90bc 3322 fbbd 2c86 c23c 352e 593d
00000220: 797a 0bbd fb63 8dbd 574f 943d 9a66 613d
00000230: 9fa5 7f3d 6ad7 71bd f387 d13d d773 ca3d
00000240: ba5b 133d d7be 0abe 0c18 03be e4e5 ed3d
00000250: ae6a 113d 4900 253e 7b1e 6c3d fa1e ee3c
00000260: 6496 d3bd e836 0bbd a936 a23d cfb3 ff3c
00000270: a5ea 853c 715d c03c 1854 b63d f2a0 eb3a
00000280: 67d0 abbb 4f57 03bd 09d4 f4bc 32eb 19bc
00000290: 3a79 5abb e0aa 61bc 170a 5bbe 3e05 223d
000002a0: 3f9f 11bd 4d90 82bd 7377 79bd 8eae 23bd
000002b0: de6c ea3c 4b35 883d 762b 9e3d a020 09be
000002c0: 04c9 81be a04a 323d fb54 ac3d 43cd f6bd
000002d0: aad4 15bd 6dcc 5b3d f3a2 003e 1e09 e7bd
000002e0: 1132 30bc 6bc4 3bbe aac4 c1bd dff6 b63b
000002f0: 2cbe c83c 7424 cebd 8c28 893d 9908 01bd
00000300: e7c8 793e b982 e33d 3d4f b33d d26d 3a3e
00000310: a8cf aabd 9a4f 243d 71b5 643e c34e b33d
00000320: 97a3 6d3e 968e 3b3f 344c 333d ae5d 9ebd
00000330: 2d43 143f 8838 023d f6eb 283f f853 8c3c
00000340: eff7 313f e315 013e 4cae db3c 10bc 923e
00000350: c34d 943e efa1 8f3e b89a 2d3f 2427 0e3f
00000360: 44af 0e3f f80d a33e e8ca 4d3e 09ca a83e
00000370: 3eef f43e 8903 6a3e 5647 5c3e 332c 403f
00000380: 6e20 d93c 2aae d83e d962 243f e481 2b3f
00000390: 7441 183f e117 8e3e 0daa 30be b967 84bd
000003a0: c9e0 ce3e df10 3e3f 889b 273f ae32 963e
000003b0: 7da7 223f 632d c63e 3fcb 833d 16dc 393e
000003c0: d572 b8bd 4be6 c93e 4f67 633f 129a b73e
000003d0: b0ca ca3e 576f e03e 49ce d93d cc77 a83e
000003e0: c5d6 f93e ade3 c53e d244 093f d630 c13e
000003f0: 817e bf3e e918 ce3e 38d4 b83d caa4 533d

lstm.weight_ih_l1 f4 [256, 64]
0.3835829 0.5887576 -1.2327414 -0.15296464 0.2584512 -0.44303456 0.33757496 -0.05273291
-0.33799297 -0.16364636 0.018966593 0.13570462 -0.06323688 -0.0128351 -0.15656257 0.21479246
-1.3629237 -0.4303927 -0.13277082 0.9971412 0.3449961 -0.08311894 0.3575316 0.42732626
-0.059369706 -0.24428894 0.0076382244 -0.45511597 0.22595692 0.36721215 -0.3401676 -0.6981141
-0.5275232 -0.7655712 0.4792632 0.1135559 0.28403836 0.1221128 -0.12911771 0.022093391
-0.30383563 -0.75746095 0.45665666 0.25181156 0.60487676 -0.102882944 0.37822106 -0.9959245
0.2090475 -0.12549889 -0.52022856 -0.083298504 -1.0666176 0.036529716 -0.2712951 -0.17626894
1.0552847 0.760114 -0.07724413 0.2464958 -0.091024846 -1.3915936 0.3828227 -0.46049646
0.21046679 0.54245466 -0.47396588 -0.64857584 -0.2147403 -0.3357986 0.62161607 -0.08250112
-0.5043273 0.29673466 0.22532512 0.576459 0.19424991 -0.5149805 0.2889168 -0.28491122
-0.015520199 -0.448501 0.10203678 0.563374 0.24513552 0.65507185 0.3186768 -0.4231961
-0.45040506 -0.0857748 0.7384512 -0.25379255 0.5259201 0.52477294 0.12998216 0.043515187
0.030163717 -0.27401388 0.068346135 0.3699708 0.058491636 0.0037074864 -0.029931165 0.40763623
0.65510833 0.44729754 0.6254896 -0.17632447 -0.05518893 0.28885308 -0.2481439 -0.028462237
0.26279426 -0.32468405 -0.5397417 0.2951966 -0.08067985 0.48030126 0.99467266 -0.283025
-0.3727802 -0.39358503 0.07485493 0.6303853 -0.18931223 0.21683493 0.038972348 0.211215
0.23180209 0.57021075 -0.5291022 -0.71123093 0.5550975 -0.4340524 -0.31598496 0.54259145
0.0005836647 -0.24889214 0.26958287 0.024104523 -0.07544345 0.35912073 0.113114096 0.27702454
0.17374298 -0.22168802 0.13775037 -0.18894799 -0.34319875 -0.53586483 0.46951765 0.57620513
-0.20416759 -0.15729108 0.47150666 -0.55652833 1.1756169 -0.007229223 -0.4444134 0.07925357
-0.33679903 -1.0208062 -0.91387904 0.15470839 -0.06499091 -0.6983606 0.7281969 0.05976316
-0.4007872 -0.46287808 -0.8750207 -0.4143482 0.66021854 -0.58780754 0.04335801 0.22962205
0.37250134 0.20598057 0.16697994 0.07655639 0.6180629 1.0320224 0.026115391 -0.2960704
0.16541412 0.46595 0.6767515 0.47370222 0.57963014 0.26823103 0.19519015 0.41463012
-0.18234703 1.1319703 0.34716004 -0.65457493 0.244169 -0.26987052 -0.11048136 0.79882514
-0.42831784 -0.5151747 -0.007187104 0.21910709 -0.19466987 0.18724069 0.12669154 0.050194126
0.21032085 0.4502694 0.09826687 0.30588862 0.202964 -0.022374993 0.6914128 0.1169656
0.16554333 0.022821799 0.11843771 -0.49360397 -0.4661531 0.30229363 -0.174935 0.19144715
0.5145477 -0.109389715 -0.5287576 -0.7781107 0.0019638708 -0.24455723 -0.4916123 0.09144709
0.26859778 -0.35241866 -0.45757782 0.29645222 0.36957723 -1.719247 0.0023728246 0.149997
0.13452129 0.115693286 -0.026951905 -0.55213064 -0.5995518 0.6073851 0.3899529 -0.65434855
-0.6417893 0.026589815 0.06543628 -0.0019255452 0.259025 0.47203144 -0.043285616 0.4981776
00000000: fa64 c43e d1b8 163f 78ca 9dbf c3a2 1cbe
00000010: b753 843e 6dd5 e2be a0d6 ac3e 77fe 57bd
00000020: 6a0d adbe e992 27be d45f 9b3c 27f6 0a3e
00000030: 5682 81bd 504a 52bc f051 20be 8ef2 5b3e
00000040: 4974 aebf 6f5c dcbe 13f5 07be a544 7f3f
00000050: 54a3 b03e 433a aabd 620e b73e 82ca da3e
00000060: a62d 73bd e126 7abe 124a fa3b f604 e9be
00000070: 4061 673e 3b03 bc3e 732a aebe 9bb7 32bf
00000080: c30b 07bf 79fc 43bf fc61 f53e ff8f e83d
00000090: 7a6d 913e 4716 fa3d 6f37 04be 33fd b43c
000000a0: 5890 9bbe f6e8 41bf e7ce e93e 72ed 803e
000000b0: 34d9 1a3f 4bb4 d2bd 31a6 c13e e8f4 7ebf
000000c0: 8c10 563e c882 00be b32d 05bf 6898 aabd
000000d0: ed86 88bf 2fa0 153d 31e7 8abe d87f 34be
000000e0: 9213 873f d596 423f 2c32 9ebd 6569 7c3e
000000f0: 3c6b babd bd1f b2bf 5601 c43e 31c6 ebbe
00000100: 9b84 573e 4fde 0a3f a8ab f2be 1109 26bf
00000110: e2e4 5bbe cbed abbe 3b22 1f3f 59f6 a8bd
00000120: 981b 01bf 9bed 973e a1bb 663e d192 133f
00000130: 73e9 463e c3d5 03bf e7ec 933e e2df 91be
00000140: 6f48 7ebc eca1 e5be a9f8 d03d 4739 103f
00000150: ce04 7b3e cab2 273f 9b29 a33e 29ad d8be
00000160: 7e9b e6be b3aa afbd 230b 3d3f 19f1 81be
00000170: b3a2 063f 8557 063f 0b1a 053e fb3c 323d
00000180: e619 f73c 8c4b 8cbe 0ff9 8b3d d06c bd3e
00000190: ed94 6f3d 4df9 723b 3432 f5bc b2b5 d03e
000001a0: 2eb5 273f 2f04 e53e 1620 203f 678e 34be
000001b0: ca0d 62bd 8de4 933e 6f19 7ebe a329 e9bc
000001c0: f88c 863e fd3c a6be 832c 0abf 0224 973e
000001d0: 7a3b a5bd 0cea f53e dea2 7e3f a7e8 90be
000001e0: 0cdd bebe fa83 c9be 8b4d 993d ee60 213f
000001f0: 11db 41be fa09 5e3e 78a1 1f3d bf48 583e
00000200: 875d 6d3e 55f9 113f 3e73 07bf 3b13 36bf
00000210: df1a 0e3f 1e3c debe c8c8 a1be 46e7 0a3f
00000220: 1301 193a 95dd 7ebe c406 8a3e d976 c53c
00000230: 1882 9abd acde b73e 5da8 e73d 29d6 8d3e
00000240: aee9 313e 2f02 63be 6f0e 0d3e 957b 41be
00000250: bfb7 afbe 702e 09bf 9e64 f03e 2e82 133f
00000260: 4f11 51be ea10 21be 5269 f13e a478 0ebf
00000270: 9d7a 963f 1ee3 ecbb 278a e3be b24f a23d
00000280: ec70 acbe c7a9 82bf faf3 69bf e06b 1e3e
00000290: f419 85bd c3c7 32bf 1d6b 3a3f 37ca 743d
000002a0: fb33 cdbe 5bfe ecbe 5b01 60bf 7325 d4be
000002b0: 1504 293f 8e7a 16bf 2b98 313d 0b22 6b3e
000002c0: 7fb8 be3e 92ec 523e cafc 2a3e 99c9 9c3d
000002d0: 5f39 1e3f 4f19 843f f2ef d53c 8a96 97be
000002e0: 5262 293e 0091 ee3e 963f 2d3f 1989 f23e
000002f0: a462 143f 9455 893e eddf 473e 664a d43e
00000300: 2eb9 3abe 67e4 903f f6be b13e 3992 27bf
00000310: 7007 7a3e 782c 8abe 0d44 e2bd ce7f 4c3f
00000320: 7a4c dbbe 7de2 03bf cc81 ebbb 9c5d 603e
00000330: 8a57 47be 06bc 3f3e 6dbb 013e 5b98 4d3d
00000340: 595e 573e b689 e63e 2440 c93d 6f9d 9c3e
00000350: cbd5 4f3e c34b b7bc 6e00 313f a98b ef3d
00000360: 3184 293e c8f4 ba3c 788f f23d a9b9 fcbe
00000370: 9eab eebe 3bc6 9a3e 2922 33be b90a 443e
00000380: 66b9 033f b707 e0bd a85c 07bf 4332 47bf
00000390: 49b4 003b 366d 7abe 9bb4 fbbe 9d48 bb3d
000003a0: a685 893e 3870 b4be a447 eabe 96c8 973e
000003b0: 3a39 bd3e 4910 dcbf 6481 1b3b d098 193e
000003c0: f3bf 093e 9af0 ec3d 3eca dcbc 6f58 0dbf
000003d0: 3a7c 19bf 977d 1b3f e8a7 c73e 6383 27bf
000003e0: 4e4c 24bf e2d2 d93c 7503 863d 9362 fcba
000003f0: ed9e 843e 1bae f13e 424c 31bd 2211 ff3e

lstm.weight_hh_l1 f4 [256, 64]
0.53174996 0.053543087 0.45720047 0.64260936 -1.5533743 0.67668664 0.49482486 0.51257217
0.31692737 0.35905465 0.18875842 0.21424693 0.7445944 -0.88398665 0.04161008 1.1448442
-0.7791295 0.64908653 -0.5999332 0.23340355 -0.5620656 -0.35122648 1.0630519 -0.915374
-1.0554949 0.19436456 0.9790663 1.2423307 -1.258727 -0.69244206 0.81921315 0.26359177
-0.63230604 -0.19661841 -0.12688294 0.36565894 0.17955196 -1.0799083 0.20317632 0.10813552
-0.3538201 -0.1861344 -0.65356916 0.21956621 -1.2111927 -0.5466346 0.031153452 0.95929337
-0.9191377 -0.48210245 -1.0187488 0.6795583 0.536889 -1.91742 -1.3458346 -0.63035494
-0.48561996 -0.106120355 0.34244034 -0.30990177 -0.9298043 -1.4984183 -0.2747425 0.59941334
-0.27391732 -0.048957177 -0.15174384 -0.32472286 -0.81987077 -0.039555427 0.32985604 -0.34621844
0.8650024 0.22307822 0.7802677 0.6515454 -0.1613517 0.73557025 -0.3411112 0.42404887
-0.13121277 -0.0144560365 0.48561165 -0.29347432 0.19125868 -0.38184008 -0.4797129 -0.23305275
0.44693625 0.45217103 -0.5407756 0.08963458 -0.6391444 -0.13125725 0.4561491 1.0060776
-0.37343407 -0.23121306 -0.11237495 0.57352304 0.6582834 -0.3651438 0.3849094 -0.47878775
0.504568 -0.64610076 -0.25958264 -1.4440938 -0.11860182 -0.22470902 0.7183283 -0.5043406
-0.55393606 -0.7707981 -2.0648298 0.2442352 0.27922127 0.22002919 -0.17265876 -0.28272972
0.54096836 -0.075488426 -0.34525996 0.37905753 -1.2599396 -0.59680575 1.1344136 -0.12824234
-0.55483544 0.44543576 1.0244342 0.8220553 0.053153444 -0.17704515 -0.42548642 1.6948487
0.9748937 -0.539539 -0.20076963 0.77761173 0.42805043 -0.79863286 0.6991311 0.41912585
-0.42045137 -0.15061943 -1.2364204 0.0551536 0.5475407 -0.19172639 0.15481427 -0.73897606
0.33306885 -1.7460064 0.7630074 0.48140806 0.7567597 0.42348817 -0.59771687 -0.4657327
0.65996623 -0.8505803 -0.49989524 -0.18252382 -0.65502554 -1.2598149 0.18548891 -0.46447223
-0.13474327 -0.090307474 0.44610006 0.49570924 0.4790025 0.7686332 -0.5129072 -0.22833829
0.44388855 -0.88907814 -0.12948275 -0.9556907 -0.34039527 -0.6175159 0.47967768 0.6526226
-0.09639786 -0.533214 -1.5821443 0.5850708 -0.15731753 0.3825951 0.4429605 0.297452
-0.5353895 -0.38685533 0.3225205 -0.26843846 -0.3657637 0.35826117 -0.34623837 0.024189327
0.91594416 -0.038730904 -0.022952177 -0.22460216 -1.9415046 -0.5221901 0.30075854 1.6271459
0.28159338 -0.14529768 -0.403549 1.1564269 -0.6578397 -0.5832635 0.11243109 -0.7431075
-0.023425547 -1.0613145 -0.4205213 0.283656 -0.19473068 -0.04517825 -0.12883873 1.0262744
1.4385188 -0.28106877 -0.5157119 0.8413042 1.0927536 -0.25365686 -0.792182 -0.917689
-0.2709029 -0.10637876 0.33390635 -0.054209728 -0.7108742 -0.5007166 0.66814595 1.1356587
0.17353678 0.17242056 -0.101556584 -1.3928803 0.23384549 -0.6013637 -1.3844733 -0.12555447
-0.34868455 0.54210323 0.40303627 -0.29305387 0.6471803 0.14784348 -0.1838477 0.29376152
00000000: c420 083f ff4f 5b3d 2e16 ea3e 0c82 243f
00000010: f8d4 c6bf 563b 2d3f af59 fd3e ee37 033f
00000020: 4e44 a23e 03d6 b73e e349 413e 8c63 5b3e
00000030: bd9d 3e3f f34c 62bf 556f 2a3d 418a 923f
00000040: 0875 47bf 892a 263f 3995 19bf 5701 6f3e
00000050: 88e3 0fbf f5d3 b3be 1612 883f f355 6abf
00000060: 751a 87bf 8107 473e 17a4 7a3f b104 9f3f
00000070: f71d a1bf e243 31bf f4b7 513f 80f5 863e
00000080: cfde 21bf 5656 49be 9aed 01be a637 bb3e
00000090: 78dc 373e 6f3a 8abf 740d 503e 2876 dd3d
000000a0: e827 b5be 049a 3ebe 4f50 27bf f7d5 603e
000000b0: 5d08 9bbf 3ff0 0bbf 8635 ff3c 4094 753f
000000c0: 9c4c 6bbf 22d6 f6be 5c66 82bf 88f7 2d3f
000000d0: 8f71 093f 056e f5bf 4f44 acbf f15e 21bf
000000e0: 2ea3 f8be a155 d9bd 5754 af3e 72ab 9ebe
000000f0: a807 6ebf 2ccc bfbf 0dab 8cbe 2773 193f
00000100: e43e 8cbe 5287 48bd bd62 1bbe 1342 a6be
00000110: 0de3 51bf df04 22bd e4e2 a83e 8b43 b1be
00000120: cc70 5d3f 9e6e 643e a0bf 473f aecb 263f
00000130: 6139 25be 554e 3c3f 21a6 aebe ef1c d93e
00000140: a45c 06be 03d9 6cbc 17a2 f83e 4442 96be
00000150: 51d9 433e 8b80 c3be ee9c f5be 61a5 6ebe
00000160: d4d4 e43e f682 e73e 4570 0abf 5692 b73d
00000170: f89e 23bf 4d68 06be 608c e93e 27c7 803f
00000180: c032 bfbe 1ec3 6cbe d624 e6bd 68d2 123f
00000190: 4385 283f 21f4 babe d812 c53e ab23 f5be
000001a0: 5e2b 013f dc66 25bf 04e8 84be 11d8 b8bf
000001b0: 83e5 f2bd 1f1a 66be 5de4 373f 771c 01bf
000001c0: c1ce 0dbf 0653 45bf 2c26 04c0 cb18 7a3e
000001d0: 17f6 8e3e 554f 613e 75cd 30be f3c1 90be
000001e0: e77c 0a3f ad99 9abd eac5 b0be d413 c23e
000001f0: b345 a1bf 43c8 18bf 7734 913f f651 03be
00000200: b209 0ebf 2810 e43e a920 833f 3772 523f
00000210: 6db7 593d 534b 35be 5bd9 d9be cdf0 d83f
00000220: a292 793f 3a1f 0abf 8e96 4dbe 9011 473f
00000230: 6d29 db3e 3473 4cbf 41fa 323f aa97 d63e
00000240: 6745 d7be fb3b 1abe 0643 9ebf bee8 613d
00000250: a12b 0c3f ec53 44be a287 1e3e 892d 3dbf
00000260: 0088 aa3e 237d dfbf 7454 433f 1e7b f63e
00000270: 01bb 413f 71d3 d83e f903 19bf 8474 eebe
00000280: 8cf3 283f a1bf 59bf 45f2 ffbe 86e7 3abe
00000290: c1af 27bf 9d41 a1bf cef0 3d3e 4ecf edbe
000002a0: 24fa 09be 20f3 b8bd 3a67 e43e 9acd fd3e
000002b0: d13f f53e 25c5 443f e34d 03bf 83d1 69be
000002c0: 5c45 e33e a09a 63bf 2097 04be 25a8 74bf
000002d0: 4a48 aebe 8615 1ebf 5098 f53e 4612 273f
000002e0: 3e6c c5bd b680 08bf b483 cabf 33c7 153f
000002f0: d917 21be 81e3 c33e b8cb e23e a14b 983e
00000300: 490f 09bf e711 c6be 6821 a53e c470 89be
00000310: 6145 bbbe 026e b73e 2846 b1be b228 c63c
00000320: 517b 6a3f 4ca4 1ebd 3406 bcbc 1cfe 65be
00000330: 3983 f8bf 40ae 05bf 06fd 993e 5146 d03f
00000340: 022d 903e eac8 14be f99d cebe cc05 943f
00000350: 2f68 28bf c250 15bf 4542 e63d 4b3c 3ebf
00000360: efe6 bfbc 27d9 87bf 914e d7be 5c3b 913e
00000370: 7b67 47be d40c 39bd 4dee 03be f65c 833f
00000380: 6221 b83f 3fe8 8fbe b205 04bf b65f 573f
00000390: 5adf 8b3f 50df 81be 71cc 4abf abed 6abf
000003a0: c9b3 8abe 1bdd d9bd c6f5 aa3e 050b 5ebd
000003b0: dafb 35bf f72e 00bf 9d0b 2b3f 445d 913f
000003c0: a0b3 313e 048f 303e e6fc cfbd e749 b2bf
000003d0: 3175 6f3e f9f2 19bf 6c36 b1bf 5a91 00be
000003e0: c886 b2be 47c7 0a3f c55a ce3e 280b 96be
000003f0: 9cad 253f 4864 173e 9242 3cbe e967 963e

lstm.bias_ih_l1 f4 [256]
0.17389783 0.122696444 0.40455404 0.5753944 -0.0061290357 0.09927021 0.04247984 0.9736587
0.0075578396 0.14351095 0.53406596 0.6010917 0.5053321 0.15609325 0.49042088 0.24546152
0.098716535 0.4297487 0.006357466 0.4598944 0.02655132 0.43551612 0.43092883 -0.15063351
0.667266 0.37698048 0.27955097 0.13630505 0.47173658 0.35843834 0.25403488 0.55966604
0.59414214 1.1063521 0.20025021 0.009812699 0.24242589 0.48907897 0.7324221 0.7099831
-0.046951104 0.5026626 0.12027051 0.20940942 0.008223713 -0.3519091 0.8667641 -0.056858644
0.7856583 0.28539684 0.43666035 0.42366037 -0.07213752 0.21738283 0.16147012 -0.23677105
0.5815464 0.46046022 0.2076079 -0.1412763 0.27313018 0.012654479 0.13614766 0.40403095
-0.34158397 -0.2182499 -0.13418278 -0.15237625 0.1357404 0.41302842 0.18246491 -0.4799787
0.38890713 -0.27225074 0.32362244 -0.085765794 -0.05327862 -0.37139708 0.19035715 0.38528574
0.52854824 -0.11451128 0.53459793 -0.30627236 -0.58501565 -0.58848226 -0.13147783 0.63343656
0.1558305 0.68347347 0.016146377 0.046012208 0.40671176 -0.4976757 0.7064986 0.12939896
-0.3842627 -0.35750207 0.23272482 0.12970258 -0.35344455 0.12479964 -0.10344683 -0.3485319
-0.063601874 -0.25685182 0.52535146 -0.4467769 -0.013802588 -0.18665144 0.1559843 -0.07292503
-0.10596883 0.30226463 -0.052625798 -0.023179607 -0.38283324 0.21085568 0.12827258 0.48375842
-0.19481012 -0.3789941 0.5797827 0.20097867 -0.3314263 -0.28297067 -0.33423224 0.013121303
-0.22004974 0.24509047 -0.31231654 -0.29638612 -0.099610865 -0.18905923 -0.17513344 -0.47349045
-0.61775005 0.22229287 0.18540943 -0.050001074 0.22675179 0.052483916 0.08565151 -0.10559096
0.098339155 0.034594487 -0.37026444 -0.0769623 0.1989198 -0.06803805 0.30830908 -0.13146652
0.45552668 0.07039666 0.0985549 0.022847364 0.059820447 -0.21878551 -0.014174823 0.011482311
-0.16719466 -0.29110935 0.27106223 -0.013926788 0.056911238 0.113404244 -0.02162744 0.13544378
0.044581395 -0.30167797 -0.32993534 0.43022063 -0.14586182 0.14635228 0.5427369 -0.026301531
-0.44142628 -0.17145838 -0.089549646 -0.24685253 0.062176924 -0.035735954 0.24902631 -0.15368696
0.27728233 0.008618099 -0.47587478 0.12791689 0.14273502 -0.06171754 0.24149205 0.29319236
-0.10882081 0.1477474 0.3290005 0.23141138 -0.5644037 0.2347496 0.37000534 0.8268293
-0.5346978 0.91204447 0.6820713 1.2117374 -0.0018013379 0.5601764 0.5194981 -0.25712365
-0.31909075 0.48619893 0.44584936 0.86675334 0.5680525 0.41343117 0.33341673 0.49629962
-0.15353455 0.42223978 0.25979406 0.080239885 -0.046501968 0.17908199 -0.0012110476 0.7852622
0.19123888 -0.2008783 0.48426515 0.24884677 0.3568205 -0.08786179 1.1515852 0.85348773
0.15667507 0.32359594 -0.116047814 0.31275246 -0.32290122 0.48892266 -0.029528301 0.24064502
0.90458494 -0.059333507 0.14731427 0.069457926 0.45571235 -0.22519384 -0.5231134 0.2434925
0.39794618 0.76025206 0.08160493 0.25383314 0.8255529 0.64515376 0.40833208 0.46821734
00000000: 4612 323e 4648 fb3d b521 cf3e 0c4d 133f
00000010: 14d6 c8bb 2e4e cb3d 57ff 2d3d b241 793f
00000020: c1a7 f73b 89f4 123e 8cb8 083f 25e1 193f
00000030: 725d 013f e9d6 1f3e 7218 fb3e 445a 7b3e
00000040: e52b ca3d 0608 dc3e 4a52 d03b 4777 eb3e
00000050: 2782 d93c f8fb de3e b4a2 dc3e ac3f 1abe
00000060: f2d1 2a3f 9603 c13e 4e21 8f3e 8d93 0b3e
00000070: 7587 f13e 3b85 b73e dc10 823e 4646 0f3f
00000080: b319 183f f29c 8d3f 640e 4d3e 71c5 203c
00000090: 7e3e 783e 8f68 fa3e 0480 3b3f 74c1 353f
000000a0: cd4f 40bd 7fae 003f 6350 f63d 6c6f 563e
000000b0: c1bc 063c 6e2d b4be 41e4 5d3f 9ce4 68bd
000000c0: e720 493f 891f 923e f291 df3e 03ea d83e
000000d0: d6bc 93bd 9b99 5e3e 6c58 253e 1c74 72be
000000e0: 3ae0 143f 71c1 eb3e 2a97 543e bcaa 10be
000000f0: b8d7 8b3e bb54 4f3c 4b6a 0b3e 25dd ce3e
00000100: 18e4 aebe e77c 5fbe 3667 09be 8508 1cbe
00000110: 88ff 0a3e 7678 d33e 15d8 3a3e c5bf f5be
00000120: d61e c73e 7364 8bbe d7b1 a53e faa5 afbd
00000130: af3a 5abd c227 bebe fcec 423e 2c44 c53e
00000140: f04e 073f e484 eabd 69db 083f bbcf 9cbe
00000150: 96c3 15bf c6a6 16bf 20a2 06be e628 223f
00000160: 0892 1f3e 1ef8 2e3f 6845 843c 4c77 3c3d
00000170: 863c d03e 59cf febe 18dd 343f 2981 043e
00000180: 15be c4be 830a b7be 6a4f 6e3e c1d0 043e
00000190: aff6 b4be f496 ff3d eedb d3bd c672 b2be
000001a0: b341 82bd 1582 83be 6f7d 063f f1bf e4be
000001b0: 4024 62bc 8e21 3fbe 59ba 1f3e b859 95bd
000001c0: 3006 d9bd 6ec2 9a3e 268e 57bd 29e3 bdbc
000001d0: b802 c4be 8dea 573e e359 033e 2faf f73e
000001e0: 4e7c 47be 840b c2be a46c 143f 5acd 4d3e
000001f0: b5b0 a9be 88e1 90be 7d20 abbe bcfa 563c
00000200: b854 61be fff8 7a3e f4e7 9fbe ecbf 97be
00000210: c800 ccbd be98 41be 2e56 33be 576d f2be
00000220: de24 1ebf bea0 633e f8db 3d3e edcd 4cbd
00000230: 9f31 683e 60f9 563d 0f6a af3d 1340 d8bd
00000240: 0a66 c93d f3b2 0d3d 4d93 bdbe 699e 9dbd
00000250: a2b1 4b3e 8857 8bbd b0da 9d3e 299f 06be
00000260: cb3a e93e 202c 903d 27d7 c93d 652a bb3c
00000270: 4906 753d 4f09 60be 843d 68bc 4e20 3c3c
00000280: 1435 2bbe 490c 95be abc8 8a3e 2f2d 64bc
00000290: c21b 693d 7c40 e83d 072c b1bc c6b1 0a3e
000002a0: fb9a 363d 8975 9abe 49ed a8be e145 dc3e
000002b0: cd5c 15be 5fdd 153e cef0 0a3f 4f76 d7bc
000002c0: a002 e2be c992 2fbe ce65 b7bd e9c6 7cbe
000002d0: 3bad 7e3d dd5f 12bd c100 7f3e 1d60 1dbe
000002e0: f3f7 8d3e ed32 0d3c dca5 f3be a5fc 023e
000002f0: 2129 123e 88cb 7cbd b149 773e 4f1d 963e
00000300: 72dd debd 184b 173e c172 a83e 1bf7 6c3e
00000310: c37c 10bf 3362 703e 5771 bd3e 16ab 533f
00000320: f4e1 08bf bf7b 693f 3a9c 2e3f 361a 9b3f
00000330: df1a ecba b867 0f3f d4fd 043f b6a5 83be
00000340: dd5f a3be 11ef f83e 5e46 e43e 8ce3 5d3f
00000350: e36b 113f 40ad d33e 99b5 aa3e fc1a fe3e
00000360: 2938 1dbe d02f d83e ba03 853e cf54 a43d
00000370: d978 3ebd 4561 373e 04bc 9eba f206 493f
00000380: 20d4 433e 0bb3 4dbe 9af1 f73e b0d1 7e3e
00000390: 2db1 b63e e2f0 b3bd 2567 933f 2c7e 5a3f
000003a0: 6e6f 203e 5eae a53e 7aaa edbd 1721 a03e
000003b0: 4f53 a5be 1254 fa3e 56e5 f1bc a66b 763e
000003c0: e192 673f b107 73bd 8dd9 163e f53f 8e3d
000003d0: 2153 e93e 3799 66be c3ea 05bf 1956 793e
000003e0: 9abf cb3e e19f 423f 7c20 a73d 6bf6 813e
000003f0: 6f57 533f cc28 253f e710 d13e 2fba ef3e

lstm.bias_hh_l1 f4 [256]
0.2618298 -0.01687378 0.31447107 0.5461738 -0.059827093 0.11430647 0.16707365 0.9790458
-0.08171417 0.2805985 0.4702262 0.39794064 0.38371924 0.025707556 0.48877046 0.11696429
0.09875607 0.54338783 -0.119662404 0.41252595 -0.020743733 0.3806718 0.49032262 -0.26371577
0.55330545 0.30576825 0.2357215 -0.00980197 0.48706475 0.3293756 0.2667169 0.40236697
0.60113734 1.2877803 0.11155528 0.092468426 0.40072906 0.3733108 0.8774007 0.5625214
0.009287507 0.4476917 0.11349337 0.15862197 -0.11802694 -0.29439813 0.70484596 -0.09301835
0.63241935 0.24604546 0.37838975 0.47689146 -0.10458148 0.21733436 0.15925446 -0.31925097
0.75061804 0.3097275 0.26249042 -0.20165868 0.44840086 0.032834668 0.050857674 0.31029025
-0.1248453 -0.16837046 -0.2201626 -0.3100931 -0.010948042 0.21657562 0.3177742 -0.49220777
0.4020246 -0.38683617 0.2179994 0.003967576 -0.15440165 -0.40416244 0.16315266 0.5031159
0.4715115 -0.14535008 0.41667625 -0.29619616 -0.50407076 -0.50343156 -0.10385082 0.69770014
0.053698022 0.48783937 0.0050455136 -0.054912925 0.38667408 -0.48199382 0.7622949 0.04178849
-0.27850628 -0.34590602 0.19968964 0.079546966 -0.19161566 0.10008739 -0.06996063 -0.46952534
-0.03850676 -0.28990197 0.29523242 -0.33525467 0.07221228 -0.39337632 0.16968217 -0.009118517
-0.14188623 0.2462228 -0.06482176 -0.08984083 -0.33057436 0.14695786 0.15646394 0.53080624
-0.033318475 -0.20390818 0.5743413 0.023775263 -0.5281381 -0.04842512 -0.27726156 0.24566461
-0.29185292 0.2220082 -0.21402293 -0.12425713 0.12310868 -0.073506184 -0.16255154 -0.32666555
-0.42088455 0.26388586 0.313237 -0.16650611 0.091930605 0.14490992 -0.07302741 -0.21560013
0.18631594 -0.012789081 -0.16767319 -0.008011442 0.16703948 0.030595029 0.15033978 -0.09932464
0.59034675 0.088304825 0.13345914 0.09293996 0.072057754 -0.0549753 -0.06808098 -0.04264749
-0.114447646 -0.4145076 0.3812904 0.14268582 -0.098990805 0.11169635 0.15692516 0.0752992
0.011767133 -0.15226562 -0.31052572 0.29864678 0.010722685 0.2744929 0.43256637 0.023566265
-0.5533883 -0.028101906 -0.1046043 -0.1902983 -0.07000771 -0.14062272 0.18898888 -0.1828088
0.26043475 -0.05859198 -0.449782 0.09690273 0.121143505 -0.12962303 0.17502095 0.07840509
-0.25338003 0.17756389 0.18743286 0.23340894 -0.49177018 0.26273623 0.26440027 0.6989573
-0.42547792 0.79384965 0.7415425 1.1814382 0.03762424 0.5625516 0.52880716 -0.4274316
-0.33382168 0.47469372 0.4532734 0.7721043 0.44831476 0.3620181 0.47683194 0.6450389
-0.08164584 0.36259538 0.370613 0.043983866 0.026858706 0.19136676 0.073826306 0.9531693
0.3856694 -0.26479343 0.44766045 0.11564435 0.40922716 -0.099680364 1.186467 0.845534
0.18874906 0.40887776 -0.17214201 0.28620756 -0.24048404 0.6703066 -0.029946037 0.3190939
0.81431675 -0.1666177 0.33205023 -0.026291959 0.47524318 -0.24682452 -0.4092908 0.1463279
0.5439763 0.71473366 0.25951117 0.062514715 0.7964561 0.58298117 0.39970943 0.5538802
00000000: 8e0e 863e e23a 8abc 5a02 a13e 0cd2 0b3f
00000010: 410d 75bd 8319 ea3d 5b15 2b3e bfa2 7a3f
00000020: c259 a7bd 9baa 8f3e 7dc1 f03e e0be cb3e
00000030: d976 c43e a798 d23c 1f40 fa3e f98a ef3d
00000040: 9f40 ca3d 771b 0b3f 9011 f5bd 9a36 d33e
00000050: c3ee a9bc 6ae7 c23e 910b fb3e c105 87be
00000060: 6da5 0d3f a88d 9c3e fa60 713e 7198 20bc
00000070: 8d60 f93e eba3 a83e 1e8f 883e 0b03 ce3e
00000080: 23e4 193f fcd5 a43f 1877 e43d 1660 bd3d
00000090: 5c2c cd3e 9822 bf3e 559d 603f 6701 103f
000000a0: a12a 183c d937 e53e 366f e83d cc6d 223e
000000b0: 1cb8 f1bd 5abb 96be c970 343f 6880 bebd
000000c0: 3ce6 213f 57f3 7b3e 4dbc c13e 1e2b f43e
000000d0: d12e d6bd e68c 5e3e 9a13 233e dd74 a3be
000000e0: 8128 403f 9a94 9e3e 2565 863e 9d7f 4ebe
000000f0: cc94 e53e a57d 063d 2350 503d 5dde 9e3e
00000100: e5ae ffbd 4e69 2cbe 4e72 61be 86c4 9ebe
00000110: 6b5f 33bc 00c6 5d3e 4db3 a23e a802 fcbe
00000120: 2bd6 cd3e 640f c6be 3c3b 5f3e 7102 823b
00000130: 771b 1ebe 61ee cebe 7e11 273e 34cc 003f
00000140: f569 f13e a7d6 14be 9756 d53e 06a7 97be
00000150: c80a 01bf e4e0 00bf bdaf d4bd 7a9c 323f
00000160: 75f2 5b3d 15c6 f93e d654 a53b 60ec 60bd
00000170: 25fa c53e e5c7 f6be c225 433f 682a 2b3d
00000180: 6098 8ebe 981a b1be 717b 4c3e 85e9 a23d
00000190: e536 44be 9efa cc3d 8547 8fbd a065 f0be
000001a0: 44b9 1dbd 086e 94be b428 973e 80a6 abbe
000001b0: 08e4 933d 9f68 c9be 2ac1 2d3e d565 15bc
000001c0: a04a 11be d421 7c3e 45c1 84bd 78fe b7bd
000001d0: 0b41 a9be 1f7c 163e 1538 203e ebe2 073f
000001e0: f478 08bd 4ecd 50be 0808 133f 57c4 c23c
000001f0: 0f34 07bf 6b59 46bd 3af5 8dbe 818f 7b3e
00000200: bf6d 95be 1e56 633e d428 5bbe 867a febd
00000210: 6720 fc3d 698a 96bd e973 26be b540 a7be
00000220: 2e7e d7be 0c1c 873e 9a60 a03e 9480 2abe
00000230: 1d46 bc3d 4463 143e 658f 95bd 48c6 5cbe
00000240: 9bc9 3e3e 4b89 51bc 85b2 2bbe 6c42 03bc
00000250: 660c 2b3e 6da2 fa3c acf2 193e b86a cbbd
00000260: f720 173f 29d9 b43d 83a9 083e 4e57 be3d
00000270: 0493 933d c82d 61bd 0a6e 8bbd 22af 2ebd
00000280: 8763 eabd 573a d4be 7f38 c33e 3b1c 123e
00000290: b1bb cabd 0ec1 e43d fdb0 203e 7836 9a3d
000002a0: efca 403c 85eb 1bbe 3afd 9ebe 3be8 983e
000002b0: 33ae 2f3c 558a 8c3e 5779 dd3e 0a0e c13c
000002c0: dbaa 0dbf f835 e6bc c73a d6bd 8fdd 42be
000002d0: 3460 8fbd 67ff 0fbe 4d86 413e 3b32 3bbe
000002e0: b457 853e 25fe 6fbd d449 e6be f074 c63d
000002f0: 161a f83d e6bb 04be b138 333e d992 a03d
00000300: 07bb 81be 4fd3 353e 66ee 3f3e c102 6f3e
00000310: 4dc9 fbbe 5d85 863e 795f 873e deee 323f
00000320: 3ed8 d9be bb39 4b3f bbd5 3d3f 5e39 973f
00000330: e01b 1a3d 6203 103f e85f 073f 51d8 dabe
00000340: adea aabe 0e0b f33e 7313 e83e a1a8 453f
00000350: 8389 e53e 705a b93e 5123 f43e 4521 253f
00000360: ef35 a7bd 1aa6 b93e fdc0 bd3e 6d28 343d
00000370: ca06 dc3c a6f5 433e 3f32 973d e702 743f
00000380: 7676 c53e 0193 87be c033 e53e f2d6 ec3d
00000390: 3986 d13e 3825 ccbd 27de 973f eb74 583f
000003a0: 6f47 413e 6d58 d13e ff45 30be cc89 923e
000003b0: 7341 76be 3799 2b3f 6451 f5bc 4760 a33e
000003c0: 1077 503f d59d 2abe 7d02 aa3e 3c62 d7bc
000003d0: 1353 f33e 91bf 7cbe 908e d1be fbd6 153e
000003e0: 0842 0b3f c9f8 363f a6de 843e b707 803d
000003f0: 8ce4 4b3f 413e 153f b7a6 cc3e 18cb 0d3f
