model/epoch_2106.pth (torch, 247459 bytes, 10 tensors)

lstm.weight_ih_l0 f4 [256, 20]
1.4100404 4.8871727 0.6033374 1.7975236 -1.5232028 -0.36075547 -0.92576784 3.5280833
-0.33532426 -0.8155759 0.8190319 -0.6525546 -1.0128237 4.6676397 0.29273826 0.7762645
5.5176916 -0.5957448 -2.3810067 0.72213656 1.9334314 1.5449733 0.9840119 -0.25791693
0.22025235 2.4748082 -0.53075624 0.7207647 2.1851778 -0.6122642 -1.894682 1.6222681
-0.7004754 -1.8184519 -0.6807175 1.7421682 -1.7284182 0.552719 1.2223142 0.094022244
-0.017376535 -0.3380219 0.42199448 5.4204664 -2.7782664 0.27618352 2.08298 -0.08257444
-0.5006657 -0.04628854 -0.2564834 -0.062780984 -0.17195593 0.9106837 2.0757163 -0.58410186
1.0916312 0.6672917 -2.157903 3.4633565 1.7004031 0.9085683 1.275418 0.96496826
-0.46226943 1.4964716 -0.014128631 -0.22637832 -2.0537548 0.68983424 -0.5870521 0.8542146
-2.708469 0.8639157 -0.21154179 -0.51101804 1.3799583 0.70832646 -1.8883035 2.278353
4.3242292 0.40932968 -0.58773327 -4.321835 -0.33435664 -0.63680965 -1.4470267 -0.35590196
0.3489596 1.5139126 -3.7788339 0.012227267 -0.2639923 1.7563622 2.1372786 -0.08353253
2.4292212 -0.5114499 -1.5096862 1.2776731 -1.680583 1.651783 0.2454255 0.23922215
-2.1977623 0.1955151 1.8021375 1.9640863 1.1146562 -0.19818415 1.7644236 -1.1629081
-1.5888697 -1.1650293 0.15021592 2.9157534 -1.0876275 1.0503862 -2.1403823 -2.324041
0.78330517 -1.2915101 2.865787 1.9129126 2.5214894 -1.5371681 0.77917564 7.4438095
1.8406291 -2.496923 -0.2044141 0.35932726 -0.60091776 1.6156572 0.41217145 -0.5731766
2.4565578 -2.9997838 -0.5575498 2.128205 2.1721911 0.18080962 0.2153774 2.3361518
-1.3345608 1.8882301 0.6440016 0.70743185 0.3837449 0.6593865 -2.0747545 -1.0545359
1.4738709 -1.4768668 -1.9279977 0.5497455 1.0906415 4.230841 3.4536717 -0.10046307
-1.3641033 -1.3408988 -0.03341567 0.6226921 -0.016805122 -1.3632888 1.2381421 3.263219
0.12515348 -0.7355656 -0.3121606 4.3559566 3.5195954 0.03949044 0.24246469 -1.0311701
1.97404 5.9448724 1.9121468 -0.43199387 1.0504867 1.331211 -0.24886665 -0.17570816
1.763036 -1.7714525 -0.7243061 -2.0831058 1.9423999 -1.2833974 -2.128705 1.0066364
-0.5927154 1.0573769 1.0322345 0.33072603 1.0076185 0.38772404 -0.098303065 -0.31860268
-2.044975 0.40297183 -0.54347616 2.0443456 1.0736525 -1.7362577 0.1839847 3.4045534
-0.87222946 1.2176639 -0.30008462 0.5905893 -0.05761461 -1.0248392 1.5375473 1.2479686
11.499941 1.0117759 1.0220501 2.6420186 1.0289677 2.1871717 0.634837 -0.8331442
-1.0091234 0.09642073 0.73118854 8.099782 -0.36789086 -1.4854871 -1.7273489 1.6459622
-1.21161 -1.1633567 0.42254788 -0.624187 4.961661 0.14211817 0.2936261 4.865618
-0.4201277 1.3137448 2.2508495 3.4329798 3.0847192 1.214304 0.469786 -0.09224815
-0.8013514 0.6401615 3.9489262 0.5817462 2.2044353 -2.2927537 -0.57538897 -0.6161946
00000000: 347c b43f b863 9c40 5274 1a3f 4115 e63f
00000010: 4ff8 c2bf f1b4 b8be 1fff 6cbf 1ecc 6140
00000020: 9faf abbe 95c9 50bf 13ac 513f d10d 27bf
00000030: 35a4 81bf 4e5d 9540 cae1 953e 45b9 463f
00000040: ee90 b040 bb82 18bf 6a62 18c0 f1dd 383f
00000050: ae7a f73f afc1 c53f 34e8 7b3f b00d 84be
00000060: d589 613e 4263 1e40 a4df 07bf 0984 383f
00000070: f4d9 0b40 59bd 1cbf f184 f2bf 7ba6 cf3f
00000080: 5b52 33bf 08c3 e8bf 8143 2ebf 5eff de3f
00000090: cf3c ddbf fe7e 0d3f cb74 9c3f bc8e c03d
000000a0: 3c59 8ebc 3511 adbe a90f d83e 7674 ad40
000000b0: 1ecf 31c0 ed67 8d3e 8b4f 0540 ca1c a9bd
000000c0: a12b 00bf 0d99 3dbd cb51 83be 5193 80bd
000000d0: 3715 30be 9122 693f 89d8 0440 b387 15bf
000000e0: 92ba 8b3f a1d3 2a3f 151b 0ac0 a2a7 5d40
000000f0: cfa6 d93f ef97 683f e640 a33f 2908 773f
00000100: 94ae ecbe 628c bf3f c67b 67bc b8cf 67be
00000110: b870 03c0 fa98 303f 0c49 16bf cfad 5a3f
00000120: 8e57 2dc0 9429 5d3f 699e 58be 14d2 02bf
00000130: 79a2 b03f e254 353f eeb3 f1bf 89d0 1140
00000140: 1660 8a40 a993 d13e b075 16bf 794c 8ac0
00000150: cb30 abbe f505 23bf 2c38 b9bf c838 b6be
00000160: d5aa b23e e3c7 c13f 6ad8 71c0 e054 483c
00000170: 002a 87be 7ad0 e03f 2cc9 0840 1a13 abbd
00000180: 5c78 1b40 61ee 02bf 663d c1bf cb8a a33f
00000190: 581d d7bf a06d d33f d350 7b3e a7f6 743e
000001a0: 23a8 0cc0 1c35 483e 71ac e63f 2e67 fb3f
000001b0: 0ead 8e3f c9f0 4abe a2d8 e13f 2cda 94bf
000001c0: 1560 cbbf ae1f 95bf 34d2 193e b49b 3a40
000001d0: 6137 8bbf 0e73 863f 06fc 08c0 16bd 14c0
000001e0: b086 483f 3450 a5bf 0e69 3740 52da f43f
000001f0: 1560 2140 edc1 c4bf 0e78 473f b033 ee40
00000200: bc99 eb3f 96cd 1fc0 ee51 51be bef9 b73e
00000210: bfd5 19bf dbcd ce3f 2308 d33e b4bb 12bf
00000220: 3e38 1d40 75fc 3fc0 95bb 0ebf 8334 0840
00000230: 2e05 0b40 2826 393e e58b 5c3e 8383 1540
00000240: e3d2 aabf 86b1 f13f 4add 243f 411a 353f
00000250: 367a c43e 8ecd 283f c7c8 04c0 08fb 86bf
00000260: cda7 bc3f f909 bdbf a1c8 f6bf 1fbc 0c3f
00000270: 249a 8b3f 0d63 8740 f508 5d40 95bf cdbd
00000280: f09a aebf 92a2 abbf dfde 08bd c068 1f3f
00000290: e5aa 89bc 3f80 aebf 717b 9e3f 95d8 5040
000002a0: 3c28 003e 074e 3cbf 84d3 9fbe ff63 8b40
000002b0: 0d41 6140 bac0 213d aa48 783e 62fd 83bf
000002c0: 58ad fc3f 653c be40 3ac1 f43f 4d2e ddbe
000002d0: 5976 863f 1f65 aa3f e6d6 7ebe d7ec 33be
000002e0: 2aab e13f f5be e2bf 206c 39bf 9b51 05c0
000002f0: 8fa0 f83f 5e46 a4bf b43c 08c0 76d9 803f
00000300: 32bc 17bf 2058 873f 4320 843f ec54 a93e
00000310: a5f9 803f c483 c63e 1e53 c9bd e41f a3be
00000320: dfe0 02c0 5352 ce3e 4121 0bbf 8fd6 0240
00000330: 726d 893f b13d debf 7c66 3c3e 34e4 5940
00000340: 6e4a 5fbf 69dc 9b3f b1a4 99be dc30 173f
00000350: 4cfd 6bbd ee2d 83bf 5ace c43f 6fbd 9f3f
00000360: c2ff 3741 df81 813f 8ad2 823f d516 2940
00000370: 37b5 833f 9ffa 0b40 ad84 223f f048 55bf
00000380: f52a 81bf 3b78 c53d 2c2f 3b3f b598 0141
00000390: 315c bcbe 7124 bebf c519 ddbf e4ae d23f
000003a0: 0916 9bbf dfe8 94bf 3258 d83e b8ca 1fbf
000003b0: edc5 9e40 6d87 113e 2956 963e 25b3 9b40
000003c0: fa1a d7be ca28 a83f eb0d 1040 f1b5 5b40
000003d0: 0a6c 4540 506e 9b3f ca87 f03e 99ec bcbd
000003e0: 5e25 4dbf a0e1 233f 35bb 7c40 52ed 143f
000003f0: 7815 0d40 7abc 12c0 b14c 13bf eebe 1dbf

lstm.weight_hh_l0 f4 [256, 64]
0.124771334 -0.33706588 0.24245836 0.2767253 -0.71137714 0.696242 -0.8974845 -0.31627902
-0.08864622 -1.5740515 0.1243682 0.6183272 0.45312876 0.9117719 0.9840077 0.49182817
-0.25203195 0.5247377 -1.0037643 -0.30639756 1.5959371 0.9348269 -0.20560485 0.32689807
0.45491338 -0.19681188 -0.8081879 1.0274147 0.63302976 -0.21917029 -0.60081846 -0.16354544
-0.40904042 -0.5061958 0.05012352 -0.826242 -0.6261281 0.2738295 0.49417487 0.26470655
-0.13241413 0.0019223327 0.19978325 0.30520478 0.97767097 -0.40936568 0.3641657 0.002102642
-0.9625251 -0.63377947 0.53285664 0.36298072 -0.37349778 1.3475484 0.32736444 0.5535463
0.48558646 0.08358049 -0.57898 0.21755989 1.3275827 -0.36481047 -0.13443702 -0.4197174
-1.2702609 0.18323737 0.56299555 -0.7286268 -0.35317907 0.4316236 0.7317856 0.6444789
0.46489123 0.3736265 0.98241794 -0.0005302206 -0.19626628 -0.5349566 -0.7516305 0.3190735
1.2135772 -0.2849017 -0.030557506 0.34855506 0.92004514 0.9287329 -0.80976737 -0.15450084
-0.5579889 1.4127861 1.45857 -0.4837145 0.2318239 -0.8549449 -0.26253083 -0.3795795
-0.6084506 -0.36421686 -0.19956522 -0.0637489 0.9429864 -1.0807526 -0.12560701 0.94981915
1.1105739 0.0010224528 0.702857 0.9490221 0.7439893 1.0224007 -0.24895869 0.33224693
-0.57434535 -0.87475336 -0.2819472 0.20352925 -0.28900138 -0.7355158 -0.8543401 0.39081413
-0.15836577 0.21800317 0.19224966 0.7162399 0.06876412 0.38871583 -0.054391757 0.3699701
0.034506388 0.6952886 -0.37358946 -1.6641175 -1.3595572 0.10099704 -0.29911745 0.063658506
-0.03423848 0.22392602 -0.5881045 0.5593767 -0.21629813 -1.1920822 -0.4593391 -0.67877936
0.10016262 0.55396473 1.3005612 -0.24385852 1.1487887 -0.5525883 -0.6548321 -0.7505472
-1.1823152 1.411291 0.35445234 1.2863456 -0.55583245 -0.44901225 -0.4359565 -1.8194321
-0.3471932 0.5437281 -0.1288499 0.7073686 -0.003988569 -1.1820117 -0.06566505 -0.72568196
-0.38617846 0.42613378 1.1985662 -1.3916482 0.3187082 -2.0284407 0.007293588 -1.01333
-0.70319414 -0.5633809 -0.53270966 -1.320376 0.6046788 -0.31022185 -1.3322867 -0.03274909
-1.1769934 -2.3049116 0.5689679 0.8701184 0.55314666 -0.09540872 -0.73528063 0.26377162
-1.0811355 -0.2846776 -0.35125878 -1.4256396 0.089517824 0.044481892 0.43380937 0.33041728
0.26429716 1.0081469 0.4570727 -1.0074897 0.8067242 0.82222134 -0.108237565 0.75607467
1.6856629 -1.0131007 -0.34398305 0.46537742 0.95068955 0.30098206 0.34278387 -0.11544916
0.30500805 0.87760806 -0.7374984 -1.4974 0.31083092 -1.0527339 -0.26422858 -1.3526944
0.853451 0.45120382 -0.25299558 1.308117 0.51800674 -0.059560224 -0.67763764 0.5543836
1.3672873 -0.21283394 1.2708112 0.960573 -1.5211561 0.18776934 -0.12803966 0.32748002
0.18595342 0.46353632 0.3829628 -0.88813055 0.31112486 0.5532431 -0.078441925 0.16943954
-0.08019702 -0.89340925 -0.28297567 1.3165731 -0.4053047 -1.4865739 0.12085562 0.07300637
00000000: 1d88 ff3d e693 acbe 0147 783e f0ae 8d3e
00000010: d01c 36bf ea3c 323f 8bc1 65bf 53ef a1be
00000020: 268c b5bd 857a c9bf c1b4 fe3d b14a 1e3f
00000030: 7e00 e83e e269 693f eee7 7b3f e7d0 fb3e
00000040: 550a 81be 3655 063f 597b 80bf 24e0 9cbe
00000050: ab47 cc3f d150 6f3f 148a 52be 2f5f a73e
00000060: 68ea e83e 0e89 49be 67e5 4ebf 5382 833f
00000070: 3d0e 223f 2d6e 60be 3dcf 19bf 7578 27be
00000080: bf6d d1be 0c96 01bf 524e 4d3d 9984 53bf
00000090: ee49 20bf 6133 8c3e 7d04 fd3e 9e87 873e
000000a0: 9297 07be c8f6 fb3a fb93 4c3e cd43 9c3e
000000b0: a548 7a3f 6198 d1be ed73 ba3e 7bcc 093b
000000c0: 0c68 76bf 5f3f 22bf 4b69 083f 9cd8 b93e
000000d0: 1a3b bfbe 777c ac3f 509c a73e 36b5 0d3f
000000e0: ca9e f83e 3f2c ab3d 0938 14bf 05c8 5e3e
000000f0: 3bee a93f 70c8 babe dca9 09be 33e5 d6be
00000100: e997 a2bf 94a2 3b3e 7a20 103f 4987 3abf
00000110: e3d3 b4be c5fd dc3e 4d56 3b3f 92fc 243f
00000120: 3906 ee3e f94b bf3e be7f 7b3f 81fe 0aba
00000130: 07fa 48be eaf2 08bf db6a 40bf 9a5d a33e
00000140: 7f56 9b3f a3de 91be bc53 fabc cf75 b23e
00000150: 1488 6b3f 70c1 6d3f ea4c 4fbf 7835 1ebe
00000160: 5cd8 0ebf 2dd6 b43f 6cb2 ba3f 6da9 f7be
00000170: 3f63 6d3e abdd 5abf 716a 86be 3f58 c2be
00000180: 6bc3 1bbf a27a babe d35a 4cbe c98e 82bd
00000190: 8f67 713f 1a56 8abf 209f 00be 5927 733f
000001a0: 4927 8e3f d303 863a 70ee 333f 1df3 723f
000001b0: 1576 3e3f 07de 823f 07ef 7ebe 451c aa3e
000001c0: 4c08 13bf d6ef 5fbf 625b 90be f969 503e
000001d0: fdf7 93be c34a 3cbf 08b6 5abf ca18 c83e
000001e0: a32a 22be 393c 5f3e 18dd 443e 805b 373f
000001f0: 34d4 8c3d c305 c73e e4c9 5ebd b96c bd3e
00000200: 9256 0d3d 6ffe 313f 1e47 bfbe cd01 d5bf
00000210: f805 aebf 89d7 ce3d ec25 99be 645f 823d
00000220: a63d 0cbd dd4c 653e 048e 16bf 5033 0f3f
00000230: 427d 5dbe 2696 98bf 7f2e ebbe 7cc4 2dbf
00000240: 0f22 cd3d a2d0 0d3f ca78 a63f 0cb6 79be
00000250: 820b 933f 6d76 0dbf 14a3 27bf dc23 40bf
00000260: 1b56 97bf 2fa5 b43f c77a b53e f9a6 a43f
00000270: 094b 0ebf efe4 e5be b135 dfbe 27e3 e8bf
00000280: 4fc3 b1be c431 0b3f 3af1 03be 1c16 353f
00000290: 8bb2 82bb 294c 97bf 667b 86bd 4bc6 39bf
000002a0: 2fb9 c5be 352e da3e 9e6a 993f 8721 b2bf
000002b0: b92d a33e f9d1 01c0 0dff ee3b ccb4 81bf
000002c0: 8804 34bf bb39 10bf a95f 08bf 1502 a9bf
000002d0: 3bcc 1a3f 66d5 9ebe 5f88 aabf e923 06bd
000002e0: b8a7 96bf ac83 13c0 e1a7 113f 14c0 5e3f
000002f0: 059b 0d3f a665 c3bd 5a3b 3cbf 130d 873e
00000300: a662 8abf 43c1 91be 31d8 b3be 5c7b b6bf
00000310: 1f55 b73d a532 363d 431c de3e 742c a93e
00000320: f551 873e f50a 813f 6f05 ea3e 6cf5 80bf
00000330: 7a85 4e3f 197d 523f a8ab ddbd 1c8e 413f
00000340: cdc3 d73f 49ad 81bf 8c1e b0be f345 ee3e
00000350: 6460 733f 521a 9a3e 5e81 af3e 9c70 ecbd
00000360: 042a 9c3e ecaa 603f b2cc 3cbf ceaa bfbf
00000370: 3b25 9f3e fcbf 86bf f848 87be 1725 adbf
00000380: c47b 5a3f 3004 e73e a388 81be 6170 a73f
00000390: 179c 043f 6cf5 73bd a979 2dbf 15ec 0d3f
000003a0: 4503 af3f 24f1 59be f1a9 a23f 1de8 753f
000003b0: 3eb5 c2bf 9b46 403e d41c 03be 76ab a73e
000003c0: 936a 3e3e a254 ed3e b313 c43e 865c 63bf
000003d0: c24b 9f3e 57a1 0d3f 29a6 a0bd 8f81 2d3e
000003e0: 563e a4bd 78b6 64bf 30e2 90be 7885 a83f
000003f0: 1984 cfbe 0e48 bebf 2783 f73d 5d84 953d

lstm.bias_ih_l0 f4 [256]
-0.17870806 0.6296636 0.4318741 0.22215348 0.06995006 -0.22040147 0.3597969 0.31180063
0.31483045 0.27355528 0.72910786 0.3109005 0.15787418 0.13829026 0.43524367 1.0131178
0.0062998254 0.4078521 0.747878 0.46764606 0.55317205 0.5155045 1.2536159 1.0105463
0.5654175 0.23825487 0.8071681 0.73851883 0.44815317 0.6490487 0.24245384 -0.5076703
0.83795637 0.27278692 1.1783077 0.9363932 0.5195115 0.67385113 0.377957 0.66614306
0.35507053 0.14235577 0.63847715 0.23231016 0.044857472 0.23824379 0.44401503 -0.1768016
0.8978038 0.53858143 0.325854 0.73237866 0.7098921 0.62731266 0.43110746 -0.03365776
0.32903346 0.13535647 0.7263912 0.46845472 0.15119646 0.3150368 0.3083447 0.277697
0.5164094 -0.15569547 -0.5684362 0.37546498 0.23445745 0.09842672 0.26589987 0.5125376
0.0670498 0.07447988 -0.4339389 -0.20396976 0.38599882 -0.24197148 0.021714535 -0.021910843
-0.21657762 -0.20463948 0.95065504 0.24800952 0.54619646 0.4355104 -0.44033068 0.081692755
0.111035794 0.06996126 -0.088219695 -0.018919505 0.978542 -0.21950287 0.22566335 0.6857366
0.22014485 0.16546765 -0.07321481 -0.041501425 0.16375849 -0.44936994 0.45413435 -0.08507134
0.12940603 0.16700578 -0.0714098 -0.11287551 -0.2573472 -0.08536861 -0.674502 0.002378165
0.3715268 -0.5954474 0.5654098 0.23931845 0.13683923 -0.088310435 -0.2954758 0.32384056
0.2907867 0.12033689 -0.23852648 -0.09101089 0.28607717 -0.34828582 0.6095367 0.15016653
-0.31344524 -0.08957819 -0.0162181 -0.06874634 -0.07222422 -0.1558304 -0.037475426 -0.18736184
-0.07653428 -0.0009443247 -0.11408919 0.04248973 -0.2691695 -0.012842157 0.04996443 -0.047780268
-0.06193784 -0.1399154 -0.02444268 -0.014033852 0.07074365 -0.17202286 0.04255152 -0.18341218
-0.15930276 0.021837683 -0.13570304 0.1809191 0.25166515 -0.08258879 0.0079695145 -0.098587014
-0.051064152 0.06774441 0.122159295 -0.015687957 0.18424498 0.09178855 -0.08689506 -0.0045649693
-0.13304536 -0.13976917 -0.0815304 -0.03745268 0.14090832 -0.063787125 0.1175786 -0.12610544
-0.09567194 -0.10890684 0.008809641 -0.12769748 -0.0043765972 0.25201023 0.048550412 -0.13357548
-0.055078097 -0.017819121 0.01495923 0.07422286 -0.04364251 -0.14592099 -0.1954815 -0.24563295
-0.31874394 0.2158242 0.25574318 -0.0068407888 0.10224653 0.21613456 0.15041737 0.43377423
0.62153286 0.26800305 0.5001186 0.06795122 0.0049132695 0.44573173 0.48796716 0.82999766
0.39532682 -0.13968854 0.057663824 0.67719054 -0.20753032 0.13512115 0.6414905 0.13522702
0.8420498 0.09310822 0.569552 -0.032432 -0.06675444 0.42689434 0.1851621 0.54052997
0.30631813 0.5144874 0.43210235 0.6100338 0.36719015 0.57896966 0.505688 0.49795133
0.3817943 0.21726026 0.5386479 0.80261976 0.565495 0.555476 0.88004506 0.35767475
0.16122986 0.22753789 -0.15336895 0.13372144 0.61315304 0.34438577 1.043059 -0.14311056
0.35760435 -0.027551612 0.41516864 0.14988604 0.38088933 0.50683737 -0.18170664 -0.06927493
00000000: 3fff 36be a231 213f 9a1e dd3e 347c 633e
00000010: fa41 8f3d ecb0 61be 4d37 b83e 55a4 9f3e
00000020: 7531 a13e 700f 8c3e d0a6 3a3f 5a2e 9f3e
00000030: c5a9 213e f69b 0d3e 42d8 de3e d8ad 813f
00000040: c46e ce3b fed1 d03e ef74 3f3f 4e6f ef3e
00000050: af9c 0d3f 1af8 033f 7c76 a03f 9559 813f
00000060: 34bf 103f 16f9 733e 92a2 4e3f 920f 3d3f
00000070: 5574 e53e 0e28 263f d245 783e aef6 01bf
00000080: 4f84 563f baaa 8b3e c9d2 963f 77b7 6f3f
00000090: b5fe 043f 8281 2c3f 9483 c13e 5a88 2a3f
000000a0: cecb b53e b6c5 113e 3d73 233f b7e2 6d3e
000000b0: 78bc 373d 2ef6 733e f055 e33e 7b0b 35be
000000c0: 78d6 653f 79e0 093f 56d6 a63e 2b7d 3b3f
000000d0: 7dbb 353f 9097 203f 1eba dc3e b8dc 09bd
000000e0: 1377 a83e e39a 0a3e c6f4 393f 4cd9 ef3e
000000f0: 3fd3 1a3e 814c a13e 5bdf 9d3e 4d2e 8e3e
00000100: 6833 043f a26e 1fbe 0985 11bf f23c c03e
00000110: 9d15 703e f393 c93d 0724 883e aa35 033f
00000120: 6851 893d e888 983d 3d2d debe 73dd 50be
00000130: a3a1 c53e 5fc7 77be aee2 b13c 5e7e b3bc
00000140: 86c6 5dbe 038d 51be 215e 733f 35f6 7d3e
00000150: 88d3 0b3f 38fb de3e 0673 e1be 884e a73d
00000160: bc66 e33d d947 8f3d 87ac b4bd 14fd 9abc
00000170: ba81 7a3f 5cc5 60be 4b14 673e 6f8c 2f3f
00000180: a76d 613e 5a70 293e a5f1 95bd 66fd 29bd
00000190: 4eb0 273e d113 e6be 4c84 e83e e239 aebd
000001a0: 0483 043e 9003 2b3e 4d3f 92bd 462b e7bd
000001b0: 03c3 83be bdd5 aebd 2aac 2cbf fdda 1b3b
000001c0: c338 be3e 3e6f 18bf b2be 103f e50f 753e
000001d0: 951f 0c3e 1adc b4bd 9b48 97be 6ece a53e
000001e0: ffe1 943e 3073 f63d 4940 74be eb63 babd
000001f0: b578 923e 8552 b2be 990a 1c3f 41c5 193e
00000200: e57b a0be c574 b7bd d2db 84bc e2ca 8cbd
00000210: 4bea 93bd 0192 1fbe d57f 19bd c8db 3fbe
00000220: 01be 9cbd 8f8c 77ba 98a7 e9bd b609 2e3d
00000230: 96d0 89be e967 52bc 81a7 4c3d 3eb5 43bd
00000240: 88b2 7dbd fc45 0fbe 043c c8bc 3eee 65bc
00000250: 0ce2 903d c326 30be 814a 2e3d 67d0 3bbe
00000260: 4320 23be f1e4 b23c bdf5 0abe db42 393e
00000270: 41da 803e 5024 a9bd 9192 023c fde7 c9bd
00000280: a528 51bd 95bd 8a3d a72e fa3d 0884 80bc
00000290: b7aa 3c3e a3fb bb3d 0af6 b1bd bd95 95bb
000002a0: 0b3d 08be a61f 0fbe 69f9 a6bd fb67 19bd
000002b0: 454a 103e d3a2 82bd 0dcd f03d c921 01be
000002c0: a6ef c3bd 8d0a dfbd 5056 103c 21c3 02be
000002d0: 8f69 8fbb 7c07 813e ccdc 463d 03c8 08be
000002e0: 9299 61bd 68f9 91bc 8f17 753c 2802 983d
000002f0: 7dc2 32bd 506c 15be 4d2c 48be 3487 7bbe
00000300: 6832 a3be 0501 5d3e c5f0 823e b228 e0bb
00000310: a166 d13d 6152 5d3e 0307 1a3e a817 de3e
00000320: c71c 1f3f b237 893e c607 003f 022a 8b3d
00000330: 7eff a03b f336 e43e d5d6 f93e ba7a 543f
00000340: 4768 ca3e 830a 0fbe e730 6c3d 5c5c 2d3f
00000350: d482 54be 335d 0a3e b938 243f f478 0a3e
00000360: 9390 573f 86af be3d 29ce 113f 6bd7 04bd
00000370: 8db6 88bd e591 da3e 229b 3d3e 2c60 0a3f
00000380: bbd5 9c3e 72b5 033f 853c dd3e 2d2b 1c3f
00000390: 5900 bc3e 5b37 143f c574 013f 7af3 fe3e
000003a0: 8b7a c33e 7979 5e3e d4e4 093f 7d78 4d3f
000003b0: 48c4 103f ad33 0e3f a24a 613f 2521 b73e
000003c0: 7119 253e b1ff 683e c00c 1dbe 46ee 083e
000003d0: 99f7 1c3f 5553 b03e f582 853f 938b 12be
000003e0: eb17 b73e ebb3 e1bc fc90 d43e ba7b 193e
000003f0: ed03 c33e 18c0 013f 4e11 3abe 04e0 8dbd

lstm.bias_hh_l0 f4 [256]
-0.17186484 0.6703865 0.33731925 0.44805965 0.11174358 -0.34138247 0.4732755 0.10927746
0.30933908 0.13594453 0.8956577 0.42419207 0.08531708 0.06346226 0.47297117 1.0156848
0.053953808 0.36543325 0.8130064 0.5617126 0.57189286 0.4149785 1.3885486 0.9216301
0.65461004 0.1762389 0.83930665 0.74501073 0.5645891 0.6454869 0.42006463 -0.4368599
0.9032742 0.13270769 1.201279 0.71583104 0.4883906 0.81265956 0.34021717 0.5596212
0.3904544 0.14516494 0.5428258 0.08058235 -0.043329727 0.18354884 0.32452515 -0.0879891
0.930747 0.5971879 0.35098457 0.70043576 0.88746643 0.61158943 0.25061956 0.14034481
0.27452168 0.11168462 0.70469135 0.64291036 0.16921191 0.29460332 0.43752167 0.36317098
0.5360238 -0.15686664 -0.4788189 0.34093145 0.21895519 0.2587405 0.18971789 0.4874438
-0.02497657 0.11748751 -0.5052653 -0.2533852 0.38541737 -0.17034118 0.05004538 0.0204951
-0.1753787 -0.40741038 0.87135553 0.3467709 0.46401852 0.37600404 -0.3734464 0.07618978
0.08646632 0.18270771 -0.17592813 -0.028462933 0.82336295 -0.044637173 0.18259826 0.5962819
0.05954626 0.04779157 -0.10289531 -0.03211268 0.06519705 -0.42979208 0.4247865 0.077789225
-0.033841174 0.28660664 -0.22329807 0.024882236 -0.2740317 -0.2964588 -0.48633617 0.1060899
0.5633194 -0.7872155 0.62507564 0.32454494 -0.050913204 -0.043752085 -0.31621018 0.31497055
0.2864932 0.109021395 -0.12096276 0.066277236 0.14828154 -0.24916956 0.5633855 0.16792804
-0.116296954 0.14179298 -0.046974037 -0.14072077 -0.05823673 -0.08067599 0.042554602 -0.19899754
-0.08929007 -0.031379204 -0.15339372 0.01573446 -0.1738778 -0.06378157 0.042299666 0.07907195
-0.012789583 0.05701586 -0.0356922 0.017449459 0.13764735 -0.1827669 -0.05681947 -0.09602491
-0.116942376 0.12983283 -0.06666864 0.06571121 0.087102555 -0.08999465 -0.10199087 -0.092913546
0.105945416 0.098624125 0.012904902 -0.09003604 0.1756119 0.11246308 0.006798009 -0.1451967
-0.12943713 -0.07922991 -0.013818979 -0.16630518 0.11851379 -0.14435355 -0.062493265 0.0964273
-0.22760583 -0.010135026 -0.06296147 0.03531659 0.0032165458 0.022083936 -0.02846642 -0.14667165
-0.062350042 0.0179934 -0.08160093 0.12015357 -0.123245895 -0.019071521 -0.22406277 -0.34825376
-0.23319165 0.33723375 0.2121387 0.0071144844 0.09687143 0.23920226 0.1765119 0.31511295
0.54218775 0.16244818 0.566167 0.06421422 0.05639701 0.3648881 0.3794125 0.8513958
0.441515 -0.10960727 0.0036259433 0.5884251 -0.1385851 -0.07556363 0.47708395 0.16856816
0.78842896 0.012023356 0.45624307 0.051081687 0.1367748 0.41379988 0.17258914 0.47381127
0.37243852 0.29404184 0.35378316 0.5309772 0.36759475 0.81277454 0.38542825 0.48160666
0.37250805 0.24658872 0.5868823 0.75790876 0.6363548 0.4710799 0.80343086 0.20945708
0.18947788 0.1408174 -0.21689536 0.056152366 0.74372137 0.4629638 1.0036039 -0.21445158
0.32469225 -0.075641215 0.58386284 0.12706041 0.34784833 0.4460186 -0.14430818 -0.03605854
00000000: 56fd 2fbe 739e 2b3f 1cb5 ac3e 1368 e53e
00000010: d1d9 e43d afc9 aebe 2b51 f23e dccc df3d
00000020: b161 9e3e 0b35 0b3e d349 653f b42f d93e
00000030: b9ba ae3d 80f8 813d 4729 f23e f601 823f
00000040: abfe 5c3d 111a bb3e 3021 503f 66cc 0f3f
00000050: 9267 123f 1078 d43e f6bb b13f f3ef 6b3f
00000060: 8694 273f f877 343e cddc 563f 06b9 3e3f
00000070: e988 103f a13e 253f b612 d73e 1aac dfbe
00000080: fa3c 673f 86e4 073e 83c3 993f b440 373f
00000090: 550e fa3e 750a 503f f230 ae3e 5643 0f3f
000000a0: a4e9 c73e 1ea6 143e a2f6 0a3f 5c08 a53d
000000b0: 837a 31bd 3af4 3b3e 2928 a63e a133 b4bd
000000c0: 6f45 6e3f 4ee1 183f 40b4 b33e c24f 333f
000000d0: 0031 633f 2091 1c3f 3551 803e 8db6 0f3e
000000e0: 1b8e 8c3e e8ba e43d a766 343f c695 243f
000000f0: e345 2d3e 3fd6 963e d702 e03e 8cf1 b93e
00000100: db38 093f a6a1 20be c027 f5be 918e ae3e
00000110: ca35 603e a379 843e 6845 423e 3c92 f93e
00000120: aa9b ccbc 4b9d f03d 1159 01bf b4bb 81be
00000130: 6d55 c53e eb6d 2ebe 62fc 4c3d 57e5 a73c
00000140: 7996 33be 1898 d0be 2811 5f3f f58b b13e
00000150: d693 ed3e 9a83 c03e 5e34 bfbe 6309 9c3d
00000160: 4115 b13d bb17 3b3e 8126 34be 192b e9bc
00000170: eac7 523f 78d5 36bd 0afb 3a3e eea5 183f
00000180: c7e6 733d 18c1 433d c7ba d2bd 9688 03bd
00000190: 0886 853d b50d dcbe 9e7d d93e f54f 9f3d
000001a0: 0b9d 0abd 1bbe 923e 40a8 64be d5d5 cb3c
000001b0: e24d 8cbe 73c9 97be 0e01 f9be a945 d93d
000001c0: b335 103f f486 49bf f504 203f c12a a63e
000001d0: 5d8a 50bd 6335 33bd 4de6 a1be d243 a13e
000001e0: 3daf 923e 9c46 df3d 53bb f7bd 5cbc 873d
000001f0: 1ed7 173e 4e26 7fbe 083a 103f 54f5 2b3e
00000200: 192d eebd 2e32 113e d967 40bd 1b19 10be
00000210: a389 6ebd 7439 a5bd bc4d 2e3d 03c6 4bbe
00000220: b6dd b6bd 7b87 00bd 3e13 1dbe 8ee5 803c
00000230: 060d 32be e99f 82bd 6a42 2d3d 79f0 a13d
00000240: 668b 51bc 7689 693d fc31 12bd 2bf2 8e3c
00000250: 6df3 0c3e 3f27 3bbe 88bb 68bd b5a8 c4bd
00000260: 7c7f efbd e6f2 043e 9189 88bd 9993 863d
00000270: d362 b23d 1d4f b8bd 97e0 d0bd 7549 bebd
00000280: e9f9 d83d 72fb c93d 156f 533c d164 b8bd
00000290: 9bd3 333e 0b53 e63d d5c1 de3b 72ae 14be
000002a0: 2b8b 04be 4b43 a2bd 0069 62bc e84b 2abe
000002b0: 5cb7 f23d 6bd1 13be f0f8 7fbd ad7b c53d
000002c0: 8111 69be 610d 26bc f1f1 80bd 21a8 103d
000002d0: afcc 523b 5fe9 b43c 6932 e9bc 1831 16be
000002e0: c262 7fbd e566 933c 631e a7bd 1313 f63d
000002f0: 5868 fcbd e13b 9cbc b670 65be 514e b2be
00000300: cbc9 6ebe e7a9 ac3e e33a 593e 9f20 e93b
00000310: 8764 c63d 70f1 743e 89bf 343e 7c56 a13e
00000320: d1cc 0a3f d158 263e 52f0 103f bf82 833d
00000330: 8d00 673d 9dd2 ba3e 5b42 c23e 13f5 593f
00000340: 410e e23e c779 e0bd 3ca1 6d3b 07a3 163f
00000350: 41e9 0dbe 1bc1 9abd 5944 f43e 229d 2c3e
00000360: 7bd6 493f 9cfd 443c b198 e93e 083b 513d
00000370: b10e 0c3e 94dd d33e 35bb 303e 6497 f23e
00000380: 43b0 be3e a78c 963e 1123 b53e 1fee 073f
00000390: 6135 bc3e fe11 503f da56 c53e 2695 f63e
000003a0: 60b9 be3e c181 7c3e eb3d 163f 4f06 423f
000003b0: 26e8 223f 6231 f13e a5ad 4d3f eb7b 563e
000003c0: 7d06 423e 7032 103e d119 5ebe 0600 663d
000003d0: 8664 3e3f 9709 ed3e 1876 803f 3299 5bbe
000003e0: 103e a63e c8e9 9abd 0978 153f 201c 023e
000003f0: 2d19 b23e 8d5c e43e 86c5 13be 1fb2 13bd

lstm.weight_ih_l1 f4 [256, 64]
0.5116845 -0.34627956 -0.28442726 -0.01068861 0.052023564 0.12145554 0.13520882 -0.2851125
0.2755826 0.116796054 0.18117934 -0.32082134 -0.29777294 0.11318736 0.07128204 -0.02997615
-0.25543648 0.05892584 -0.08862958 -0.030172879 0.2575402 -0.24408238 0.08291751 0.42936003
0.056737293 0.08353524 -0.435919 -0.16116026 0.34552088 -0.20279092 0.13052088 0.03149061
-0.29376096 0.22939968 -0.08540636 0.14074169 0.106632255 0.109718725 0.11309377 -0.07518337
-0.52146715 -0.117640875 -0.15453161 0.010737346 0.33367455 -0.06625323 -0.13134728 -0.24499963
-0.15462299 -0.16794313 0.3856895 0.03984172 -0.17408653 0.0062048784 0.101237476 0.028502421
0.18192923 0.059404097 -0.07867743 -0.038747665 -0.226159 0.45943862 0.14365621 0.36801666
0.11562363 -0.31130573 0.39870578 0.37201127 0.3240058 0.29751152 -0.111448914 -0.17806703
-0.02831962 0.32222122 0.20676793 0.106369466 0.080173366 0.2932111 0.057612997 -0.22704138
0.17151701 -0.5507671 -0.6367238 0.13877313 0.13673495 -0.35449898 0.5172933 -0.24049437
-0.2959908 0.009428292 0.09960727 0.3408288 0.06713466 0.12957773 0.09575833 0.13806319
-0.79656786 -0.32115462 0.005324779 -0.22950143 -0.33937636 0.0476522 0.025242029 0.07461723
0.37055427 0.17974612 0.3204962 -0.6249966 -0.04873458 0.025796607 0.011906508 0.19429514
-0.30244184 -0.3551103 0.0717411 0.08455583 0.33327016 -0.23516782 0.26326662 0.007856835
-0.12457962 0.3323078 -0.5513859 0.40874133 -0.56369615 0.18213914 -0.16429907 0.04184472
-0.18850146 -0.025886403 0.16739042 -0.2111149 0.1679699 -0.33604893 0.28878197 -0.25248733
0.20984255 -0.3699728 -0.2385001 0.25635725 -0.19592252 -1.0896552 -0.4064018 -0.069313355
0.15148932 -0.36661696 -0.28347203 0.5546512 0.2755847 0.07722518 -0.27032772 -0.60944825
-0.8533817 0.1430876 0.75098586 0.04260399 0.32930526 -0.31125283 -0.08074959 -0.09433742
-0.080344014 0.28759873 -0.4995062 0.25286606 0.026228398 0.19009875 -0.3751915 -0.33706668
-0.70551443 -0.030968083 -0.06574678 0.26840028 0.2658562 -0.5251762 0.29652277 -0.23920922
-0.3658976 0.7355453 0.17862353 0.20129056 -0.6082934 0.054895718 0.1216365 0.119264774
0.0069558783 -0.22290485 0.9972866 -0.60396993 -0.8142268 -0.67340267 -0.7172433 -0.01668204
0.030024553 -0.07974457 -0.17001058 0.008126439 0.26519364 -0.13724177 0.083220854 -0.30949208
-0.058687046 0.053716164 -0.040229794 -0.023716634 -0.04498086 -0.4469919 0.07750117 -0.23048271
-0.0010282807 -0.2529765 0.060968447 0.092451714 0.10725908 0.07862451 -0.266133 0.208242
-0.042296477 -0.071395844 0.1642074 -0.030866653 -0.13628693 -0.02710245 0.015811063 0.001569353
0.07806255 -0.10772874 -0.07259882 0.19580925 0.09347747 -0.04745942 -0.118179135 -0.048696052
-0.028163837 -0.09453937 -0.1229043 -0.28606528 0.13884118 -0.039695133 0.19377124 0.064584345
-0.052632283 0.03304514 0.5403835 0.04348985 -0.10187619 -0.034479357 0.2610845 -0.24244317
-0.12383686 -0.43844855 0.17796187 -0.012001992 -0.081771344 -0.08197186 -0.14781828 -0.19366457
00000000: c1fd 023f 8e4b b1be 73a0 91be 481f 2fbc
00000010: a916 553d afbd f83d 2e74 0a3e 44fa 91be
00000020: 2a19 8d3e c532 ef3d 1487 393e b242 a4be
00000030: b275 98be c6ce e73d 51fc 913d 8b90 f5bc
00000040: 92c8 82be 395c 713d 6d83 b5bd 1d2d f7bc
00000050: 4fdc 833e bbf0 79be a8d0 a93d 14d5 db3e
00000060: 5d65 683d 8614 ab3d c630 dfbe 3207 25be
00000070: 1de8 b03e 6ca8 4fbe 44a7 053e 4cfc 003d
00000080: d667 96be c0e7 6a3e 88e9 aebd 971e 103e
00000090: 0362 da3d 36b4 e03d b59d e73d bdf9 99bd
000000a0: df7e 05bf b3ed f0bd 893d 1ebe b1eb 2f3c
000000b0: 64d7 aa3e c6af 87bd e77f 06be 2fe1 7abe
000000c0: 7d55 1ebe 49f9 2bbe 1879 c53e 1231 233d
000000d0: bd43 32be 4b52 cb3b 9855 cf3d e97d e93c
000000e0: a84b 3a3e b651 733d a221 a1bd dfb5 1ebd
000000f0: 3a96 67be 8a3b eb3e 9d1a 133e ae6c bc3e
00000100: 15cc ec3d 7763 9fbe 2a23 cc3e 4378 be3e
00000110: 17e4 a53e 6e53 983e 543f e4bd 3457 36be
00000120: 8cfe e7bc 2efa a43e f9ba 533e 3cd8 d93d
00000130: ef31 a43d c41f 963e 9bfb 6b3d 897d 68be
00000140: 28a2 2f3e 13ff 0cbf 5500 23bf 8b1a 0e3e
00000150: 3f04 0c3e e480 b5be 556d 043f 2844 76be
00000160: 1b8c 97be 1f79 1a3c e5fe cb3d 1d81 ae3e
00000170: e67d 893d 06b0 043e f11c c43d 7060 0d3e
00000180: dfeb 4bbf 616e a4be 7c7b ae3b 6c02 6bbe
00000190: bdc2 adbe f42e 433d 5fc8 ce3c ebd0 983d
000001a0: 4ab9 bd3e 5e0f 383e 1418 a43e c7ff 1fbf
000001b0: e99d 47bd 6853 d33c 8413 433c 4ef5 463e
000001c0: a8d9 9abe 04d1 b5be ffec 923d 9b2b ad3d
000001d0: 63a2 aa3e d5cf 70be e2ca 863e f4b9 003c
000001e0: 9a23 ffbd 3f24 aa3e a027 0dbf 8b46 d13e
000001f0: 644e 10bf af82 3a3e 043e 28be 5e65 2b3d
00000200: 8706 41be b90f d4bc 6568 2b3e 812e 58be
00000210: 4d00 2c3e 9b0e acbe 3bdb 933e 0546 81be
00000220: f7e0 563e 136d bdbe 5f39 74be 4241 833e
00000230: ea9f 48be d279 8bbf e613 d0be 29f4 8dbd
00000240: 0420 1b3e 38b5 bbbe 3f23 91be 9ffd 0d3f
00000250: 7019 8d3e 3c28 9e3d 6568 8abe cd04 1cbf
00000260: 3977 5abf 8e85 123e 9c40 403f 8581 2e3d
00000270: b39a a83e 885c 9fbe 0b60 a5bd fa33 c1bd
00000280: 678b a4bd 2440 933e 47bf ffbe a977 813e
00000290: f0dc d63c 3fa9 423e 1a19 c0be 0194 acbe
000002a0: 989c 34bf c7b0 fdbc 3fa6 86bd c36b 893e
000002b0: 4e1e 883e f371 06bf d5d1 973e 43f3 74be
000002c0: ee56 bbbe b24c 3c3f 16e9 363e 1d1f 4e3e
000002d0: 1eb9 1bbf 55da 603d 8f1c f93d 1741 f43d
000002e0: 23ee e33b 2b41 64be 2d4e 7f3f c69d 1abf
000002f0: 2b71 50bf 1e64 2cbf 429d 37bf c6a8 88bc
00000300: 0df6 f53c 1f51 a3bd 4117 2ebe c124 053c
00000310: 76c7 873e 1b89 0cbe b26f aa3d bf75 9ebe
00000320: d461 70bd 7b05 5c3d ffc7 24bd 6349 c2bc
00000330: da3d 38bd 1fdc e4be efb8 9e3d a903 6cbe
00000340: 60c7 86ba 2386 81be 0dba 793d 5357 bd3d
00000350: a6aa db3d e305 a13d 9642 88be 643d 553e
00000360: 123f 2dbd fc37 92bd fc25 283e 10dc fcbc
00000370: cd8e 0bbe f505 debc 3486 813c c0b2 cd3a
00000380: 42df 9f3d e3a0 dcbd b1ae 94bd 3882 483e
00000390: 1e71 bf3d cf64 42bd e707 f2bd 8375 47bd
000003a0: d9b7 e6bc db9d c1bd 40b5 fbbd 2677 92be
000003b0: 622c 0e3e 5d97 22bd f86b 463e cc44 843d
000003c0: f394 57bd 575a 073d 9356 0a3f 6a22 323d
000003d0: 77a4 d0bd 3a3a 0dbd deac 853e 0643 78be
000003e0: 2e9e fdbd 547c e0be a33b 363e 01a4 44bc
000003f0: bc77 a7bd dde0 a7bd ad5d 17be 0150 46be

lstm.weight_hh_l1 f4 [256, 64]
0.9180723 0.2393995 -0.28809184 -1.251689 1.592552 -0.84907705 0.077582024 -0.43170708
-0.06746426 0.701202 0.058712162 -0.0127442535 -0.27889314 -0.67002326 0.06291738 0.12666944
0.21772599 0.80956286 1.3782686 -0.55350053 0.05623194 0.22119807 -1.0976691 -0.5501086
-0.22676589 0.4507692 -0.010879742 -0.35215694 -0.903737 0.8418208 -0.02405644 -0.859522
0.9520161 -0.13561635 0.5202899 0.32716948 0.77115333 1.1939569 0.611026 -1.3475568
-0.093508296 0.3751953 -0.44476438 0.4124314 -0.58595264 -0.43684536 -0.5257714 -1.4527024
-0.45705003 0.27478066 0.7450354 0.34532967 -0.3440643 -0.4831192 -0.8310865 0.4290394
-0.2412802 -0.96102977 1.0563021 0.8637535 -0.473068 0.28670168 -0.65858287 0.1882772
0.28416342 -0.9141616 -0.25380784 1.00097 1.1735345 -1.4390523 0.5440675 -0.36923423
-0.22909082 0.028478876 0.18518059 0.18212546 1.0178747 0.06417259 0.5438138 -2.1419327
-1.0213354 0.16529186 -1.0081174 0.29635584 0.17478898 -0.7092779 0.36634263 1.2806879
0.84505284 0.36322397 0.19761372 0.38182384 -0.37794876 -0.10703583 -1.6975486 0.4036352
0.19609174 -0.23177132 1.7883887 -0.43459848 0.6268977 -1.3012992 0.36838225 0.011552921
-0.0015925615 0.80126023 0.8559906 0.7792123 0.32449132 0.24616238 0.4326322 -0.12167146
-0.29909712 1.1097547 0.04306681 0.64880484 0.49598587 -0.41099474 1.1202809 -1.0934353
0.4349092 0.74999154 -0.43220326 -2.010383 0.30241007 0.3774331 0.36996493 -0.9685832
2.2420313 0.99020267 -0.33959964 1.1586769 0.61722636 -0.36014962 0.82683986 1.1937635
1.2994415 0.77910244 0.56804633 -1.1190466 1.679472 -1.102645 -2.8195114 -1.0296423
-0.94417375 0.3354146 -0.21950102 -0.68514943 0.15922643 0.5372166 0.39110398 -1.121722
0.0011829924 -0.579485 0.29948133 1.2375703 -0.7171772 0.6010584 -1.1187072 -1.9127492
-0.05233791 -0.81791246 -1.1039461 -0.1531325 -0.19773613 -0.423434 -0.3360739 -0.23543419
-0.5645007 2.1183023 -1.0453604 -0.69124025 -1.1996658 1.2957796 0.3111707 0.09289336
0.7144795 -1.0173051 1.9127444 1.806441 0.7072937 0.3125191 1.944491 0.43004757
0.16077028 1.1534067 -0.09162251 1.4240487 -0.40077442 0.26982355 -0.50994223 -0.95840317
-0.75820154 -0.567085 0.1123673 1.3366191 -0.16092172 0.03162467 -1.137483 0.40359524
0.37858987 -0.24603269 -0.23049282 -0.6624155 0.5231501 0.3709274 -0.7334055 0.29365304
0.01061712 -0.4398033 0.119320825 0.06598297 0.033475593 0.10306226 -0.12649375 -0.8302351
0.30442593 -0.4556028 0.38561323 -0.6890719 0.30348498 0.15116562 -0.57517755 -0.40995914
-0.6086422 -0.05963235 -0.30175394 0.1601527 0.31571913 -0.235689 1.211722 -0.6550672
-0.24679407 -0.074135944 0.0439066 0.05435457 -0.11715502 0.1523397 0.05085606 -0.14153948
-0.11655332 0.22916825 -0.27130753 0.24648692 -0.32023776 -0.3944149 0.11092882 0.3156981
-0.022667494 0.679401 0.12250904 0.088844284 0.69475496 -0.07094796 -0.087681286 -0.26513648
00000000: c906 6b3f 2425 753e c680 93be 5837 a0bf
00000010: bed8 cb3f 1d5d 59bf 53e3 9e3d b608 ddbe
00000020: b42a 8abd f981 333f 2a7c 703d 46cd 50bc
00000030: 15cb 8ebe a586 2bbf d4da 803d a2b5 013e
00000040: 90f3 5e3e 833f 4f3f 1b6b b03f 36b2 0dbf
00000050: 7653 663d bf81 623e 6c80 8cbf ebd3 0cbf
00000060: 5135 68be 38cb e63e f240 32bc ea4d b4be
00000070: 4f5b 67bf 9181 573f 0312 c5bc a209 5cbf
00000080: 54b7 733f 03df 0abe b831 053f c282 a73e
00000090: 4e6a 453f 94d3 983f 336c 1c3f be7c acbf
000000a0: 4781 bfbd 9919 c03e 28b8 e3be 352a d33e
000000b0: fe00 16bf 32aa dfbe f498 06bf 27f2 b9bf
000000c0: 7602 eabe 0db0 8c3e a4ba 3e3f 0dcf b03e
000000d0: 3229 b0be 665b f7be 16c2 54bf 0dab db3e
000000e0: 2812 77be 0c06 76bf e834 873f f31e 5d3f
000000f0: f835 f2be 90ca 923e e398 28bf bdcb 403e
00000100: de7d 913e 7f06 6abf 1af3 81be c91f 803f
00000110: 6136 963f de32 b8bf 0248 0b3f 450c bdbe
00000120: c996 6abe 884c e93c fb9f 3d3e 197f 3a3e
00000130: b849 823f eb6c 833d 6237 0b3f 6d15 09c0
00000140: 1ebb 82bf 4542 293e fe09 81bf f4bb 973e
00000150: e2fb 323e 3d93 35bf 4391 bb3e 95ed a33f
00000160: 6255 583f 7ef8 b93e 405b 4a3e 6a7e c33e
00000170: 8082 c1be 9a35 dbbd 4649 d9bf 46a9 ce3e
00000180: 46cc 483e 7655 6dbe ece9 e43f b183 debe
00000190: 5e7c 203f f990 a6bf 999c bc3e 7648 3d3c
000001a0: 7fbd d0ba 641f 4d3f 3322 5b3f 757a 473f
000001b0: ba23 a63e fe11 7c3e f881 dd3e e32e f9bd
000001c0: 4223 99be 710c 8e3f d366 303d 1318 263f
000001d0: dcf1 fd3e e76d d2be 5d65 8f3f b0f5 8bbf
000001e0: 6bac de3e 72ff 3f3f bf49 ddbe 1daa 00c0
000001f0: 7ed5 9a3e e93e c13e 0b6c bd3e 12f5 77bf
00000200: 717d 0f40 ec7d 7d3f 01e0 adbe 864f 943f
00000210: 8c02 1e3f 8865 b8be c7ab 533f 3ecd 983f
00000220: 1954 a63f 4273 473f 7c6b 113f eb3c 8fbf
00000230: f0f8 d63f 7923 8dbf e072 34c0 52cb 83bf
00000240: 5fb5 71bf 76bb ab3e e0c4 60be f465 2fbf
00000250: 410c 233e 0787 093f c83e c83e 9694 8fbf
00000260: a30e 9b3a 2159 14bf 9e55 993e b468 9e3f
00000270: ed98 37bf f7de 193f cc31 8fbf f7d4 f4bf
00000280: 4760 56bd b662 51bf 1b4e 8dbf c4ce 1cbe
00000290: 577b 4abe 57cc d8be e111 acbe a915 71be
000002a0: 1e83 10bf 4492 0740 5fce 85bf 1ff5 30bf
000002b0: a68e 99bf 1bdc a53f c451 9f3e e03e be3d
000002c0: 21e8 363f 0e37 82bf cfd4 f43f 7539 e73f
000002d0: 3311 353f 8102 a03e 15e5 f83f 322f dc3e
000002e0: f7a0 243e d5a2 933f 95a4 bbbd 3a47 b63f
000002f0: 4e32 cdbe 5026 8a3e 938b 02bf e959 75bf
00000300: 7f19 42bf 7c2c 11bf d420 e63d 5616 ab3f
00000310: aac8 24be df88 013d 0b99 91bf 09a4 ce3e
00000320: 88d6 c13e feef 7bbe 4f06 6cbe 1094 29bf
00000330: 2aed 053f 32ea bd3e 76c0 3bbf b159 963e
00000340: 6ef3 2d3c e62d e1be 7a5e f43d 1422 873d
00000350: b41d 093d 4e12 d33d 9487 01be 4a8a 54bf
00000360: b7dd 9b3e c544 e9be 196f c53e 0467 30bf
00000370: 6262 9b3e 29cb 1a3e d63e 13bf 2ae6 d1be
00000380: facf 1bbf 0d41 74bd 7e7f 9abe 12ff 233e
00000390: f0a5 a13e 7558 71be b519 9b3f 7cb2 27bf
000003a0: 96b7 7cbe 96d4 97bd 68d7 333d e6a2 5e3d
000003b0: f9ee efbd f0fe 1b3e 724e 503d baef 10be
000003c0: 82b3 eebd 15ab 6a3e d2e8 8abe 1167 7c3e
000003d0: 34f6 a3be c0f0 c9be a62e e33d 2ea3 a13e
000003e0: 2eb1 b9bc 39ed 2d3f 05e6 fa3d fef3 b53d
000003f0: 76db 313f 2a4d 91bd 3f92 b3bd f8bf 87be

lstm.bias_ih_l1 f4 [256]
0.087728545 0.10065116 -0.90788794 -0.40266457 1.0404913 0.876399 1.4755713 0.50142646
0.57624215 -0.040149007 -0.097326696 0.15883547 0.00066053466 0.012459049 0.07084116 -0.46469647
-0.49014282 -0.38963315 0.48420298 -0.0058215484 0.4192604 -0.1241762 -0.13409838 0.004429885
-0.041246872 -0.35559982 0.4204575 -0.7450972 0.06721448 0.3764289 -0.25658798 -0.023711883
-0.65679514 -0.2252202 1.1311928 -1.0400598 0.41189405 -0.8331088 -0.18653135 -0.011190954
-0.30839851 0.36472636 -1.3567462 -0.21134456 0.28577772 0.76223093 -0.60835403 0.34784862
-0.15872225 -0.641061 -0.12146408 -0.39596102 0.8758062 0.4862105 -0.6041173 -0.17621881
1.4971 -0.70741975 -0.05095305 0.43417072 0.5643777 0.57779896 1.6468617 0.10565506
0.0163144 -0.09969443 -0.17143784 1.043377 -0.70609397 -0.09312705 0.5778797 0.18094751
-0.25187898 -0.36484906 -0.801669 0.18674348 -0.6478572 -0.5572997 0.017993858 1.0457968
-0.927441 -0.16774534 -1.4381461 -0.88765496 -0.04625185 -1.1381106 -0.3278856 -0.32292312
-0.69178176 0.24531434 -0.3435166 0.47876355 -0.44394195 -0.68926316 -0.103539266 1.1117316
0.43245962 -0.5118846 -0.33072326 -0.18449922 -0.29938236 -0.38897976 0.124879576 -1.0078024
-1.1204112 0.6719744 -0.47678867 -0.5652344 -0.7792819 0.2105155 0.048742507 -0.58182627
-0.7721083 -1.6769667 -0.25611913 -0.30853862 -0.29850772 0.41132188 0.6830241 -0.66806847
0.123605184 -0.30255508 -0.31898513 0.34897786 -0.3799182 -0.19435996 -0.46270436 0.40295884
0.71411926 -0.05116473 -0.2896484 0.13151185 -0.3319877 0.31893948 0.05846259 -0.40938836
-0.16915612 0.033985138 -0.2193348 -0.46813676 0.10136052 -0.014405638 -0.12129977 -0.2745969
0.11699709 0.35871527 -0.36159107 0.0049234033 -0.019778453 0.19854371 0.15772362 0.20631805
0.39742464 0.07463281 -0.21286061 0.18386802 0.21745647 0.24677129 0.24978735 -0.34600052
-0.11950118 0.1995485 0.0075227036 -0.21051933 -0.29886708 0.25948697 -0.062027663 -0.018858895
0.16664457 -0.006351012 -0.062445346 0.043703247 -0.29460052 -0.051550634 -0.56871194 0.3704787
0.03191978 0.20069459 0.15190054 0.07683086 0.26962072 -0.4757065 -0.020078463 0.10871375
-0.107862525 0.39175314 0.09183645 0.19019398 -0.18167725 -0.062040646 -0.4007509 0.17070039
-0.96466357 0.6120828 -0.25393945 0.016981678 -0.26408738 0.1732858 -0.61609936 -0.0286278
0.29439086 -0.304559 -0.49078208 -0.47054592 -0.23810644 0.44499573 0.07466469 -0.6611657
-0.32974935 0.22209369 1.396533 -0.28935814 0.14451574 0.7375725 -0.47313675 -1.090134
0.83041483 0.24297254 1.1118112 -0.7062535 0.20887612 0.23914282 -0.0868017 -0.44470662
0.11946486 0.5718696 -0.731438 -1.1629568 -0.36548376 0.09223441 -0.31895557 -0.6712477
0.03384778 -0.71754754 -0.16184625 0.21520647 -0.2617395 -0.15583704 0.43310097 -0.6437769
-0.8774715 -0.3743656 0.04053467 -0.2751365 -0.91305757 -0.009832081 -0.684171 0.25558257
0.45772728 0.9199437 -0.76018465 0.195816 0.011549905 0.6049861 0.94720274 -0.3749712
00000000: 06ab b33d 3222 ce3d 586b 68bf 0d2a cebe
00000010: d22e 853f af5b 603f 85df bc3f 7c5d 003f
00000020: 9b84 133f 4973 24bd 3853 c7bd c4a5 223e
00000030: bb27 2d3a 0a21 4c3c 2c15 913d b2ec edbe
00000040: 00f4 fabe ff7d c7be 74e9 f73e b0c2 bebb
00000050: 4da9 d63e 1750 febd 1651 09be 9228 913b
00000060: 7bf2 28bd 2e11 b6be 3546 d73e b1be 3ebf
00000070: bfa7 893d 4abb c03e 805f 83be 6c3f c2bc
00000080: ba23 28bf 20a0 66be edca 903f ae20 85bf
00000090: c7e3 d23e 9e46 55bf 1302 3fbe 435a 37bc
000000a0: 69e6 9dbe 6abd ba3e dca9 adbf b56a 58be
000000b0: 7551 923e 9121 433f 17bd 1bbf 3719 b23e
000000c0: 1688 22be 931c 24bf 29c2 f8bd 67bb cabe
000000d0: d634 603f 95f0 f83e 6ea7 1abf b472 34be
000000e0: f9a0 bf3f 7619 35bf 25b4 50bd a04b de3e
000000f0: 0f7b 103f a2ea 133f 5dcc d23f ae61 d83d
00000100: c7a5 853c 982c ccbd 678d 2fbe 618d 853f
00000110: 93c2 34bf 65b9 bebd edef 133f 4e4a 393e
00000120: 48f6 80be 7fcd babe 2e3a 4dbf af39 3f3e
00000130: f8d9 25bf 31ab 0ebf db67 933c abdc 853f
00000140: c66c 6dbf 6fc5 2bbe 2c15 b8bf 5b3d 63bf
00000150: 9472 3dbd 9cad 91bf 9fe0 a7be 2e56 a5be
00000160: 9c18 31bf af33 7b3e 68e1 afbe 7f20 f53e
00000170: 5c4c e3be 8d73 30bf 650c d4bd 394d 8e3f
00000180: 596b dd3e df0a 03bf 8f54 a9be 5ded 3cbe
00000190: a548 99be 5b28 c7be ddc0 ff3d abff 80bf
000001a0: a269 8fbf 8406 2c3f a51d f4be 34b3 10bf
000001b0: 057f 47bf 6091 573e 39a6 473d 91f2 14bf
000001c0: e4a8 45bf d8a6 d6bf 0c22 83be c6f8 9dbe
000001d0: 01d6 98be c898 d23e abda 2e3f 8906 2bbf
000001e0: b724 fd3d 80e8 9abe 0552 a3be 3aad b23e
000001f0: a384 c2be 4c06 47be 96e7 ecbe 9f50 ce3e
00000200: 85d0 363f 1c92 51bd cc4c 94be 0bab 063e
00000210: 4bfa a9be 094c a33e 7876 6f3d 5a9b d1be
00000220: 4337 2dbe 0034 0b3d 4d99 60be 9faf efbe
00000230: 1b96 cf3d a005 6cbc 046c f8bd f797 8cbe
00000240: 2c9c ef3d 87a9 b73e 7722 b9be 8054 a13b
00000250: 6c06 a2bc 0b4f 4b3e 4d82 213e 0a45 533e
00000260: 3e7b cb3e 16d9 983d 22f8 59be e647 3c3e
00000270: e9ac 5e3e 9db1 7c3e 41c8 7f3e fb26 b1be
00000280: 09bd f4bd 7156 4c3e 0381 f63b 6192 57be
00000290: 1b05 99be 7adb 843e b810 7ebd f87d 9abc
000002a0: e0a4 2a3e 261c d0bb b1c6 7fbd 2d02 333d
000002b0: e1d5 96be c226 53bd 1b97 11bf 62af bd3e
000002c0: 51be 023d e282 4d3e d18b 1b3e 7f59 9d3d
000002d0: ba0b 8a3e cd8f f3be 977b a4bc 51a5 de3d
000002e0: 07e7 dcbd de93 c83e c014 bc3d 36c2 423e
000002f0: 9a09 3abe 551e 7ebd 392f cdbe 15cc 2e3e
00000300: 31f4 76bf 75b1 1c3f 5a04 82be 291d 8b3c
00000310: 7636 87be d571 313e b0b8 1dbf d984 eabc
00000320: 66ba 963e 28ef 9bbe ca47 fbbe 65eb f0be
00000330: 2dd2 73be 7bd6 e33e cde9 983d 2842 29bf
00000340: e8d4 a8be 876c 633e 98c1 b23f c026 94be
00000350: effb 133e 8dd1 3c3f fb3e f2be 8389 8bbf
00000360: 1196 543f cbcd 783e d44f 8e3f 08cd 34bf
00000370: 9fe3 553e dbe1 743e 17c5 b1bd 96b0 e3be
00000380: fea9 f43d 0c66 123f 853f 3bbf c5db 94bf
00000390: b020 bbbe 65e5 bc3d 254e a3be e4d6 2bbf
000003a0: f8a3 0a3d 32b1 37bf 06bb 25be 165f 5c3e
000003b0: b802 86be bf93 1fbe 69bf dd3e 90ce 24bf
000003c0: f9a1 60bf d9ac bfbe af07 263d b1de 8cbe
000003d0: 24be 69bf bd16 21bc d525 2fbf b8db 823e
000003e0: 3b5b ea3e 6e81 6b3f 769b 42bf fd83 483e
000003f0: d03b 3d3c 5ee0 1a3f e17b 723f 3afc bfbe

lstm.bias_hh_l1 f4 [256]
0.062259868 0.12496733 -0.7060081 -0.42992094 0.94990367 0.87925625 1.2928301 0.2704814
0.572442 -0.1692055 -0.024973057 0.10904638 -0.022963434 0.027558811 -0.05419703 -0.5253381
-0.3035324 -0.29746747 0.3502696 -0.0028782343 0.34745476 -0.13914937 -0.07970259 0.103637144
0.11651085 -0.47112617 0.3908352 -0.580346 0.12849505 0.2861196 -0.33445194 -0.10662919
-0.47715357 -0.10105452 1.1585393 -0.96122736 0.4547704 -0.9872331 -0.30822155 -0.08322733
-0.30340806 0.55956125 -1.4445838 -0.048827752 0.40321812 0.82504493 -0.5011923 0.43731558
-0.12963858 -0.6464539 -0.03625488 -0.4936382 0.818852 0.4846032 -0.7574072 0.03690442
1.4795252 -0.66133314 0.040606454 0.35546216 0.5393614 0.5872562 1.5764759 0.1924536
0.11192351 -0.31608176 -0.19643965 0.90141356 -0.62120104 -0.01677404 0.5392266 0.2651658
-0.23028658 -0.33405563 -0.8671095 0.16018061 -0.6055354 -0.4954998 0.24247701 1.1271771
-0.8933249 -0.28248897 -1.30129 -0.8398039 -0.064064555 -1.1119897 -0.3041765 -0.33099535
-0.8184513 0.35318026 -0.2592637 0.51689476 -0.43195906 -0.6599761 -0.18234286 1.1095489
0.5706844 -0.606292 -0.31762877 -0.26229474 -0.14405091 -0.47348273 0.02171445 -1.062138
-1.1559064 0.6339641 -0.51849717 -0.6595069 -0.77628845 0.14737543 0.22856224 -0.6893621
-0.76730573 -1.7630025 -0.22952422 -0.3745089 -0.27680042 0.21071295 0.74997187 -0.61884105
0.09086357 -0.4186302 -0.19006178 0.5065265 -0.41388512 -0.13708444 -0.4087721 0.52168155
0.71614057 -0.15239075 -0.2711861 0.114204586 -0.30151385 0.19321845 0.076582775 -0.40201148
-0.087290056 -0.0504093 -0.1139767 -0.49546987 0.12786004 -0.019665567 -0.13600576 -0.14674361
0.14581884 0.27013406 -0.39903483 -0.16804929 -0.11403015 0.15081406 0.10586058 0.08662713
0.2572228 0.07037456 -0.14159462 0.17291188 0.115574494 0.33250615 0.22691865 -0.39699852
0.008557486 0.38360733 -0.04070735 -0.020522319 -0.15953636 0.23472543 -0.1327627 0.035465337
0.12754065 0.026893945 -0.07962647 0.104822636 -0.3005835 0.027511403 -0.64315563 0.4257372
-0.03281982 0.20164141 0.104514666 0.25832152 0.23501289 -0.42498973 -0.03643331 0.29050952
-0.101431586 0.42348233 0.1268146 0.17193516 -0.13147523 -0.12297268 -0.26409024 0.051817417
-0.87137586 0.60263777 -0.187332 -0.18531674 -0.38628817 0.06323704 -0.604709 -0.09164788
0.1693879 -0.18364953 -0.42019963 -0.34401718 -0.28369683 0.5377937 0.0331242 -0.7194179
-0.26160997 0.14114295 1.3439006 -0.16754596 0.08699664 0.8651621 -0.49328604 -0.9607481
0.7104991 0.26391402 1.3042171 -0.6619661 0.19315615 0.23443341 0.00695505 -0.23468396
0.29179126 0.5104984 -0.60762703 -1.0706979 -0.44091153 0.17513557 -0.22695382 -0.6143193
0.105715774 -0.6189674 -0.30665118 0.07067388 -0.1096968 -0.13489364 0.43761063 -0.50087047
-0.95277673 -0.25987732 -0.16726595 -0.27259132 -0.7167083 -0.1299031 -0.71156466 0.21924686
0.6614082 0.74958944 -0.6819586 0.07345705 -0.124765605 0.44646806 0.7092447 -0.25838238
00000000: 3404 7f3d dfee ff3d f2bc 34bf 991e dcbe
00000010: e32c 733f f016 613f 757b a53f 8a7c 8a3e
00000020: 8f8b 123f 3544 2dbe 4c94 ccbc b553 df3d
00000030: d01d bcbc 04c3 e13c b4fd 5dbd 8f7c 06bf
00000040: 9968 9bbe a84d 98be 8956 b33e c2a0 3cbb
00000050: 97e5 b13e 2c7d 0ebe 1d3b a3bd b63f d43d
00000060: 3e9d ee3d 7337 f1be 8d1b c83e 8e91 14bf
00000070: 3594 033e 457e 923e 493d abbe 6860 dabd
00000080: 794d f4be acf5 cebd 044b 943f ff12 76bf
00000090: aad7 e83e 4fbb 7cbf 37cf 9dbe 1773 aabd
000000a0: 4d58 9bbe 683f 0f3f 1fe8 b8bf 9cff 47bd
000000b0: 9b72 ce3e 2536 533f 234e 00bf d4e7 df3e
000000c0: fabf 04be 017e 25bf ff7f 14bd 25be fcbe
000000d0: 49a0 513f e91d f83e 70e5 41bf 1729 173d
000000e0: 1561 bd3f 214d 29bf f452 263d 23ff b53e
000000f0: 9713 0a3f 6c56 163f f6c9 c93f 8e12 453e
00000100: 2738 e53d 78d5 a1be 7a27 49be 0ac3 663f
00000110: 0807 1fbf b669 89bc c10a 0a3f d0c3 873e
00000120: 3fd0 6bbe 5709 abbe e3fa 5dbf 6306 243e
00000130: 5e04 1bbf 26b2 fdbe e54b 783e 5747 903f
00000140: f1b0 64bf 65a2 90be ac90 a6bf 63fd 56bf
00000150: 4734 83bd ae55 8ebf 06bd 9bbe 3978 a9be
00000160: 0686 51bf 0bd4 b43e 36be 84be 3753 043f
00000170: bd29 ddbe 32f4 28bf 16b8 3abe b305 8e3f
00000180: 5f18 123f f435 1bbf 3da0 a2be 7f4b 86be
00000190: 1582 13be 546c f2be 81e2 b13c 23f4 87bf
000001a0: bef4 93bf 794b 223f 3bbc 04bf 72d5 28bf
000001b0: d7ba 46bf 96e9 163e 380c 6a3e 097a 30bf
000001c0: 266e 44bf 11aa e1bf 6608 6bbe a1bf bfbe
000001d0: c9b8 8dbe 23c5 573e 28fe 3f3f 5e6c 1ebf
000001e0: ae16 ba3d b356 d6be 8e9f 42be b9ab 013f
000001f0: c0e8 d3be dd5f 0cbe 944a d1be ec8c 053f
00000200: fd54 373f 520c 1cbe e8d8 8abe 18e4 e93d
00000210: 0660 9abe 0fdb 453e 6ed7 9c3d 73d4 cdbe
00000220: 21c5 b2bd fb79 4ebd 9e6c e9bd 3aae fdbe
00000230: beed 023e af19 a1bc 1845 0bbe f543 16be
00000240: 8951 153e 034f 8a3e 4b4e ccbe 1d15 2cbe
00000250: a488 e9bd 006f 1a3e 6fcd d83d 9169 b13d
00000260: b5b2 833e 8a20 903d 2efe 10be d00f 313e
00000270: 52b2 ec3d 3f3e aa3e 5d5d 683e 6443 cbbe
00000280: b334 0c3c 2e68 c43e c0bc 26bd 6c1e a8bc
00000290: 805d 23be dd5b 703e f2f2 07be 1a44 113d
000002a0: 049a 023e b150 dc3c 3413 a3bd 40ad d63d
000002b0: 15e6 99be 985f e13c d9a5 24bf 3afa d93e
000002c0: 136e 06bd 167b 4e3e c90b d63d b842 843e
000002d0: 38a7 703e 4198 d9be 183b 15bd aabd 943e
000002e0: 5dbb cfbd add2 d83e b0db 013e c50f 303e
000002f0: 71a1 06be 1ad9 fbbd d636 87be 803e 543d
00000300: 7d12 5fbf 7846 1a3f f6d3 3fbe acc3 3dbe
00000310: 90c7 c5be 6c82 813d 36ce 1abf e2b1 bbbd
00000320: 0674 2d3e 9f0e 3cbe 6824 d7be 0523 b0be
00000330: b640 91be d9ac 093f 3ead 073d c62b 38bf
00000340: bef1 85be c787 103e ef04 ac3f 2b91 2bbe
00000350: 4b2b b23d 437b 5d3f fd8f fcbe 96f3 75bf
00000360: 45e3 353f bd1f 873e 96f0 a63f 9c76 29bf
00000370: baca 453e 500f 703e 30e7 e33b fe50 70be
00000380: aa65 953e 06b0 023f 728d 1bbf a10c 89bf
00000390: 28bf e1be bd56 333e 9566 68be 0844 1dbf
000003a0: 8381 d83d a674 1ebf 6201 9dbe 78bd 903d
000003b0: b7a8 e0bd 8f21 0abe 800e e03e 0c39 00bf
000003c0: 2de9 73bf a40e 85be c447 2bbe 1791 8bbe
000003d0: 327a 37bf 5105 05be 1a29 36bf 4082 603e
000003e0: 0c52 293f 18e5 3f3f d794 2ebf a670 963d
000003f0: 1c85 ffbd 7697 e43e 1091 353f b24a 84be
