model/epoch_1053.pth (torch, 237987 bytes, 10 tensors)

lstm.weight_ih_l0 f4 [256, 20]
00000000: 5df3 9f3e a9af 1ebe 3dc0 db3f 22c0 1c3e
00000010: f666 8abf 8f29 aabf 7964 0d40 2d8f ac3f
00000020: 7fda b73f 0544 a0bd 9d2a 1e3e e915 7dbf
00000030: 62f4 933f d491 f5bd 480e 4d3d 548c 44be
00000040: 5770 e2bf b0bb d83e 421f 4abe e4d3 9ebf
00000050: ff91 16bf 6106 ecbf 78e4 783f 30cb 9040
00000060: c2bd b23f a05c 82bf 9dc2 99bd f870 ebbf
00000070: c4f7 7c3f b043 b03f 23ff 0fbe ffca 21be
00000080: 1c70 543e 0e10 b63f daf1 eabd 5cf6 0540
00000090: 7336 64be 63d8 b2be 5dc5 04bf e162 bc3d
000000a0: ae0d 9a40 4ea3 933f 28c2 613f 28c6 0fbd
000000b0: 1b9d dbbe 69f3 c23e 96a9 fe3e 5bcc ad3e
000000c0: 2a94 8fbe 47e2 7dbd 2c10 833f 28b0 103f
000000d0: 176c 14c0 3f8e 33bf a48a 4ebe 0ce7 8d3e
000000e0: 0e23 06c0 2fc8 843f 5f14 033f e90f 0c3e
000000f0: 2c3b 96bf a8e3 933e 5b96 623f b84c 92be
00000100: 0b54 e63d ed5e 613f 2854 1740 2193 ed3f
00000110: be35 e83f e3a0 323f 2a61 86bf 6659 4b3b
00000120: 8b97 c3bf 8ab4 66bf 5c9e 19bf 81ad b9bf
00000130: 3c4f e03b a959 0940 8e2c 8e3f dc89 9b3c
00000140: 13cd 57bf 646c 13bf d630 343f acde e23f
00000150: 591b ca3e 9866 e03f bb8d 16bf 1f63 423f
00000160: 463b 71bf f263 ab3f 5fb8 c9be 4d21 e83f
00000170: 3006 2cc0 9b6e 8cbf c8e7 193f 87f5 fdbe
00000180: 7abe febf 47ef 0440 e474 10c0 ba84 be3e
00000190: ce92 f73f 7bfe 74bf b7dc c43f 31d0 03be
000001a0: a155 0ac0 feb7 083f 41e2 ae3e 92cc b53f
000001b0: bdff 43bf 97d2 98bd f234 e93e 2d8f 08be
000001c0: 31cf f33f 7710 c740 4980 a6bd ef48 3f3f
000001d0: 0411 1040 219c 44bf 17ec a83f e72a 57be
000001e0: 25be 053e 1c5f f03f dc03 e63e 936d fe3e
000001f0: 2e73 333f 7ba9 2440 b65b 33bd 7525 1c40
00000200: 2715 003f 6340 55be ae2e 0540 95d9 c1be
00000210: ebe1 c6be f829 d4bf 1f2a 063f abed 14c0
00000220: 47b8 7d3f 7005 313f 3f5c 3abf 1440 3abf
00000230: 04dc 2cbf 7d04 2b3f 9886 0440 58b2 06bf
00000240: 9974 d43f e9eb fb3b bd1e d7be d582 0740
00000250: 14c0 643f 079e 03bf 1f58 2f3f 23c2 813f
00000260: 11f4 9bbe c217 e1bf 8754 863e 4412 36c0
00000270: e2c4 023d b77f ddbe f403 82bf f684 80be
00000280: ceec 153f f9f2 05c0 1a07 c23e 1435 cd3f
00000290: bc48 a43f c68d 903f c0e5 8c3f 4120 64bf
000002a0: fa1e 343f 4648 dbbe fdaa 3640 3d34 8dbd
000002b0: 9d5a 803e 7085 063f 09e5 a9be b3ef 84bf
000002c0: 5ccd 743f b9bf b73f 5ee8 e8bf 98d6 ae3f
000002d0: 185b 44bf 8c87 1240 5d5e 853c 7349 8cbf
000002e0: 970c 943f d5f2 d63f 8cb3 38bd 02cd 363f
000002f0: f1a4 84bf 34ab ee3f c39e 41c0 dfc8 823f
00000300: d923 47bf b5d5 0340 3984 263f 01a1 ce40
00000310: a922 ce3e 04a0 5840 3cfc 6bbf 797b f8be
00000320: 6906 cabf 5462 98bf b812 1ebf 5885 2e40
00000330: 5947 583f 5c70 193d 8d0f 873e 4ca5 c3bf
00000340: 9142 eabd 2400 0040 069e b13f 6d4a 053f
00000350: 2a0c 20bf 2b31 54be 3e83 09be aba0 243c
00000360: 2a24 ac3f 7cb6 8bbe b41c 8dbe 2941 a2bf
00000370: d3d5 203f 7fac d03f 0d2c 7ebf 4e98 03c0
00000380: 7adf b8bf dc05 94bf 3c81 51bf 3a6d 6040
00000390: 255d dc3e d21e bc3c b43b 9abe 3cde 163f
000003a0: 0d4f cf3d 7547 2bbe e7b0 bc3e e121 d8be
000003b0: 80f4 3840 8dbb 01bf 423d 503e e786 9bbe
000003c0: add5 543e 38a7 233f 7800 043f c17e 7f3e
000003d0: f513 4440 b714 d03e 170a 0940 c31c 1c3f
000003e0: 16dd bcbf f084 093f 371b cbbf 5811 edbf
000003f0: 1adb 2740 b33d bdbf 217e 933f 9191 51be
0.3124036 -0.15496697 1.7168041 0.15307668 -1.0812671 -1.3293933 2.2092574 1.3481194
1.4363555 -0.07825474 0.15445943 -0.9886156 1.1558955 -0.11990705 0.050062448 -0.19194156
-1.7690533 0.42330694 -0.19738486 -1.2408414 -0.5881652 -1.8439447 0.97223616 4.524803
1.396416 -1.0184517 -0.07507823 -1.839385 0.9881556 1.3770657 -0.1406217 -0.15800093
0.20745891 1.422365 -0.11471911 2.0931616 -0.22286396 -0.34930715 -0.5186365 0.09198547
4.81417 1.1534212 0.88186884 -0.035101086 -0.428933 0.38076332 0.4973876 0.33944973
-0.28042728 -0.061983373 1.023931 0.56518793 -2.3190973 -0.70138925 -0.20170075 0.27715337
-2.0958896 1.0373591 0.5120296 0.13677944 -1.1736808 0.28884625 0.88510674 -0.28574157
0.11246499 0.8803547 2.3645115 1.8560525 1.8141401 0.69776744 -1.0498402 0.0031028627
-1.5280622 -0.9011923 -0.6000726 -1.4506074 0.006845383 2.1460974 1.1107347 0.018986635
-0.84297293 -0.57587266 0.7038702 1.7724204 0.3947399 1.7531309 -0.58810014 0.75932497
-0.9423107 1.3389876 -0.39398476 1.8135163 -2.6878777 -1.0971254 0.60119295 -0.49601385
-1.9901879 2.0771043 -2.2571344 0.37210637 1.9341676 -0.95700806 1.5379857 -0.12872387
-2.1614764 0.5340575 0.34156993 1.4203055 -0.765621 -0.07462042 0.45548207 -0.13335867
1.9047605 6.22076 -0.08129937 0.7472066 2.2510386 -0.76800734 1.3197049 -0.2101246
0.13060816 1.8779025 0.4492482 0.49692973 0.70097625 2.5728443 -0.043788634 2.4397862
0.50032276 -0.20825343 2.080974 -0.37861314 -0.38844237 -1.6575308 0.5240802 -2.327006
0.9910931 0.6914892 -0.72797006 -0.72754025 -0.6752322 0.66803724 2.070715 -0.5261588
1.6598083 0.007688035 -0.4201564 2.1173604 0.8935559 -0.51413006 0.6849384 1.0137371
-0.30459645 -1.7585375 0.26236364 -2.8448648 0.031926043 -0.432615 -1.0157456 -0.2510144
0.5856446 -2.0929549 0.37896043 1.6031823 1.2834697 1.1293266 1.1007614 -0.89111716
0.70359766 -0.42828578 2.8541863 -0.06894729 0.25069132 0.5254736 -0.33182552 -1.038565
0.95625854 1.4355384 -1.8195913 1.3659239 -0.767015 2.2895231 0.016280347 -1.0959915
1.1566342 1.6792856 -0.045093104 0.7140657 -1.0362836 1.8645997 -3.025315 1.0217551
-0.77789074 2.0599186 0.65045506 6.457154 0.4026082 3.3847666 -0.92181754 -0.48531702
-1.5783206 -1.1905007 -0.6174731 2.7268887 0.8448387 0.03746067 0.26379052 -1.528482
-0.11438478 2.0000086 1.387635 0.5206669 -0.6251856 -0.20721881 -0.13428971 0.010048072
1.3448536 -0.27287662 -0.2756096 -1.2676135 0.6282627 1.6302642 -0.99285966 -2.056171
-1.44432 -1.1564288 -0.8183782 3.5066667 0.43039814 0.022963915 -0.30123675 0.5893285
0.101224996 -0.16726477 0.36853716 -0.42213348 2.889923 -0.50676805 0.20335868 -0.3037636
0.20784636 0.6392703 0.51563215 0.24950697 3.063718 0.40640804 2.1412408 0.60981387
-1.475497 0.5371847 -1.586768 -1.8520918 2.622748 -1.4784454 1.1522866 -0.20465685

lstm.weight_hh_l0 f4 [256, 64]
00000000: 403a 83bf daa5 1abf 8d80 8bbd 2cf4 41bf
00000010: c72c e7be fc59 1140 7674 84be 8da7 d13d
00000020: 97d4 92be 160a 8a3f ad7b 09bf 7431 2b3f
00000030: 1dfa 95be 12c5 f43e b2c7 ea3d 43a8 613e
00000040: 8420 483f 70dd 0cbe b230 fe3e ee49 ffbe
00000050: 8f71 643e eb0b 66be 3ca4 9d3d 0b63 6b3e
00000060: 1085 743e d6fa b73e a93c cebe 564d 53be
00000070: 1a29 9f3e 777f 27bf f5a9 11bf c9a6 91bd
00000080: 8c19 363f c051 963f d932 17be 868e df3e
00000090: e740 023f 3845 74bf cc51 3abe afc2 b33e
000000a0: 4af2 83bf ca6a 4bbf 2f88 a5bd ab69 4d3f
000000b0: 98a7 973f 6b74 223f 8774 173f e464 043f
000000c0: 6870 3b3d 5175 5e3e 28f3 b6be 714f e23e
000000d0: 8f23 0d3f ef0a 8f3b 8387 9bbe dcd8 2fbf
000000e0: 8c41 37bf 8d06 b1be f8b1 a03f 9b84 51be
000000f0: 13cc 43be 6e50 493f 61ef 7e3e b835 1abe
00000100: 96df b83e 4b3b 8bbe cb14 34be 9f76 d9be
00000110: 9c99 3f3f 303b 873f dcfa 103e b94f 873f
00000120: 3b42 abbe dbe1 68bf e2d0 dfbd 482e 5abe
00000130: d90a 0dbc 8c09 15bf f9ce 43bf c51a 843f
00000140: 5697 2a3d bc81 a2be 5f55 133e af28 fd3d
00000150: edf8 c43e 8bab bb3e 1dbb 263f 2d27 f9bc
00000160: 88b1 613d c15c b83e 8d16 573f 19be 1ebe
00000170: fcc2 963f 46b0 363f 79f5 3a3f ba4b b93e
00000180: 0c88 e9bd 152f adbe 8524 84bd e9a9 703e
00000190: 94ed d9be 089b 383f ab69 7fbe 8cfe b6be
000001a0: c6d8 0abf 4058 1b3e 28de 80bf 50f0 96bf
000001b0: d379 ff3e b7b9 70be c94e e0be 12c4 453f
000001c0: b4a8 82be 34d8 6e3f 532e 91bd b7c3 63bf
000001d0: 5f3c 333f 51ac 6fbf a89d 08bf 48ce afbe
000001e0: 9724 0e3f ca4d 67bc b380 63be 6051 d5be
000001f0: aca6 45bf 0abb 8b3f 6c5c 19be e678 29be
00000200: 186e e13d 732a 9b3e 6e1f 9ebf 7cb1 a5be
00000210: e415 9fbe 23f6 973f 45a5 8ebe 0a8c 1abf
00000220: 2198 4dbf 2446 bbbb aeb5 56bf 3239 f33d
00000230: ba5a 0d3e 6e26 783e 4b96 2abe 38a8 613f
00000240: 746d 44be fb10 1ebe 2164 373e de5b 17be
00000250: f8c1 583f 2371 c63d ed65 ee3e b90a adbe
00000260: eea9 7f3e c42b 64be 2621 eabd 06be 863e
00000270: 71b7 4ebf 6e67 2b3f 6bc8 623d 71e4 883f
00000280: 7d8c 123f adeb a23e b00f a73e a222 07bf
00000290: 4e55 b2be c8cb 1d3f 1037 37bd 8355 99be
000002a0: e0a3 373f a5ee 823e 820d 4abc 21e2 16bf
000002b0: 1fbf b03d 7793 6abf 8205 3e3d aec0 9f3f
000002c0: 38da ce3e 297c 68be 379d 00bf 5ad6 023f
000002d0: 4146 18bf 477a 5a3e b0a0 2f3f 11ae adbe
000002e0: 1e93 4c3f e321 8ebf 0c5b 483f 459f 34bf
000002f0: dc80 88be ecde 4c3e 6a78 87be 0837 54be
00000300: 2fe2 30bf 8928 47bf 206b bcbe 3c96 5fbf
00000310: f7c8 24bf efcf 383f 333a a43f 83e1 ae3d
00000320: 5d5d a93e f674 ce3f 5b5a 12bf 155d 0140
00000330: bcef 153f 9392 e5bf 270c 483e c387 da3e
00000340: 10cd ad3e f73d e4bf 5af1 b3be fc80 e4be
00000350: d1d3 733f ecfa f0ba 938f 40be 9721 71be
00000360: f75e 62bf 42f1 3d3f af93 73be 9f23 853e
00000370: e6d7 603f 0c9e 5bbb a6c6 133f 353f 8e3f
00000380: fe18 143f 9bcb 593e 99cd fd3e 167d 77bf
00000390: a567 0abf 9192 983e 7702 5abf 4ea4 35bd
000003a0: ff5a 193f b4d8 5e3e 6056 6cbf 243b 2a3c
000003b0: 5bbf 913f fa29 c2be 385e a7bf da19 64be
000003c0: 1c78 963e 0ad1 0cbf 6dd8 44be 6fc6 dbbd
000003d0: 8d6e bb3e 227c 70bd 96d4 843f 7c9b dfbe
000003e0: c89a aebe 7f95 9dbe c7ce f23e 4fd2 75be
000003f0: 9527 b0be d3d6 cf3f 0caa d03e f672 2fbe
-1.0252151 -0.6040932 -0.068116285 -0.757632 -0.4515135 2.2711172 -0.25870103 0.10237036
-0.28677818 1.0784328 -0.5370434 0.66872334 -0.29292384 0.47806603 0.1146387 0.22036843
0.78174615 -0.13756347 0.49646527 -0.4986109 0.22308944 -0.22465484 0.07697341 0.22987
0.23878884 0.3593356 -0.40280655 -0.2063497 0.31086046 -0.6542887 -0.5689996 -0.0711189
0.7113273 1.1743698 -0.1476549 0.43663424 0.50880283 -0.9541812 -0.18195266 0.3510947
-1.0308316 -0.7945982 -0.080826156 0.8023936 1.184802 0.6345889 0.5916218 0.51716447
0.045761496 0.2172444 -0.35732388 0.44201234 0.55132383 0.004365317 -0.30376825 -0.68690276
-0.7158439 -0.3457531 1.2554312 -0.20460741 -0.19120817 0.7863835 0.24896003 -0.15059555
0.36108083 -0.27193674 -0.17586057 -0.42473313 0.74843764 1.0564938 0.14158195 1.0571204
-0.33448967 -0.9096963 -0.10928513 -0.21306717 -0.008608543 -0.5821769 -0.7648769 1.032067
0.04164823 -0.31739604 0.14388035 0.123612754 0.38471165 0.36654314 0.6512926 -0.030414188
0.055100948 0.36008266 0.84018785 -0.15502204 1.1778255 0.7136272 0.7303081 0.36190587
-0.11402902 -0.33824983 -0.06452278 0.23502316 -0.4256407 0.7211156 -0.24942653 -0.3574108
-0.5423702 0.15170383 -1.0067797 -1.1792088 0.49897632 -0.23508345 -0.43810108 0.77252305
-0.25519335 0.9329865 -0.07088914 -0.8897051 0.70013994 -0.9362231 -0.53365564 -0.34337068
0.5552458 -0.014117667 -0.22217064 -0.41663647 -0.77207446 1.0916455 -0.14976662 -0.16550025
0.11007327 0.30305824 -1.2353342 -0.32361972 -0.3107139 1.187199 -0.27860466 -0.6036993
-0.80310255 -0.0057151485 -0.8387097 0.118761435 0.1380414 0.2423341 -0.16658895 0.88147306
-0.19182378 -0.15436165 0.1790929 -0.14781138 0.8467097 0.09689548 0.46562138 -0.33797243
0.24967167 -0.2228232 -0.11432104 0.2631685 -0.8074866 0.66954696 0.055366915 1.0694715
0.5724562 0.3182043 0.32629156 -0.5278722 -0.34830707 0.6163907 -0.044730246 -0.29948053
0.7173443 0.25572696 -0.012332322 -0.58938795 0.086302035 -0.91631263 0.04639197 1.2480676
0.40400863 -0.22703613 -0.5023989 0.51108325 -0.594822 0.21335708 0.68604565 -0.33921865
0.79911983 -1.1104091 0.78263927 -0.70555526 -0.26660812 0.20006913 -0.26459056 -0.20724118
-0.6909513 -0.77796227 -0.3680048 -0.87338614 -0.6436915 0.7219228 1.2830261 0.08539107
0.33079043 1.6129444 -0.5716912 2.0213063 0.5856893 -1.7935356 0.19535886 0.42681703
0.33945513 -1.783141 -0.35145074 -0.44629657 0.9524508 -0.0018385327 -0.18804769 -0.2354797
-0.88426155 0.74196255 -0.23786806 0.2600374 0.87829435 -0.0033510951 0.5772499 1.1113039
0.57850635 0.21269076 0.4957092 -0.9667524 -0.540644 0.2979932 -0.8516001 -0.044346146
0.59904474 0.21762353 -0.923193 0.010390077 1.1386522 -0.3792265 -1.3075628 -0.22275487
0.2938851 -0.5500647 -0.19223185 -0.107312076 0.3660778 -0.058712132 1.0377376 -0.43673313
-0.34102464 -0.3077812 0.47423384 -0.24006008 -0.344052 1.6237434 0.40754735 -0.17133698

lstm.bias_ih_l0 f4 [256]
00000000: 1b74 e93e 85a8 763e bd1e 113e 3f7f 093f
00000010: 5521 b43d 922c 853e e375 e53e b2a8 ddbd
00000020: 7259 8b3e e450 4e3f c261 c93c 3d16 403d
00000030: 573c 5c3f 0053 4abe d21f c03e 5fc5 5a3d
00000040: bcce b13e fc77 0c3f 4afd 2a3e a25d b53d
00000050: 852e d83e 5ef0 b23e 382e b93e a038 4d3f
00000060: e7ca 6f3f 8190 8d3f 752e 28be fa80 a83e
00000070: 90a2 7c3f ab26 293e d1cb 953e 73bb 3a3f
00000080: 9225 6b3e 9c99 1d3f 57a5 4e3f 136c 283f
00000090: edc2 633f 480d 04bf da99 1a3f ec12 c9bd
000000a0: 8b2e fd3e 7e0f 543f 16e1 373f 6520 463f
000000b0: d95b d93e 83e8 413f 2307 7d3e afa2 103f
000000c0: 47c1 0f3f 64ec e73e bb92 463f 2c7e 953e
000000d0: fa44 1e3f caa8 253f 1069 b23e 1d8c 673f
000000e0: 35cf 0e3f d7dd 8c3f 12cb 0e3f 4e99 0b3f
000000f0: 4cfc 493e a5f2 083f 579f 243d 38a1 08bd
00000100: 008c 313d 9804 353f 7c92 473e a3ff b93e
00000110: 5a1d 853e 3239 ae3e 63b7 e13e b21c 4a3f
00000120: 6731 bcbd ccd9 4c3e 48bb b53e 8cd9 003f
00000130: 4f74 3f3e 2e7c c13d 3ab1 523e 1d43 c33e
00000140: 8cef a13d 069b 863e 7f21 b13e 7587 87bc
00000150: 9641 2d3f a2db f53e ab47 803d c5bd 1abf
00000160: 864e 5b3e 7ab6 fd3d eea6 523e 1fe4 e7bc
00000170: 5e47 44bd 9734 ab3e 9351 d03b d4b0 c63b
00000180: 07b3 463e 96d4 813d d7b5 113e dc41 28be
00000190: 6529 1f3e 273a 0b3f 5ffd 8e3e 3a33 c73e
000001a0: 04b4 293e 8c6a 91bb 6b50 363e aa57 b83e
000001b0: 36fc 263e 8254 463e c8cd ad3e 41fe 953d
000001c0: 7b11 113f 814d bcbd 223b 34bf cbbd db3c
000001d0: e699 3c3e 7ada 553e 2890 f33d d951 c13d
000001e0: ce8b bf3d 96a4 b5be e82b 3abd a567 f3bc
000001f0: 71b5 ad3d 136a 32bd 676d d23e d7e7 053f
00000200: 670b f8bd e0a2 323e 79c1 10be 6a96 3fbc
00000210: c7be 6d3b 6f30 7ebd 780a d53c beb9 b83d
00000220: 4c3b 7d3d ef9a e23c c512 2e3d 3bdc 2dbb
00000230: 63bc b9bd 2315 153e 45e6 1c3d 68b7 1f3e
00000240: 1600 f33d e5ea 56be 9fa4 f0bd b5b2 043d
00000250: 7e79 7b3d 26b3 a73d 3a0a 36ba 1085 91bd
00000260: 76c2 b7bd acce 853b 2d34 2a3e 625d 55bd
00000270: 536f 8d3c eb92 eabd 377f dbbb 12e9 0cbe
00000280: 78e5 adbc 5f8f 40bd 3446 8a3d 7ce5 783c
00000290: c904 d13d 7908 a9bd a365 11bd 66f9 603c
000002a0: a1c9 133d 2819 03bd bba1 63bd 38ed 10be
000002b0: 623f b23d 9f76 a0bd 4538 ef3d e199 4c3c
000002c0: def6 84be 1325 ddbd 07f0 793d d846 f8bd
000002d0: 82fc ff3d a9f9 23bd 6b8f f03d e170 2cbe
000002e0: 2caa cb3d 8b4a 02bd 1a70 f43d 0358 993d
000002f0: baf5 9b3c dd24 1abd 4105 81bd 44d6 b13d
00000300: 8779 aa3e b476 b83e 0db3 163e f198 283e
00000310: 9055 4bbd 5c24 b93a a44a d83e 1cb7 bebd
00000320: 9ffc 1f3f 0d80 223f c996 153e 07e1 1fbe
00000330: 15ed 0d3f a2e9 8abc 5e51 293f 711c d9bd
00000340: 4fb1 443f d295 b23d 255e 813b e075 223e
00000350: 8fba 423e 7658 803e 9c84 133f 0218 363f
00000360: 7bca 103f 7ad4 993e caec 2a3c 0286 3a3f
00000370: 456f c83e b20d 733e 3319 853e 6b03 6c3f
00000380: 9739 ec3d bbd8 073f 5479 5d3f 8c52 393f
00000390: 022d 0d3f 6aa9 dc3d d23a ce3c 55a4 91bd
000003a0: 1e96 be3e 325b 523f 5ac2 373f fbb8 703e
000003b0: ef74 363f d57d 1c3f 5131 343e 1795 733e
000003c0: d24b c2bd 52c7 da3e 2049 b23f 5ce0 aa3e
000003d0: a298 683e 4323 163f 679a 12bd a81d 013f
000003e0: 9e75 043f 2cfd b13e 93d0 343f 0337 043f
000003f0: 91d6 e83e 6651 983e 8381 fe3d 6970 ab3c
0.45596394 0.24087723 0.14171882 0.5370979 0.0879542 0.26010567 0.44816503 -0.10823192
0.2721668 0.8059218 0.024582747 0.046896208 0.8602957 -0.19758224 0.37524277 0.053410884
0.34728038 0.5487058 0.16698185 0.0885575 0.42222992 0.3494901 0.36168075 0.8016453
0.9366898 1.1059724 -0.16423972 0.329109 0.9868555 0.16518657 0.29257062 0.72942275
0.2296355 0.61562514 0.8072104 0.6578991 0.8896931 -0.51582766 0.6039101 -0.09818062
0.49449572 0.8283614 0.7182783 0.7739318 0.42452887 0.7574541 0.24709754 0.56498235
0.5615429 0.4529754 0.7756764 0.29197824 0.61824 0.64710677 0.3484578 0.9044817
0.5578492 1.10052 0.5577861 0.545308 0.1972515 0.53495246 0.04019102 -0.033356875
0.043346405 0.70710135 0.19489473 0.36327848 0.25998956 0.34028012 0.44085225 0.78950036
-0.0918911 0.20004958 0.35494447 0.5033195 0.18696712 0.094475135 0.20575419 0.3813714
0.07907018 0.26290148 0.34595868 -0.016544083 0.676782 0.4801913 0.062636696 -0.60445815
0.21416673 0.1238832 0.20571491 -0.028307019 -0.047919624 0.3343856 0.0063573807 0.00606356
0.19404231 0.06339376 0.14229523 -0.16431373 0.15543135 0.5438561 0.27927682 0.3890627
0.16572577 -0.00443775 0.17804115 0.36004382 0.16307148 0.19368175 0.3394606 0.07323886
0.566673 -0.0919447 -0.7040273 0.026823899 0.18418083 0.20884123 0.1189273 0.09439439
0.093528375 -0.35477132 -0.04545203 -0.029712508 0.08481873 -0.04355819 0.41099092 0.52306885
-0.1211155 0.17444944 -0.14136304 -0.011693576 0.0036277042 -0.06205791 0.026005968 0.090198025
0.061824128 0.027661769 0.04249837 -0.0026528973 -0.09069135 0.14558844 0.03830554 0.15597308
0.11865251 -0.20988043 -0.11750149 0.03239699 0.06139516 0.08188467 -0.0006944273 -0.07105458
-0.08972637 0.004083475 0.16621466 -0.05209101 0.017264998 -0.11453804 -0.006698515 -0.13760784
-0.021227583 -0.04701173 0.067516714 0.015191432 0.10205991 -0.08253569 -0.03549732 0.013731336
0.03608096 -0.032006413 -0.05557416 -0.14152992 0.087034956 -0.07835125 0.116806544 0.012487859
-0.25969595 -0.10798087 0.061019924 -0.121228874 0.12499334 -0.040033016 0.11746105 -0.16839935
0.09944567 -0.03180937 0.11935444 0.0748749 0.01903807 -0.03763281 -0.0629983 0.08683446
0.33295843 0.36028063 0.1471674 0.16464593 -0.049642146 0.0014125216 0.42244446 -0.09312269
0.62494844 0.6347664 0.14608301 -0.15613185 0.55439883 -0.016957108 0.6613978 -0.10601128
0.7683305 0.08719982 0.0039479905 0.15865278 0.19016479 0.2506749 0.5762422 0.71130383
0.5655896 0.3004492 0.0104324315 0.7286073 0.39147392 0.23735693 0.25995788 0.92192715
0.11534422 0.5306508 0.8651326 0.7239158 0.551468 0.10774501 0.025174532 -0.07111422
0.37223905 0.82170403 0.7178093 0.23508064 0.71272177 0.61129504 0.17596938 0.23787342
-0.09487118 0.42730194 1.3928566 0.33374298 0.22714475 0.58647555 -0.03579178 0.50435877
0.5174197 0.34763467 0.7063076 0.5164644 0.454762 0.29749602 0.12427046 0.020927625

lstm.bias_hh_l0 f4 [256]
00000000: 9de5 843e d569 893e bc83 333e c781 333f
00000010: 8711 313e 91e2 173e 46b6 233f 8160 4abd
00000020: c139 2e3e fb65 2c3f 8b82 d2bc ebd7 bc3d
00000030: 8e49 393f a9ce 95be 9dc8 b13e 235c 5c3d
00000040: 8c74 bf3e b343 023f 2e8d 433e 09b9 fe3d
00000050: caf3 f73e 8500 853e b198 573e 61b7 3c3f
00000060: 483b 613f b044 933f 6e06 2bbe 5d41 c03e
00000070: a3ea 673f ff7c 873e 6c7f 613e 9080 243f
00000080: 74cd 4e3e 8c5e 243f b73b 3b3f bf1b 143f
00000090: 0fec 513f 858f a9be 42cc 203f d5f0 de3d
000000a0: bbf2 053f 7363 3d3f 68bc 553f 1738 453f
000000b0: 4d75 213f a25d 213f 2d8d 663e c92c 0b3f
000000c0: 2bc6 153f 7fb0 1d3f 0068 2f3f cbc5 d43e
000000d0: ea3f 413f 28e9 463f 8103 ed3e fa75 503f
000000e0: bb96 1c3f 324c 883f 178d 003f 82aa c03e
000000f0: 5dd5 a43e 80ef e83e b3a0 173e 1083 683b
00000100: e8ce 94bc 553d 413f 3362 443e c10c 9a3e
00000110: 7f30 a53e a726 313e ad8c da3e fd0f 503f
00000120: 83fc 2f3d 6e45 263e 3c2b a83e 2c4d 973e
00000130: 92e6 dc3d 9bb1 d23d f6af 503e 0d3a 923e
00000140: 2c55 ca3c 3ddd be3d a320 983e 11cd cbbd
00000150: 5e9c 2d3f 76e5 e33e dfc7 4a3e 10d8 43bf
00000160: 4deb 223e 7123 2a3d 8cfd 703e 6387 45bd
00000170: 92fb 87be 0957 ed3d 2c90 2b3e 0528 acbd
00000180: 3fc4 9b3e 5707 bcbd 7f30 0fbc 7f1d 25be
00000190: ffbb 093e 3e7a 1b3f 5534 7b3e 534b e53e
000001a0: f360 1b3e d364 08bc e013 9e3d 15cc b53e
000001b0: 95db 963e 3812 053e e5b0 9d3e 05c5 933d
000001c0: e9c8 f43e ae9c ba3d b3e2 3abf cb12 773e
000001d0: 580b f63d b440 febb 8c9a 3a3e e7bc 033d
000001e0: e183 003e 428e c5be cffa 093e 8ae5 57bd
000001f0: a349 83bd beb3 e3bd ef23 dd3e 5323 073f
00000200: 013c 1a3b 5c46 4b3d b0df dc3c 22f1 503b
00000210: 2001 e83c 6f24 d9bd e721 02bc 951e e13d
00000220: 3b1d 66bc 7715 b8bd 9923 d93d 13b7 b73d
00000230: 149b 933d f5b1 50bd e380 263e 6a87 063e
00000240: 00f4 d23c 33db 61be 3063 24be 324d 033e
00000250: eb08 633d d0a7 303e 5521 a33d 89f4 983c
00000260: cad5 e1bd e49c dfbc 38d0 233e 7c01 083c
00000270: 88f6 c2bb f159 5e3b bd37 d93d 2c61 99bc
00000280: 92b3 2dbc 6b7e 30bd 5dd3 65bc d77a acbc
00000290: 4fc1 0e3b 78bd 64bb 44ba 5bbe 29d6 243d
000002a0: fd84 1abd a051 0abd af37 80bd 5f4d 65bd
000002b0: 9cd4 0c3d 7750 7e3d e7ab d53d 6159 f0bd
000002c0: e966 8ebe 7f9b 4f3d 960e 763d eac3 f3bd
000002d0: 8af0 13bd d21b 873d 1b0d f03d fb90 18be
000002e0: 03e1 9bbb 30c3 46be c6d0 aebd fb8a a23c
000002f0: 090d e23c 3dc9 c7bd 4bcc 883d bda0 0bbd
00000300: 4768 803e 985a 3c3e 779f 163d 97ce c73d
00000310: 925a 84be 48bd 85bc 8aee 883e e4ec 3abd
00000320: 15ba f53e 44d0 373f cec9 c33c c150 87be
00000330: 146d 293f a677 063c ee87 2f3f 23bb d23c
00000340: 1efb 3e3f ef81 fe3d 0e00 5e3a 8bb1 6f3e
00000350: dbed a43e f391 8a3e 80bc 393f 0655 2a3f
00000360: f6e1 0f3f e180 aa3e b4ad 5a3e 6485 253f
00000370: 0cc4 0d3f 01bc 283e 1658 8c3e fc4c 503f
00000380: 795a f43c 350e 043f 7a0e 5b3f d1d4 243f
00000390: b73b 1a3f 2c58 883e ee47 4abe 3902 9bbd
000003a0: 8733 013f 84b3 6a3f 726d 323f 4e38 ac3e
000003b0: 7e0d 3e3f 5488 d43e 780f ae3d 1fa7 4d3e
000003c0: 63ea 89be b4ef 013f 9b1c a83f 5fea ac3e
000003d0: bcef b33e dc91 0d3f 1c5c 40bd 1283 fc3e
000003e0: e05b e93e 787e bc3e 758c 433f 022c f43e
000003f0: a80b ec3e 83de 893e 543c c13d 0db7 1d3d
0.2595643 0.26838556 0.17530721 0.701199 0.17291842 0.14832522 0.6395 -0.04940844
0.17014219 0.6734311 -0.025697013 0.092208706 0.7237786 -0.29259232 0.34723368 0.053798806
0.37393606 0.5088455 0.19096825 0.124376364 0.48428184 0.2597696 0.21054341 0.73717314
0.8798108 1.1505337 -0.16701671 0.37549868 0.905924 0.26462552 0.22021264 0.6425867
0.20195562 0.6420677 0.7313799 0.5785484 0.8200082 -0.3311731 0.6281167 0.10885779
0.523235 0.7397987 0.8349061 0.7703871 0.6306961 0.630335 0.22514792 0.5436521
0.58505505 0.61597437 0.68518066 0.41557154 0.7548815 0.7769952 0.46291736 0.8143002
0.61167496 1.0648253 0.50215286 0.37630087 0.32194033 0.45495224 0.14807396 0.003547851
-0.018165067 0.7548421 0.19178085 0.30087855 0.32263562 0.17299901 0.42685452 0.81274396
0.042965423 0.16237423 0.32845485 0.29551065 0.10786165 0.10287782 0.20379624 0.28559914
0.024698816 0.093195416 0.297124 -0.09951223 0.6781672 0.44511002 0.19802807 -0.7650156
0.15910073 0.041537706 0.2353422 -0.048224818 -0.2655912 0.11588866 0.16754216 -0.084060706
0.3042316 -0.091810875 -0.00873959 -0.16124533 0.13450621 0.607334 0.24531682 0.4478403
0.15173702 -0.00832482 0.077186346 0.35507265 0.29464403 0.12995231 0.30799022 0.07215313
0.47809532 0.091119155 -0.73002166 0.24128263 0.120138824 -0.007759178 0.18223017 0.032162573
0.12550308 -0.38585097 0.13474582 -0.05270914 -0.064105295 -0.111182675 0.43191478 0.52788275
0.00235343 0.049627647 0.026962131 0.0031882008 0.028320849 -0.10602652 -0.007942653 0.10992161
-0.014045055 -0.08988469 0.10602493 0.089704655 0.07207313 -0.050950963 0.16260104 0.13137594
0.025751114 -0.22056274 -0.16053462 0.12822416 0.055428427 0.17251515 0.07965342 0.018671291
-0.11027105 -0.027296491 0.15997398 0.008301135 -0.005949799 0.003392812 0.10606334 -0.018723093
-0.010601895 -0.04308931 -0.014027444 -0.021054668 0.0021782701 -0.0034902971 -0.21457773 0.0402433
-0.037724484 -0.03376925 -0.06260621 -0.05598199 0.034382448 0.062088456 0.104331784 -0.11735798
-0.2781289 0.050685402 0.060072504 -0.11902602 -0.036118068 0.06597103 0.1172125 -0.14899056
-0.004757048 -0.19410396 -0.08535914 0.019841662 0.027594106 -0.0975518 0.06679591 -0.03408884
0.25079557 0.18393934 0.03677317 0.09756201 -0.2585035 -0.016325608 0.2674449 -0.045636073
0.47993532 0.71802163 0.023899939 -0.26428798 0.66182065 0.008207237 0.6856679 0.025724
0.74601924 0.124271266 0.0008468636 0.23407571 0.3221272 0.27064475 0.72553253 0.66535985
0.56204164 0.33301452 0.21355325 0.6465666 0.5537727 0.16477968 0.27410954 0.8136747
0.029828297 0.5158418 0.85568964 0.6438723 0.6024737 0.2662977 -0.19754001 -0.07568783
0.5046925 0.9168017 0.6969825 0.33636707 0.7423934 0.4151026 0.08499044 0.20083283
-0.26936635 0.5075638 1.313373 0.3377256 0.3514384 0.5530069 -0.046962842 0.4931875
0.45577908 0.36815238 0.76386195 0.47689825 0.46102643 0.26927575 0.09435335 0.03850465

lstm.weight_ih_l1 f4 [256, 64]
00000000: 855f 8b3e 56b8 443e 46b7 94bf 0479 bd3d
00000010: 27e8 c83c ffc9 00be ecf3 013e 31f9 dc3d
00000020: 9b76 1abf 39b0 7abe bd32 75bd 7fd8 b23e
00000030: 945c 9ebd d7f1 21be 0a8e 47bd 4121 57bd
00000040: 7b25 87bf 2cb2 f3be 387d 8cbe 671b d93e
00000050: a8cf 883c 2423 4e3e 8869 933e bfa3 d73e
00000060: eefa 0d3c 3008 dfbe e40c 433d 245e 45be
00000070: fcc6 953e 7dd8 423e 3f56 f6be 606c 6bbf
00000080: b85c 70bf 301f 70bf a90e 983e 24ba 5a3c
00000090: b299 a33e 8ff6 7e3e a222 183e 3984 ea3c
000000a0: 6bed 39be 4eff 4ebf 47e2 203e 3a1f a13e
000000b0: b492 333f 37aa 88be 2e18 c13e 9cd2 80bf
000000c0: 8a61 1b3d 9ea3 0fbe 7ad1 47bf e5ae 3d3d
000000d0: c876 6abf 4463 0abe 683f 3bbe 3974 f6bd
000000e0: 74a9 833f d129 663f 25cd 563e 918a d93e
000000f0: fe3b 3dbe 7db6 afbf 2f6a 123e 3d97 1ebf
00000100: 84a5 263e 0cde 1a3f 18a5 dbbe 8408 65bf
00000110: de09 d33d ac16 44bf d597 5f3f b882 70be
00000120: 3221 4bbf 6a82 3c3e 4820 fc3c 2f12 3c3f
00000130: bbcd 133e f05d a1be afe0 d3bd 850a afbe
00000140: 5bb5 bf3b d454 67be cfd4 8fbe 982f d53e
00000150: 3739 323e 1ee9 263f 7a9b 8d3e c993 1cbf
00000160: 766b 99be e495 bfbe 0782 253f d7af e63d
00000170: 51ce bf3e 1e41 9f3e b3c8 ef3e 5d43 4a3e
00000180: 6f4d 763e 445b b4be 3fbb 16be bdaa 113f
00000190: ae13 f33d d056 403e fee0 ee3d 2b25 843e
000001a0: c15c 373f c6d2 c13e fd86 603f c5b0 99be
000001b0: 74cc a8be 3acf de3e 125e b9be ea53 07be
000001c0: 999b a6bd e1df 0bbe 33cb 12bf bc37 e93e
000001d0: 2b40 62be 72b4 e13e 30b1 203f aff6 b3be
000001e0: 58ca 25bf 8dab 25bf 315b a53d e6ef 9d3e
000001f0: 8950 3ebe ea3c e63e 59dd 0c3d 0279 c7ba
00000200: c817 ac3e 52f9 ff3e 8514 0cbf 0235 7fbf
00000210: f1a7 033f d45e 21bf a18e e1be da3c 813e
00000220: d51f 813e db7e b1be 9cce 613e c2f9 fb3d
00000230: 0d3e 7dbd fb60 9d3e f37a 443c db1a d03e
00000240: 5513 1f3d 9e90 36be 3b6f 0c3f 00bf ccbc
00000250: 3dae c1bc c738 91be a5a6 d23e 2059 8f3e
00000260: 8f83 0f3e ae7a 4cbe 7da3 fe3e a2b6 52bf
00000270: 4a8a 4a3f 759d 653d c9cb 8dbe 1581 4e3d
00000280: 9331 3abe 2d9c 1fbf e332 74bf fb30 a1be
00000290: 96fb 4c3d b8cf 5fbf 1b0e 493f a857 8e3e
000002a0: 8f28 1fbf 55fd 96be c0b6 3dbf eb1c f0be
000002b0: 29f9 903e 3b0e 9abe cfb9 cebe 5d06 633e
000002c0: c8f9 203f 545e 293e 6625 f93c cf06 ba3d
000002d0: b609 dc3e 4ca2 813f d486 c93d 9965 0fbe
000002e0: 0a8a 403e dc64 163f 6162 1c3f 40f3 e03e
000002f0: 81e5 0c3f 871d ab3e 906c 283d 3060 023f
00000300: 382c 87be 6ed0 a13f a799 343e 1af6 17bf
00000310: 47ff 5bbd 936e 86bd a42f bc3c fb94 293f
00000320: a0b3 1dbf 3ed4 37bf 616e 1cbd 6d8a 6e3e
00000330: 5c71 92be dfb5 423e a8c2 cd3e eb1f ed3e
00000340: 03cd 87bc 411b 073f 4cd7 e23d 9665 443f
00000350: d162 4b3c d766 40be 827d 283f a6f8 8abe
00000360: 930d 823d a200 49be c7f7 093f 7b3e 23bf
00000370: bff5 e7be 6090 883e 6ef8 c73d 74cc 07bf
00000380: ea52 c73e 1321 9dbd fc6e 2abf d2dd 62bf
00000390: 2575 553e a17c 9bbe 8d20 cdbd 782f 803d
000003a0: 35d9 ba3d c882 0cbf 23bf 96be c9dc 053e
000003b0: a538 713e 5d82 cbbf cbed 093e d850 b83d
000003c0: 4654 d13d e65d ed3c 2b02 a4bc 7315 813e
000003d0: 8fb6 08bf 83ae 34bd f7fd 103f 7e32 a3be
000003e0: 90ff 30bf 3ef3 023e 8f8c 95be 777f 37bd
000003f0: 5036 d93d ce6d ba3e 2235 a23d 362a dc3e
0.27221313 0.19210944 -1.1618431 0.092515975 0.024524761 -0.12577055 0.12690705 0.10789717
-0.6033723 -0.24481286 -0.05986284 0.34930798 -0.077325016 -0.15814911 -0.048719443 -0.052521948
-1.0558313 -0.47596872 -0.27439284 0.4240372 0.01670058 0.20130593 0.2879145 0.42117116
0.008665783 -0.43560934 0.047619715 -0.19274193 0.29253376 0.19027896 -0.48112676 -0.9196224
-0.9389148 -0.9379759 0.29698685 0.013350043 0.31953198 0.24898742 0.14856961 0.028627502
-0.18156974 -0.80858314 0.15711318 0.31469136 0.70145726 -0.26692364 0.3771376 -1.0064273
0.037934817 -0.14027259 -0.7805401 0.04630937 -0.91587496 -0.1351443 -0.18285906 -0.120338865
1.0286088 0.89907557 0.20976694 0.4248853 -0.18479916 -1.3727566 0.14298318 -0.6194952
0.16274077 0.60495067 -0.42899394 -0.8946612 0.103046164 -0.76597095 0.8734105 -0.23487365
-0.7934753 0.18409124 0.030777112 0.73465246 0.14433949 -0.3151698 -0.10345589 -0.34187713
0.0058504767 -0.22590953 -0.28092048 0.41637874 0.17404638 0.6519946 0.27657682 -0.61163
-0.299648 -0.37419045 0.6465153 0.112640075 0.37462094 0.31104368 0.4683281 0.1975226
0.24052976 -0.3522588 -0.14719866 0.5690115 0.11868988 0.18783116 0.116640076 0.25809607
0.71625906 0.3785612 0.87705976 -0.30017677 -0.32968485 0.43517476 -0.36204582 -0.13215604
-0.08135147 -0.13659622 -0.5734131 0.45550334 -0.2209479 0.4408298 0.62770367 -0.35149142
-0.6476188 -0.6471489 0.08074034 0.3084709 -0.18585409 0.4496835 0.03439078 -0.0015218558
0.33611894 0.49994904 -0.5471881 -0.9969026 0.51428133 -0.6303532 -0.4405413 0.2524174
0.25219598 -0.34667096 0.22051471 0.12303497 -0.061826754 0.30738053 0.011992204 0.4064549
0.038836796 -0.17828605 0.54857224 -0.02499342 -0.023642654 -0.2836363 0.41142765 0.27997684
0.1401503 -0.19968674 0.49734107 -0.82309926 0.7911726 0.056058366 -0.27694538 0.05041607
-0.18182974 -0.6234768 -0.95390147 -0.31482682 0.05004462 -0.8742633 0.7853715 0.2780125
-0.6217126 -0.29490152 -0.7410698 -0.46897063 0.28315094 -0.30088982 -0.40376136 0.22170396
0.62881136 0.1653989 0.03041334 0.0908333 0.4297616 1.0127654 0.098401695 -0.140036
0.18802658 0.5874765 0.61087614 0.43935585 0.55037695 0.33420965 0.04111916 0.5092802
-0.26400924 1.2641733 0.17636739 -0.59359896 -0.05371025 -0.06564059 0.022971936 0.6624295
-0.6160221 -0.7180823 -0.038191203 0.23294993 -0.2860211 0.19014691 0.40187573 0.46313414
-0.01657725 0.5277596 0.11076221 0.7671751 0.012413696 -0.1878923 0.6581651 -0.2714283
0.06350245 -0.19629148 0.53893703 -0.6376721 -0.45304677 0.2667265 0.09764181 -0.53046346
0.38930446 -0.07672324 -0.665756 -0.8861972 0.20845468 -0.30368522 -0.10015974 0.06259054
0.0912346 -0.54887056 -0.294427 0.13072504 0.23556764 -1.5899159 0.13469617 0.08999795
0.10221152 0.028975438 -0.020020565 0.25211677 -0.5340356 -0.04411174 0.5663752 -0.3187446
-0.6913996 0.12788102 -0.292088 -0.044799294 0.106060624 0.364119 0.079202905 0.43000954

lstm.weight_hh_l1 f4 [256, 64]
00000000: 7431 c33e b848 01bf 96d0 fa3e 6f35 143f
00000010: 3c09 c7bf e0d7 1c3f 3569 1b3f 7ba2 493f
00000020: 6f02 743e 3f01 ae3d 39d7 363e 8837 c63e
00000030: cd26 0a3f 7281 8ebf 3dd0 debd 90f0 523f
00000040: f1e2 66bf bbe9 6f3f d9b2 09bf 9909 d43e
00000050: 9603 31bf 9b7f 02bf 81fe a13f c085 7ebf
00000060: 34f9 65bf 645b e83e 182f 5f3f 194d c43f
00000070: 17ae b8bf 3af2 8ebf 6f81 293f ce62 c73e
00000080: 2bf8 52bf 2676 86be 89a9 7abe 7c5b c03d
00000090: b0ab 943e 9f7f bebf e136 823e 70b1 58be
000000a0: 8524 2ebf 6187 adbe 363b 48bf da7f 313f
000000b0: d667 c2bf 830d a7be ed32 e7bd 7b8c 783f
000000c0: 5bcb 83bf b26d 2ebf bb6c 68bf 55dc 883f
000000d0: 0165 203f d60e fbbf 6ba4 6ebf b1fc d5be
000000e0: 162d e8bd 1b2c c1be 4a98 8b3d fd35 99be
000000f0: 7194 fcbe e5c7 e1bf 842b 8c3e b653 303f
00000100: e4ef 2c3e 598c 4d3e 4433 db3e 1e30 03bf
00000110: 8ef0 67bf 4291 5b3e 1ad2 793e b574 a4be
00000120: 2d5b 4b3f 18e9 62be 3ea6 833f 4ef1 6c3f
00000130: bc6d 87bd 7c2b 5d3e b4b4 06be 9b6c bc3e
00000140: 16cf e23d 2ea2 aebd f674 f93e df32 17bf
00000150: b5ab 0f3f 9644 fbbd 0bee 34bf 3ff5 c0be
00000160: 86d5 bb3e d011 283e 7f13 1ebf 88d6 d5bd
00000170: f1b8 8ebf 986c a2be 62ad 1f3f 7ef4 773f
00000180: a852 77bf f9e4 b7bc f105 eebe 109a 493f
00000190: 196c 133f 3b34 6e3c c807 dd3c 0e2e 78bf
000001a0: 64bc 3e3f fc6e 8ebe c3d8 c2be cf92 bbbf
000001b0: 1470 e2be 3531 abbe 375c 313f de58 54bf
000001c0: 7eb7 1ebf bc85 41bf f84d 02c0 bd41 d53e
000001d0: 694e 873d 5741 033e 15c5 dabe cd2c 38bf
000001e0: 19b0 ea3e 6b46 84bd e33c b93d e828 403f
000001f0: a7b5 aabf 8cd0 04bf 07c6 893f 5bb1 923d
00000200: ae90 06bf b0f1 3d3e 7827 5f3f e578 053f
00000210: b333 123f 99af 1f3d 0447 21be 7f63 b23f
00000220: 85bd bb3f 2bdb 62bf 03a0 98be 66a3 3a3f
00000230: 67f1 14bd 463b 3bbf d6ad 4a3f c1f6 ca3e
00000240: d51e b1be c9b3 babd 448f 86bf 4443 0abf
00000250: aaa0 023f 02b7 47bf bed4 b2bd 2691 e9be
00000260: 9843 8f3e edf9 8ebf 916d 823f 63d5 dc3d
00000270: 3264 593f da04 0dbe 7c3c 1fbf a87b 1ebf
00000280: 587b 2c3f 947d acbf 2f8c 483c ce78 50be
00000290: 4759 5cbf 6ff3 80bf 6e7d 0d3f cdde d3be
000002a0: a4b0 67be 6af4 2e3d 4a04 283f f6a6 a33e
000002b0: 3b89 ff3e 27b4 273f 6554 3dbf 0c90 87bc
000002c0: 7ed9 393f f54e 13bf e187 d03c 923f 54bf
000002d0: 06ba 17be a62f 23bf f3af 833f 038f 2d3f
000002e0: 5146 0d3d 607b 8c3d d5d9 dcbf 7a4c 463f
000002f0: cd3a 283e f786 a63e 3bdb 483f 27bf d43e
00000300: b179 dcbe 60ba b7be cc83 a43e 3651 eabe
00000310: 0a00 fcbe 9eb1 813d 7ae7 bbbe eeb1 2e3e
00000320: 4d44 8d3f 610a 28be 7a23 123e ed34 cbbe
00000330: ad2b 24c0 b15d 06bf ded1 5dbb a58b a73f
00000340: 57e6 313f 7e6a ddbe b0a8 19bf a8a0 983f
00000350: debe f4be 9c27 06bf 9194 8dbe 6572 65bf
00000360: bd82 ee3d 40e1 97bf afef 18bf 9566 833f
00000370: 2e5a 28bf d253 703e 442e 5bbf d5cd a13f
00000380: a89c 6e3f 46dd 59bf 79e9 03bf 7640 383f
00000390: 6e4c a93f ad6f cfbc bf53 87bf a393 99bf
000003a0: 76a2 563e 59dd 3cbe 2bd0 c13e 711a 743e
000003b0: 2b82 4ebf 8fd8 11bf 9388 7b3f 3aa4 993f
000003c0: 7a5d e63e 675a b03c 218d 9bbe 6b8e dbbf
000003d0: d9c1 c03e 2f43 31bf e961 e6bf 9880 c03c
000003e0: 4c4c 2abf 56a4 ce3e 14af 253e c2fc afbe
000003f0: e561 803f 2fa9 96bd 669a f2be 367f 7e3d
0.38123667 -0.50501585 0.48987263 0.57894033 -1.5549693 0.612669 0.6070741 0.7876355
0.23829053 0.084963314 0.17855538 0.38714242 0.53965455 -1.1133254 -0.10879562 0.8239832
-0.90190035 0.9371602 -0.53788525 0.41413572 -0.69146097 -0.5097596 1.2655793 -0.99422836
-0.8983338 0.45382226 0.87181234 1.5336028 -1.4428128 -1.1167672 0.66213125 0.3894257
-0.82409924 -0.26262015 -0.24478735 0.09392449 0.29037237 -1.4882697 0.25432494 -0.21161437
-0.68024474 -0.33892348 -0.7821535 0.6933571 -1.5187938 -0.32627496 -0.1128901 0.97089356
-1.0296434 -0.6813613 -0.9079091 1.069224 0.6265412 -1.9613903 -0.9321963 -0.4179435
-0.113367245 -0.37728962 0.06816156 -0.29924002 -0.49332002 -1.7639128 0.2737695 0.6887773
0.16888386 0.2007307 0.4281255 -0.51245296 -0.9060143 0.2144213 0.24396554 -0.3212029
0.79436 -0.2215923 1.0285108 0.925557 -0.06612727 0.21598619 -0.1315487 0.3680161
0.11074655 -0.08527027 0.48722047 -0.59062 0.5612138 -0.12268941 -0.70675725 -0.37687108
0.36686343 0.16413045 -0.617485 -0.10441309 -1.115019 -0.31723475 0.62373936 0.9685744
-0.966105 -0.02244805 -0.46488908 0.78750706 0.5758682 0.01453882 0.02698125 -0.96945274
0.7450621 -0.2781905 -0.38056 -1.4654177 -0.44226134 -0.3343598 0.69281334 -0.829481
-0.61998737 -0.7559469 -2.0360088 0.41651717 0.066067524 0.12817894 -0.42728487 -0.7194336
0.45837477 -0.06458744 0.09044816 0.7506242 -1.3336686 -0.5188072 1.0763558 0.07162734
-0.52564514 0.18549228 0.871696 0.52137595 0.57110137 0.038985822 -0.15749747 1.3936614
1.4667212 -0.88615674 -0.2980958 0.72905576 -0.03636303 -0.7313732 0.791715 0.39641383
-0.34593835 -0.091163225 -1.0512471 -0.5400889 0.51026404 -0.7801362 -0.087319836 -0.45618552
0.27981257 -1.1170021 1.0189687 0.10782888 0.8491851 -0.13771382 -0.62201667 -0.61907434
0.6737571 -1.3475823 0.012240454 -0.20358583 -0.86073726 -1.007429 0.55269516 -0.4138092
-0.22625977 0.04271356 0.65631545 0.3196332 0.49909386 0.65509266 -0.739569 -0.01654818
0.7259749 -0.57542354 0.025455417 -0.829095 -0.14817056 -0.6374458 1.028807 0.67796344
0.034490887 0.068594694 -1.7253977 0.77460444 0.1642868 0.32524845 0.7845952 0.41552088
-0.43061593 -0.3588438 0.32131803 -0.45765084 -0.4921878 0.06332706 -0.3670004 0.17060062
1.1036469 -0.16410209 0.14271346 -0.39688817 -2.5651658 -0.5248671 -0.0033847014 1.3089491
0.69492096 -0.4324531 -0.6002302 1.1924028 -0.4780187 -0.5240419 -0.2765241 -0.8962768
0.1164603 -1.1865616 -0.5974073 1.026568 -0.65762603 0.23469475 -0.8561747 1.264094
0.9320779 -0.8510326 -0.51528126 0.7197336 1.322645 -0.025321806 -1.0572432 -1.199818
0.20960411 -0.18443812 0.37854132 0.23838212 -0.8066737 -0.5697107 0.9825527 1.2003243
0.44993192 0.021527482 -0.3038111 -1.7152838 0.37647894 -0.6924314 -1.799863 0.023498818
-0.6652267 0.40359753 0.16180068 -0.34372526 1.0029875 -0.07356488 -0.47383422 0.062133037

lstm.bias_ih_l1 f4 [256]
00000000: 6383 b53e 85eb c83d fefb 073f c5d4 283f
00000010: 4864 f83d fbe6 2abd aa72 293e 4688 903f
00000020: b3ed f83d a561 723e 7836 313f 4822 023f
00000030: 1440 223f 97a7 a3bc 3cdc 163f af6e a63e
00000040: 12ae 803e 46ba 033f 4f3f 21be 5d4d fe3e
00000050: b557 0cbe e49e 243e 56a8 2a3f e0e4 9dbe
00000060: e7c0 203f 2bdc b13e 91bc 8b3e ea51 203e
00000070: 9437 313f a862 a33e 80dc e23b 997d 743f
00000080: 5671 1d3f b268 da3f 40e3 47bc f571 963d
00000090: f439 a23e b2e2 4b3f 7aaf 833f 5807 363f
000000a0: 8268 d53d 78b4 ec3e b89b 49be bd9d b73e
000000b0: f0dd dd3d b0ea 05bf 47d3 8c3f 30d9 51bd
000000c0: ec29 5c3f 71b7 6d3e 7a02 0d3f 45d1 553f
000000d0: b712 c9bd 6c8d 583e 4f35 113f bd60 ccbe
000000e0: 3096 6a3f 6ea5 163f cd7f 2b3e 63a2 3ebe
000000f0: c44a cb3e 0164 673e 6cb9 6f3d 0784 bb3e
00000100: 7032 0ebf ee4d 97be 1ecc 4fbe a453 00be
00000110: 3c6b 543e 74fb d33e e655 1d3e 4638 06bf
00000120: e03f 0b3f d63b ffbe f7ef 943e 677b 41be
00000130: 4704 50bd d4cd 1ebf 0043 563e b684 e13e
00000140: 6f18 0a3f 3d60 32be 33ae 463f c3ac fcbe
00000150: de59 0bbf 96b3 23bf 8d30 c8bd 18e6 5f3f
00000160: 74f1 383e b5ed 393f 6ce9 163e d1fc 8c3d
00000170: a717 e33e 0963 05bf 7ddc 443f 4eb4 173e
00000180: e05f dfbe 3cf5 cabe 3996 053e aabe 0e3d
00000190: ecae f9be 141b ce3d 3c61 36be 089e 14bf
000001a0: 5538 d3bd 6dfc 19bf c793 113f a627 2abf
000001b0: 248e dabd 3ca3 90be 0e05 833e 6b16 4bbe
000001c0: aa97 6bbe f5f8 0a3e 3d40 bd3d 0acd 10be
000001d0: bdfa 04bf 4a2b 7e3e d5b8 303e 40ec 063f
000001e0: a21d 21be 9019 45be 31f3 0c3f 179f bb3e
000001f0: 7b88 84be 05e5 93be bf1f dcbe 42eb 183d
00000200: 4893 83be 80ff 893e e74d 98be 761d acbe
00000210: 3228 b3bd db7b 88be aeb8 5cbe 45ad f6be
00000220: 1a8d 40bf 9139 633e cee0 fd3d 4ac7 b8bd
00000230: 752c 8b3e 7f7d be3d 2b60 8f3d a884 6ebe
00000240: 1f3a a33d 6a0c 563c e589 01bf dfb8 c4bd
00000250: 9ef7 9a3e 5a54 04bd b74e b33e ba8b eebd
00000260: 3258 db3e 985b 003e 7d23 3e3e b583 a438
00000270: 8fbd b33d c8a5 72be c81b 42bd 007d b43c
00000280: d8c8 2abe c57c 96be 9e91 b73e f7f9 5ebc
00000290: ee62 d03d d27b 173e 6f2c edbd 6a7f 283e
000002a0: c7e6 773d 1aad 5bbe 794d bfbe 376d bf3e
000002b0: e981 3fbe 6a11 fd3e cd28 1b3f 79f6 39bb
000002c0: ec3a c5be 4f5c 0bbe cadd 50bd 1348 54be
000002d0: bac1 f13c 6312 093d 7f57 ac3e ebf6 60be
000002e0: 411a be3e 302f 1f3d 3272 12bf 4729 c83d
000002f0: 2a7d 173e e9e3 2f3c bea7 a73e 892a 9d3e
00000300: 003a 9cbe 832f d33d 12c2 283c 94d4 763e
00000310: 9225 42bf e9d5 2e3d 2f02 a83e 2392 753f
00000320: 25d3 7fbf abd1 8f3f f17f 483f 1817 c63f
00000330: 50ee 1fbe c400 d03e 841b 273f 9a2c a5be
00000340: c89f d6be 54b9 253f 2347 cd3e 35c6 943f
00000350: 0b09 273f 5c2d 073f a355 fc3e 81fc f03e
00000360: 449a 47be 306a 1a3f f493 6e3e 657e 70bc
00000370: e2d8 33be 855f ee3e 2b51 d8bd b696 9b3f
00000380: d1e0 483d 5f12 df3c 99d1 183f 0bf4 ca3e
00000390: c4bb d93e d469 a9be de42 bd3f 5ed0 873f
000003a0: b6b9 bc3d e8c1 df3e c2de 56be 962f 3f3e
000003b0: 3694 5cbe 1e77 fd3e 3432 95be 3c83 68bc
000003c0: 4d9b 643f b207 a63c 38a4 063e ff52 e33b
000003d0: 84b9 b63e ba8d ecbe 82e3 36bf f2f0 c53e
000003e0: 6977 c63e c1cb 3f3f b74d 013e dfa6 983e
000003f0: 4ee1 383f d526 483f 9add 5a3e 6252 1a3f
0.35451803 0.09810547 0.53118885 0.6594966 0.12128502 -0.041724186 0.16547647 1.1291587
0.121547125 0.23670061 0.6922374 0.5083356 0.63379025 -0.019977374 0.589298 0.3250632
0.25132805 0.51456106 -0.15746807 0.49668398 -0.13705333 0.16076237 0.6666311 -0.3083868
0.62794346 0.34738287 0.27292302 0.15656248 0.6922543 0.31911206 0.0069232583 0.95504147
0.6150106 1.70632 -0.012200177 0.07345954 0.3168484 0.79642785 1.0287926 0.71104956
0.10420324 0.46231437 -0.19688308 0.35862532 0.10833347 -0.5231123 1.1001977 -0.051232517
0.8600147 0.23214509 0.55081904 0.83522445 -0.09818023 0.21147698 0.5672197 -0.39917555
0.9163542 0.58846176 0.16747971 -0.18616633 0.3970548 0.22596742 0.05852644 0.36624166
-0.5554571 -0.29551643 -0.20292708 -0.12531906 0.20744032 0.4140278 0.15364799 -0.52429616
0.5439434 -0.4985034 0.2908933 -0.1889473 -0.05078533 -0.6203282 0.20923996 0.44046563
0.5394353 -0.17419524 0.77609557 -0.49350557 -0.54434 -0.639459 -0.09774885 0.8746047
0.18060857 0.7262834 0.14737481 0.068841584 0.44353983 -0.5210424 0.7689894 0.14814875
-0.43627834 -0.39640224 0.13045587 0.0348498 -0.48766267 0.100637585 -0.1781053 -0.58053637
-0.10313479 -0.60150796 0.56866115 -0.6646675 -0.106716424 -0.28249538 0.25589794 -0.1983277
-0.23007074 0.13571532 0.09240768 -0.14140716 -0.51945096 0.24821201 0.17258008 0.5270424
-0.1573396 -0.19248033 0.5505858 0.36644813 -0.25885376 -0.28885666 -0.4299297 0.037333734
-0.25698304 0.26952744 -0.29746935 -0.33616227 -0.08747901 -0.26656994 -0.21554825 -0.4817907
-0.75215304 0.22189929 0.12396394 -0.09022386 0.27182356 0.0930128 0.070007645 -0.23292792
0.0797007 0.013064483 -0.50601035 -0.09605574 0.30267042 -0.032307006 0.35020992 -0.116477445
0.42840725 0.1253494 0.18568225 7.844662e-05 0.0877639 -0.23696053 -0.047389776 0.02203226
-0.16678178 -0.29392067 0.35853285 -0.013609401 0.10175119 0.14793327 -0.11580741 0.16454855
0.06052282 -0.21452752 -0.37363794 0.37388012 -0.187019 0.49427348 0.6060913 -0.002837567
-0.38521516 -0.13609432 -0.050992765 -0.20730619 0.029511321 0.0334648 0.33660504 -0.21969192
0.37129405 0.03886336 -0.572055 0.09773498 0.1479384 0.01073549 0.32745165 0.30696514
-0.30513 0.103117965 0.010300176 0.2410453 -0.7583858 0.04268447 0.32814166 0.9592611
-0.99931556 1.123586 0.78320223 1.5475798 -0.15618253 0.40625584 0.6527636 -0.3226059
-0.41918778 0.64735913 0.40093336 1.1622988 0.65248173 0.5280359 0.49284086 0.47067645
-0.19492441 0.6031828 0.23298627 -0.014678572 -0.17563203 0.4655725 -0.105623566 1.2155368
0.049042527 0.02723044 0.5969482 0.39639315 0.42526066 -0.33088553 1.4786031 1.0610464
0.09215109 0.43702626 -0.20983413 0.18670496 -0.21540913 0.49504942 -0.29139864 -0.014191445
0.8929947 0.020267341 0.13148582 0.006937384 0.35688412 -0.4620188 -0.714409 0.3866039
0.38762978 0.7492028 0.12627302 0.29814813 0.7221879 0.7818425 0.21373597 0.60281956

lstm.bias_hh_l1 f4 [256]
00000000: 9288 e23e 5fd6 29bd dfd8 e13e c559 213f
00000010: 1c6b 8a3d 3aa1 dabc 5184 943e c438 913f
00000020: c932 043d 0761 bf3e a2de 203f b040 9c3e
00000030: f61d 033f 9af8 19be 1e70 163f 3c48 493e
00000040: 3fb3 803e b6d1 203f 4625 91be 470c e63e
00000050: 78c5 3cbe 81eb d83d bbdc 393f bcca d7be
00000060: 5f94 033f 3d66 8d3e 9f97 6a3e 974f 2b3c
00000070: 2f24 353f 5881 943e 4199 a03c ef38 4c3f
00000080: c63b 1f3f bca1 f13f 81a2 cebd e7dc 1f3e
00000090: 0247 f33e a33f 2e3f 163e 963f 4b47 103f
000000a0: c14a 243e f08e d03e 488c 50be a99c 9d3e
000000b0: 76c8 92bc 3f63 eebe e532 703f 1ffa b2bd
000000c0: 41ef 343f 916b 453e 672f fc3e d671 633f
000000d0: a7c2 05be bc80 583e 1ea4 103f 769b f6be
000000e0: 3cef 8a3f c61d e03e 94b2 633e 7277 7cbe
000000f0: 0584 123f 2b0e 7c3e cd3d dbbc 3f85 8b3e
00000100: 7b6c adbe 4d87 7bbe cceb 93be e1e9 90be
00000110: 02d7 783d d7cb 5e3e d1f1 933e c359 09bf
00000120: a89b 0e3f 80f3 1cbf dab7 3d3e cc30 cbbd
00000130: d38d 1bbe 4831 27bf 8267 3a3e 6eed 0e3f
00000140: 99fc f63e 68f4 51be 267e 283f 1e84 f7be
00000150: 0b42 edbe b4ed 0dbf 8f9c 8fbd ac59 703f
00000160: 35b7 a03d aed8 073f 5b8b 0b3e 666a 03bd
00000170: 46d5 d83e 665f 01bf 2725 533f 2cf7 773d
00000180: 2b3a a9be 5105 c5be dc84 c73d ecc8 7abc
00000190: 24d3 a6be 987e 9b3d 0217 14be 6997 33bf
000001a0: 62d3 9fbd 3672 22bf 5a55 ad3e f99a 0dbf
000001b0: 4b96 a9bc 447b fabe 9308 8a3e 10c0 09be
000001c0: 922f 88be 0e2c a33d ec45 a43d ab0f 55be
000001d0: c833 efbe e9bc 3c3e eb96 4d3e 71f7 123f
000001e0: 3e02 883b 6983 8ebc 958e 0b3f b7c9 413e
000001f0: 3b40 e9be c372 5ebd 7cf4 bebe c92d 8a3e
00000200: c056 a8be a05c 7c3e baf4 4bbe 59f8 27be
00000210: 797c 0a3e 5da4 1abe 69d6 4fbe a380 abbe
00000220: 5a27 0ebf 42e8 863e dcea 803e 63b0 53be
00000230: 054b 0c3e c0e3 3d3e 4d99 b5bd 9f95 afbe
00000240: 1db4 2b3e 3692 0cbd f659 9bbe b30b debc
00000250: aba4 8a3e 48d6 873d 54db 443e 40b8 acbd
00000260: 5b2f 103f 45b2 123e 80e1 613e e4b5 8f3d
00000270: 7acd cc3d f7ce 95bd d273 cfbd b878 03bd
00000280: 2d8b e9bd d3aa d5be 7201 f03e 626f 123e
00000290: 75cd 5dbd 33bc 153e 4880 803d e9d1 d53d
000002a0: 6bfd e23c 0f5a 85bd 6a5d b5be 621f 783e
000002b0: 1154 f9bc b856 1f3f c4e8 fd3e f3a2 403d
000002c0: 0b8e febe d0f3 ed3b ea43 87bd b15e 1abe
000002d0: b746 d2bd 1446 92bd 479a 8d3e 08c9 7ebe
000002e0: 027a b53e b137 e8bc 8dc4 0bbf e5a4 883d
000002f0: 2c61 013e eb2a 6abd 1e9f 853e 32c5 bc3d
00000300: d83d e6be 2720 083e a16a 06be 39e0 783e
00000310: 868d 2fbf bdbb 903d 79e0 633e ebd5 543f
00000320: 5add 63bf a5b0 803f 72b9 573f 4036 c23f
00000330: 411e efbd 1c38 d13e 987d 293f 375f fcbe
00000340: 982a debe 35c7 223f 3814 d13e e6a8 883f
00000350: f961 083f ca08 f43e dae1 223f f191 1e3f
00000360: a6f9 fbbd 9225 0b3f 9507 b03e 90a0 50bd
00000370: 6973 d1bd a3a9 f43e e590 fabc a114 b13f
00000380: ce50 793e fd3f 16bd af72 0f3f e0c0 863e
00000390: d090 f43e 0577 afbe e0b9 c13f adcb 863f
000003a0: 9569 fe3d 02b6 053f aa27 88be ef00 243e
000003b0: b12f 08be 982a 2d3f fb68 95be b299 833d
000003c0: 7c7f 4d3f f635 b2bd f4e7 a13e 59e3 b5bd
000003d0: 76b9 c03e fba0 f7be eebf 19bf 8c30 943e
000003e0: 1b9e 083f a924 343f 18bd 9b3e e8c9 da3d
000003f0: 6b6e 313f 4a3c 383f 2509 523e 5740 303f
0.4424482 -0.041464206 0.44110772 0.630276 0.06758711 -0.026688207 0.290072 1.1345448
0.032274995 0.37378713 0.6283971 0.30518103 0.5121759 -0.1503624 0.5876483 0.19656461
0.25136754 0.62819993 -0.2834875 0.44931242 -0.18434703 0.10591794 0.7260243 -0.42146862
0.5139827 0.27617064 0.22909401 0.010455987 0.70758337 0.2900493 0.019604327 0.79774374
0.6220058 1.8877482 -0.10089589 0.15611611 0.47515112 0.6806585 1.1737697 0.56358784
0.16044141 0.40734053 -0.20366013 0.30783585 -0.017917853 -0.46560094 0.9382766 -0.08739113
0.7067757 0.19279315 0.49254915 0.88845575 -0.13062535 0.21142858 0.5650042 -0.48165482
1.0854259 0.43772715 0.22236091 -0.2465494 0.57232696 0.2461478 -0.026762867 0.27250096
-0.33871827 -0.24563332 -0.28890836 -0.28303435 0.060751922 0.21757446 0.2889543 -0.5365259
0.5570626 -0.6130905 0.18527165 -0.09921417 -0.1519082 -0.6530957 0.18203548 0.5583104
0.48239592 -0.2050339 0.6581749 -0.48342985 -0.4633945 -0.5544083 -0.07012283 0.9388683
0.07847444 0.53065 0.13627379 -0.03208389 0.42350215 -0.5053619 0.82478565 0.060538456
-0.3305219 -0.3848062 0.09742138 -0.015306693 -0.32582963 0.07592505 -0.14461902 -0.7015291
-0.0780399 -0.6345552 0.3385418 -0.55314595 -0.020701548 -0.4892217 0.26959667 -0.13452172
-0.26598793 0.07967387 0.08021149 -0.20806758 -0.46719193 0.18431439 0.20077102 0.57408816
0.004150658 -0.017396646 0.5451444 0.18924604 -0.45556816 -0.054308664 -0.37295902 0.26988056
-0.32878685 0.24644709 -0.19917575 -0.16403331 0.13524045 -0.15101762 -0.20296635 -0.3349658
-0.55528796 0.26349074 0.25179183 -0.20672755 0.13700493 0.18543911 -0.088671304 -0.3429384
0.16767927 -0.034319125 -0.30342072 -0.027105188 0.27078757 0.06632668 0.19224292 -0.084335804
0.5632226 0.14325817 0.22058678 0.07017115 0.10000129 -0.07314866 -0.10129513 -0.03209755
-0.11403499 -0.4173189 0.46876103 0.14300302 -0.054151017 0.14622574 0.06274468 0.10440428
0.02770873 -0.06511318 -0.35422832 0.24230722 -0.030435594 0.622417 0.4959165 0.0470304
-0.49717745 0.0072617307 -0.066047505 -0.15075184 -0.10267394 -0.071422726 0.27656767 -0.24881375
0.35444647 -0.028346868 -0.5459679 0.06672076 0.12634724 -0.057169836 0.2609796 0.092172995
-0.44969058 0.13293515 -0.13126613 0.24304284 -0.6857532 0.07067058 0.22253598 0.8313891
-0.8900963 1.0053908 0.8426734 1.5172806 -0.11675692 0.4086312 0.66207266 -0.49291393
-0.4339187 0.63585216 0.40835738 1.0676544 0.53274494 0.47662956 0.6362587 0.6194144
-0.12303476 0.543542 0.34380785 -0.050934374 -0.10227091 0.47785673 -0.03058667 1.383442
0.24347231 -0.036682118 0.5603437 0.26319027 0.47766733 -0.34270492 1.513485 1.0530907
0.12422482 0.52230847 -0.2659276 0.16015981 -0.13299443 0.6764312 -0.29181656 0.064257994
0.8027265 -0.087016985 0.3162228 -0.08881254 0.37641495 -0.48365006 -0.60058486 0.28943288
0.5336625 0.7036844 0.30417705 0.10683042 0.6930911 0.71966994 0.20511301 0.68848175
