model/epoch_264.pth (torch, 230883 bytes, 10 tensors)

lstm.weight_ih_l0 f4 [256, 20]
000000 f0 d0 0a 3f dc bc 85 bf a0 ee 73 3f 8e 1e d6 be
       0.54225063 -1.044826 0.9528599 -0.41820186
000010 10 18 5a bf 4e 41 2f bf bd 38 e5 3f e7 de 7f 3e
       -0.85192966 -0.6845902 1.790794 0.24987374
000020 5c 3b 52 3f 00 0a cc bf af fa 99 3e 38 4d 8d be
       0.82121825 -1.5940552 0.3007407 -0.27597976
000030 8d 33 8d 3f 54 a8 16 3f 53 8f 85 bd ef 3d 14 bf
       1.1031357 0.588506 -0.065214776 -0.57907003
000040 d2 ef 09 bf 71 63 8e be 3d 88 45 3f 22 70 11 be
       -0.5388156 -0.27810243 0.7716101 -0.14202932
000050 78 82 4e 3f 98 11 19 bf 69 e8 65 3f 8b d9 ab 3f
       0.8066783 -0.5979247 0.89807755 1.3425764
000060 0b 00 70 3f ef 6a 76 bf fe 83 9c 3e f9 82 55 bf
       0.93750066 -0.9625692 0.30569452 -0.83402973
000070 3f 2b e6 3e 98 0a 99 3f 0e 32 f2 3c 3d 4a 44 bf
       0.4495487 1.1956358 0.029564884 -0.7667578
000080 38 6e 81 3c cc a6 6d 3f a6 22 8a be 36 c6 a4 3f
       0.015799627 0.92832637 -0.2697956 1.2872989
000090 10 2b 89 3f ec 7e 89 bf 2c cc a6 3d 38 53 25 3f
       1.0716267 -1.0741858 0.081444114 0.64580107
0000a0 a6 18 97 3f 78 80 8b 3f b2 0b 3b 3e 63 93 db be
       1.1804397 1.089858 0.1826618 -0.42885885
0000b0 a9 74 21 bc bc d9 ff 3e d7 2e ad 3c c1 26 61 bc
       -0.009854474 0.49970806 0.021140499 -0.01374215
0000c0 a5 3f a3 3e ff d4 56 3e ee 5d a2 3e 7e e5 80 3e
       0.31884494 0.20979689 0.31712288 0.2517509
0000d0 3c f6 62 bf a2 db 6c bf 9d 85 29 be 23 03 fb 3e
       -0.88656974 -0.92522633 -0.16554876 0.4902583
0000e0 04 df dc 3d 66 e6 a5 3e 22 96 eb 3e 91 8d 8b 3e
       0.10784724 0.32402343 0.4601298 0.27256444
0000f0 ce e4 15 be e9 6b c8 3e c8 6c 42 3c 0b 62 85 3e
       -0.14638063 0.3914483 0.011866756 0.26051363
000100 b4 f7 1e 3e 4b be 8c bc 95 fe 06 3f a5 74 ee 3f
       0.15524179 -0.017180583 0.5273221 1.8629347
000110 3f 8e 9f 3f 4f cc aa 3e d9 d2 22 bf 5d a3 14 be
       1.2465285 0.33359 -0.6360298 -0.14515443
000120 97 13 85 bf 16 bd 5b bf aa 1b c2 bc 70 54 20 be
       -1.0396603 -0.858354 -0.023694832 -0.1565721
000130 e4 07 5b 3f 23 52 8a 3f 29 56 cd 3e 7c 62 f5 3e
       0.85558915 1.0806316 0.40104797 0.479267
000140 98 d1 82 be da 45 08 bf 94 34 af 3e b2 dd 4d 3f
       -0.25550532 -0.53231585 0.342198 0.80416405
000150 f4 89 b5 3f 19 d1 8a 3f 96 62 0f bf 02 ef 31 3f
       1.4182725 1.0845062 -0.56009805 0.6950532
000160 34 6d 60 be 3f 60 e2 3e 5b c5 2b bf 0d 90 81 3f
       -0.21916658 0.44214055 -0.67098016 1.0122086
000170 57 be b9 bf 76 a9 1e bf 9c a9 51 3e 5a 40 1b 3f
       -1.4511212 -0.61977327 0.20474857 0.6064507
000180 29 a3 98 bf fc 07 9e 3f 89 7b b0 bf 05 37 1a 3f
       -1.1924793 1.2346187 -1.37877 0.60240203
000190 33 15 60 3f 5c 44 64 bf db 23 4c 3f 57 e7 45 bf
       0.8753235 -0.8916681 0.7974221 -0.7730612
0001a0 f1 d1 74 bf f4 d7 d2 3e 95 87 c7 3e 36 ca 96 3f
       -0.95632845 0.41180384 0.38970628 1.178046
0001b0 d3 82 1c bf a9 79 a1 3e 07 a1 c2 3e ac af 11 bc
       -0.6113712 0.31538132 0.3801348 -0.008891981
0001c0 5b 10 e0 3e 7a b8 c9 3f f3 dc e0 bd 85 23 fa 3e
       0.43762478 1.5759423 -0.10979643 0.48855224
0001d0 02 82 ba 3f a5 57 98 bd 55 f6 7c 3f bb cc db 3d
       1.4570925 -0.07438592 0.9881337 0.107324086
0001e0 10 f3 51 3f 2d ff a0 3f 5c ca 3e bc 18 b4 12 3f
       0.8201151 1.2577873 -0.011644926 0.5730605
0001f0 77 39 32 3f ed a8 c6 3f cb ac e3 be 88 21 83 3f
       0.69618934 1.5520302 -0.44467768 1.0244608
000200 b0 12 7c bd 4f af 54 3e bf 24 d9 bc a2 12 29 bf
       -0.06154126 0.2077 -0.02650678 -0.66044056
000210 8b fd 84 be 35 53 08 bf c0 6c f0 3e 54 f5 fb be
       -0.25974688 -0.53251964 0.4695797 -0.49210608
000220 ae 2d 09 3f 81 83 78 3f 1d 6a 0f bf 55 d7 fe be
       0.53585327 0.9707566 -0.5602129 -0.4977366
000230 d2 82 ce ba 8e 3e 76 3f 2e fb 86 3f a5 01 ae 3f
       -0.001575554 0.961892 1.0545404 1.3594252
000240 37 a4 1d 3f a9 ca 48 3e 27 67 d6 3d 88 f2 37 3f
       0.61578697 0.19608559 0.104688935 0.7185445
000250 c9 20 7c 3e 7a cb 1c bf d2 43 03 be 54 90 1b 3f
       0.24621882 -0.6124798 -0.1281884 0.607671
000260 21 35 2d be 77 59 46 bf d2 61 ab be 37 02 9c bf
       -0.16914798 -0.7748026 -0.33473068 -1.2188176
000270 8e 06 0e 3f ef 21 2b 3e 11 a6 6e bf 98 10 38 bd
       0.5547875 0.16712163 -0.9322215 -0.0449377
000280 c7 d9 41 3e 90 66 84 bf 29 7d a5 be c4 86 9b 3f
       0.18930732 -1.03438 -0.32322052 1.2150502
000290 b6 e5 03 3f 6c 3f c1 bd 37 f2 f2 3e 02 18 95 be
       0.51522386 -0.09435925 0.4745042 -0.2911988
0002a0 35 00 61 3e 13 23 e7 3d 81 f7 b2 3f 5f 5f 50 bc
       0.21972735 0.11285987 1.3981782 -0.012718051
0002b0 63 b8 8a bd f3 72 d4 3f ed 55 2a 3e 82 c8 f8 be
       -0.0677345 1.659758 0.1663434 -0.48590475
0002c0 54 06 de be 62 d0 72 3f 83 4a 02 bf 64 ca 27 3f
       -0.43364203 0.94849217 -0.50894946 0.655432
0002d0 8f eb cc 3d 31 22 87 3f b2 10 e5 bd 41 c5 33 3e
       0.10005867 1.0557309 -0.11184825 0.17555715
0002e0 63 1d 4c be bb 55 27 3f a1 76 10 be 7b b3 92 3c
       -0.19933085 0.6536519 -0.14107753 0.017907849
0002f0 ac c3 a8 be 20 89 aa 3f 9a 33 92 bf ed b3 30 3f
       -0.32961786 1.3323097 -1.1421998 0.69024545
000300 1b 07 84 bf 09 0e 5b 3f 0d 08 55 3f 24 b2 ec 3f
       -1.0314668 0.8556829 0.8321541 1.8491864
000310 40 f2 3c 3f fc ec e7 3f 38 71 eb 3d 61 bf 36 be
       0.73807144 1.8119197 0.11496204 -0.17846443
000320 d9 19 37 bd 2b e1 ef be 60 c0 b7 3c 76 3a ba 3e
       -0.044702385 -0.46851477 0.022430599 0.36372727
000330 38 21 e5 3e cd d7 cb bd 2f 8f 04 3f 91 3e d0 be
       0.44751906 -0.0995327 0.5178098 -0.40672734
000340 c7 8c 24 3f e4 aa 5b 3f f1 3e 78 3f 7d 7e 43 bf
       0.6427731 0.85807633 0.9697104 -0.7636488
000350 b4 8c 12 3c 66 d5 44 bf e2 a6 c8 be 15 bd f9 3e
       0.008944679 -0.7688812 -0.3918982 0.4877707
000360 24 99 72 3e c9 dc 9e 3e ec a5 db be a3 15 9c 3e
       0.23691231 0.3102782 -0.42900026 0.30485258
000370 9c ad 0e 3d 0a 2b 1f 3f 53 c8 49 bf cf f7 b4 bf
       0.034833536 0.6217505 -0.78821295 -1.4138125
000380 aa a2 f1 bb f1 dc 87 bf c2 a2 92 3d b7 0c a9 3f
       -0.0073741274 -1.0614301 0.0715995 1.3207005
000390 55 a4 c5 be 20 fc b1 3e ee 35 0f 3f c9 8e 9f 3e
       -0.38601938 0.3476267 0.55941665 0.31163624
0003a0 a1 60 54 3e 82 bb df 3e ca c1 87 bd 20 ad b3 3e
       0.20739986 0.43697745 -0.06628759 0.3509302
0003b0 56 e2 62 3f 5e 2b 0d bf 8e ba 14 bf 18 5e ae 3e
       0.8862661 -0.551443 -0.5809716 0.34056163
0003c0 18 df 91 be a7 84 26 3e 7b 8c 31 3f e2 3d 88 3f
       -0.2849052 0.1626154 0.6935498 1.0643885
0003d0 65 43 50 3f 46 5c 4c be d8 a6 82 3f 1b 4d 51 be
       0.81352836 -0.19957075 1.0207167 -0.2043957
0003e0 05 79 00 bf 90 b1 bf 3d ec 42 f6 be 01 95 78 bf
       -0.5018466 0.09360039 -0.48097932 -0.9710236
0003f0 0a 1c 8f 3e fe 18 7b be f0 45 0b 3f d3 22 b0 3e
       0.2795108 -0.24521253 0.5440359 0.3440157

lstm.weight_hh_l0 f4 [256, 64]
000000 18 d9 00 bf d8 5d 96 3d 5c 16 13 be 64 b3 e7 be
       -0.5033126 0.07342118 -0.14363998 -0.45254052
000010 6b a9 da bd 7a 47 8f 3f 31 e3 17 3d bb 1c 90 bc
       -0.10676845 1.1193688 0.0370819 -0.017591825
000020 7a a6 28 bf 89 06 35 3f 4e 68 42 be d2 5a b6 3e
       -0.65879023 0.70713097 -0.18985102 0.35616165
000030 aa 05 79 be 75 21 cc bd a5 d8 79 3e c7 f9 9e 3c
       -0.24318567 -0.09967319 0.2439905 0.019406212
000040 15 6d e0 3e e0 ee 82 3e 8c 85 b4 3e 88 ee d7 bd
       0.43833223 0.25572872 0.35258138 -0.10543543
000050 0b 37 33 3d ae e6 ca be 01 01 17 be 95 99 6f 3e
       0.043753665 -0.3962912 -0.14746477 0.2339843
000060 97 27 6b 3e 68 6d 6e 3d ac d2 16 3e 5b 8c 7c be
       0.22964321 0.058209807 0.14728802 -0.24662916
000070 dc 3e ca 3e f2 fc 0d bf eb 17 9e be d8 b7 86 3e
       0.39501083 -0.5546409 -0.30877623 0.26312137
000080 9e 69 1f 3f 3b 52 ed 3e 43 17 9e 3d 04 26 13 3e
       0.62270534 0.463518 0.077192806 0.1436997
000090 15 35 c5 3d cb ba 10 bf 63 94 b8 3c 56 09 5c 3d
       0.09629265 -0.56535023 0.022531694 0.05371984
0000a0 3f f6 12 bf d4 15 dd be 41 b7 be bd 0e 17 c5 3e
       -0.5740699 -0.43180716 -0.09312297 0.38494152
0000b0 83 79 1f 3f 23 ce 86 3e 6a 4a b6 3e c5 63 77 3e
       0.6229479 0.26329145 0.35603648 0.24159153
0000c0 d8 34 7a bd c2 7d 80 3e e4 f0 52 be 62 38 82 3e
       -0.061085552 0.25095946 -0.20599705 0.25433642
0000d0 d3 50 f5 3e 85 42 c8 be 3a 54 e8 bd a6 13 46 bf
       0.47913226 -0.3911325 -0.1134419 -0.7737373
0000e0 6a 55 28 be 86 12 f8 be d8 a0 96 3e 51 a3 82 be
       -0.16438833 -0.48451632 0.2941959 -0.25515226
0000f0 8f 46 bb be 58 27 35 3f b4 fd 80 3e b0 96 a1 3e
       -0.3657727 0.7076316 0.2519356 0.31560278
000100 11 62 32 bd 9d f2 19 3e 5a 24 c7 3d 2f 05 28 3e
       -0.043550555 0.15033956 0.097237304 0.16408227
000110 3a 05 87 3e 12 53 28 3f 41 92 d0 3e e1 88 99 3e
       0.26371175 0.65751755 0.40736583 0.29987243
000120 dc db f7 bd b5 bb 0f bf e8 4e db be ee fa b7 be
       -0.12102482 -0.56145793 -0.42833638 -0.35933632
000130 86 28 a8 bd 41 ec 01 bf 37 c0 e4 be 39 5a 33 3f
       -0.08210854 -0.5075112 -0.44677898 0.70059544
000140 c1 9f aa bd 35 cb 42 bd 69 dc 1b 3f 40 78 66 bd
       -0.08331252 -0.047557075 0.60883194 -0.056267023
000150 b8 b5 5b 3d 9b da 9f 3e 50 f7 97 be 73 08 0d 3f
       0.053640097 0.3122147 -0.29680872 0.5509102
000160 a5 e2 82 3c 9a f7 5a 3d a5 19 11 3f 87 f2 af 3e
       0.015977213 0.053458788 0.56679755 0.3436472
000170 20 d1 cc 3e ca 03 76 3e 75 d8 bf 3e 66 89 92 bd
       0.400033 0.24024883 0.3746983 -0.07155113
000180 24 56 30 be 47 dc 8a be 90 aa c8 be 10 79 31 3d
       -0.1722036 -0.27121183 -0.3919263 0.043328345
000190 68 e6 01 be b8 b8 33 3e c7 1e 60 3e 5d 10 90 3b
       -0.1268555 0.17550933 0.2188674 0.004396482
0001a0 d6 6f 0c bf d8 ed ae be 4c 78 0a bf 79 fb 33 bf
       -0.5485815 -0.34165835 -0.5408981 -0.7030559
0001b0 ce 5b 61 3e 09 33 ef be 14 1d 54 3e 60 43 ef 3e
       0.22007677 -0.46718624 0.20714217 0.4673109
0001c0 f2 42 da be 35 6b e9 3e 1a 5b e0 be e4 93 c1 be
       -0.426292 0.45589605 -0.43819505 -0.37808144
0001d0 5f 60 dd bb c6 53 3c bf 0d 3d b1 bd 12 79 2f be
       -0.006755873 -0.7356533 -0.08654223 -0.17136028
0001e0 70 49 ae 3e b7 10 e7 bc 3b e5 06 be ba 43 d9 bd
       0.34040403 -0.028206212 -0.13173382 -0.10608621
0001f0 d2 b1 81 be df 9f 1f 3f 0b be 07 be d8 c4 84 3e
       -0.2533098 0.6235332 -0.1325609 0.2593143
000200 df d7 45 be 7b 85 5c 3e 8a fa 3e bf 74 16 26 bf
       -0.1932063 0.21535294 -0.7460104 -0.6487801
000210 9f 84 cf 3d 6e 9e da 3e 28 4d b3 3c 09 38 5f be
       0.10132717 0.42698997 0.021887377 -0.2179872
000220 f0 33 6b be 1f 1c 07 bf e3 7a ad be 46 38 bf 3e
       -0.22969031 -0.52777284 -0.33882818 0.3734762
000230 bc 7d e2 3e e5 0c 43 bc 1a ed ae bd c0 e6 f5 3e
       0.44236553 -0.01190493 -0.08541317 0.4802761
000240 a2 92 26 be 56 a4 1f 3c 93 0e 01 3e 91 3b 0e be
       -0.16266873 0.009743771 0.12603216 -0.1388991
000250 77 73 36 3f ef 22 78 3e e3 ad 64 3e 97 74 12 be
       0.71269935 0.24232076 0.22331958 -0.14302288
000260 98 f8 88 3d c4 b1 ba 3d f5 5a 3c be f3 0c 98 3e
       0.066880405 0.09115937 -0.18394072 0.2969738
000270 88 75 f2 be 9c 48 fe 3e 12 cf 79 be 8c 95 1b 3f
       -0.47355294 0.49664772 -0.24395397 0.60775065
000280 b0 c4 f0 bd 2b 08 22 be 36 d0 d5 3e d3 56 90 bd
       -0.11756265 -0.15823428 0.41760415 -0.070478104
000290 df fb 2d bf 27 3e 97 be c9 a0 4e 3e f5 30 98 bd
       -0.6796245 -0.29539606 0.20178522 -0.07431213
0002a0 2b 01 c8 bd dd 18 16 3e 43 c9 57 3e 24 b2 4e be
       -0.09765848 0.14657922 0.21072869 -0.20185143
0002b0 de b9 13 be 89 7b ee be ab 04 e0 3e 38 cc 02 3f
       -0.14426371 -0.46578625 0.4375356 0.51092863
0002c0 38 53 50 3d 11 78 0e bf dc 3d d6 bd f0 82 a9 3e
       0.050860614 -0.55651957 -0.104610175 0.3310771
0002d0 cf 5a a3 be 4d 2f 87 be 66 f4 de 3e ff 40 25 be
       -0.3190522 -0.26403275 0.43545836 -0.16138075
0002e0 b6 30 2f 3f 16 97 64 bf 0b 73 3b 3e 22 d7 41 3c
       0.684337 -0.8929304 0.18305604 0.011831077
0002f0 c6 24 b1 be 5d fe e7 3e 9e e1 27 be d7 70 f4 bb
       -0.34598368 0.4531125 -0.1639466 -0.0074597406
000300 ff 87 1b be 2f 6a 13 bf 12 ab 57 3e 20 12 35 bf
       -0.15188597 -0.575839 0.21061352 -0.7073078
000310 87 57 2d 3c bd 34 7c 3e ae c5 a1 3f 56 75 79 3d
       0.01057995 0.24629493 1.2638452 0.060902916
000320 82 18 1c 3f dd 6a 52 3f 21 af 82 bb 77 cc 3b 3f
       0.60974896 0.8219431 -0.003988162 0.73358864
000330 b1 68 a1 3e 38 75 4a bf d2 9d ab 3d fa 28 9a 3e
       0.31525186 -0.7908511 0.08379711 0.30109388
000340 c8 c8 ce 3e 91 5d 27 bf 9b 10 88 be 37 41 19 be
       0.4038756 -0.65377146 -0.2657517 -0.14966284
000350 3b d5 70 3f 22 12 f6 3c ba 30 27 be c5 f9 88 3e
       0.94075364 0.030037943 -0.16327181 0.2675306
000360 99 e8 51 bf e9 08 02 3e 65 84 42 3e 60 cf 60 3e
       -0.8199554 0.12698711 0.18995817 0.21954107
000370 41 59 dc 3e 51 44 a1 be 15 48 fd 3e 20 9e e3 3e
       0.43036845 -0.31497434 0.49469057 0.44456577
000380 29 3c fa 3e 45 b8 69 3e ba a1 a7 3d 83 09 94 be
       0.48874024 0.228242 0.08185144 -0.28913507
000390 5e c8 82 be ce 08 0b 3e 25 6f 01 bf 29 45 5a 3c
       -0.25543493 0.13577577 -0.5056022 0.013322153
0003a0 05 60 27 3f eb 71 bb 3e 1e fc 4e bf 03 55 19 3e
       0.6538089 0.3661035 -0.8085345 0.14973836
0003b0 6f 9e 9d 3f 55 4e ee bd f1 fb 25 bf 3a 75 8e be
       1.2313975 -0.116360344 -0.6483756 -0.27823812
0003c0 ed 58 ef bd 0b 59 06 be bc 94 9f 3e 2b ea f4 3b
       -0.11686883 -0.13119905 0.31168163 0.007474204
0003d0 dc 33 bb 3c 2f ba 35 be ca c5 c2 3e 30 52 6b be
       0.022851877 -0.17746805 0.38041526 -0.22980571
0003e0 c6 89 e9 bd 78 d6 c7 be a9 a2 06 3f b8 aa 58 be
       -0.11403231 -0.39030814 0.5259195 -0.21158874
0003f0 f9 fd cf be eb 0c f6 3e b6 59 43 be 9b 4b 52 3e
       -0.40623453 0.4805673 -0.19077191 0.20536654

lstm.bias_ih_l0 f4 [256]
000000 5b 75 8b 3e 34 ef d1 3e 7c 5d e6 3d 3d 77 5e 3e
       0.27237973 0.4100281 0.112482995 0.21725173
000010 f4 4e 26 3e 0b 8f 4a 3e 9c ee 4f 3e f8 c0 d0 bd
       0.16241056 0.19781129 0.20305866 -0.10193056
000020 db ea 3e 3e f2 6a 0d 3f e3 88 58 3d b2 88 5f be
       0.18644278 0.5524131 0.05286492 -0.21829489
000030 e6 d6 0e 3f 8c 95 54 3e bc cb 5c 3e 2e a1 06 be
       0.5579666 0.20760173 0.21562093 -0.13147423
000040 ac d8 23 3e 25 55 80 3d 95 fc da 3c 31 78 fc 3c
       0.16000623 0.0626624 0.026731769 0.03081903
000050 72 9f b9 3e a8 06 45 3e 62 cf b4 3e fa 6c cd 3e
       0.3625446 0.1924082 0.3531447 0.40122205
000060 49 35 0c 3f e5 6c 2e 3f 23 d6 76 3c 1d 11 01 3e
       0.54768807 0.6813491 0.015065703 0.12604184
000070 f0 be 5a 3f ca 57 1e bd df 75 48 3e f1 47 06 3f
       0.854476 -0.03865794 0.19576214 0.52453524
000080 ea de b6 3d 11 e7 b4 3e 94 60 0a 3f 1d 1c df 3e
       0.08929236 0.3533254 0.54053617 0.43576136
000090 94 10 02 3f 10 8c b1 be ed 18 ba 3e a8 03 09 be
       0.50806546 -0.34677172 0.36347142 -0.13380301
0000a0 1d 3c 84 3e 91 f2 05 3f ad 66 cb 3e 3a e7 18 3f
       0.25827113 0.5232325 0.39726773 0.59727824
0000b0 90 06 35 3e 11 0f 20 3f 99 75 70 3e f8 7e 9f 3e
       0.17678285 0.6252299 0.2348236 0.31151557
0000c0 df 87 84 3e 50 5f 68 3e 06 a9 e7 3e 42 07 f9 3d
       0.2588491 0.22692609 0.45246142 0.121595874
0000d0 f2 25 37 3e 29 28 18 3e e5 3d ef 3d a1 8d 0b 3f
       0.17885569 0.1485907 0.11681727 0.54512984
0000e0 2c 4d c5 3e 4a d6 22 3f e4 b8 d9 3e 6d cd cc 3e
       0.3853544 0.6360823 0.42523873 0.40000477
0000f0 d4 76 0c 3e 4b e8 b4 3e fe f4 be bd 66 d1 81 3d
       0.13717204 0.35333475 -0.09324072 0.06338768
000100 bf f5 61 3e bc be bc 3e 75 21 1d 3e cc 71 50 3e
       0.22066401 0.3686427 0.15344794 0.2035591
000110 5a 89 79 3d 77 07 6c 3e 9f 2b 8b 3e b5 7b 1e 3f
       0.060922004 0.23049723 0.27181718 0.6190751
000120 3b bc 41 38 a9 0c ca 3d 20 51 64 3e b3 68 a3 3e
       4.619009e-05 0.09865696 0.22296572 0.31915817
000130 b9 de 32 3e ba 10 de bb 20 dd 96 3e cb b4 ab 3e
       0.17467774 -0.0067768963 0.2946558 0.33536372
000140 ca dd 11 3c 54 f2 9a 3e f7 55 60 3e b3 49 03 3e
       0.008902976 0.30263007 0.21907793 0.12821083
000150 ee 97 b0 3e fc 2b 91 3e 81 09 72 3c 1e eb d9 be
       0.34490913 0.2835387 0.014772774 -0.42562193
000160 6d 34 86 3e 9a 21 40 3e 60 2b 93 3d 21 99 98 bd
       0.26211873 0.18762818 0.071860075 -0.07451082
000170 72 f9 da 3d ee 56 46 3e a3 df 78 3c fc 99 f5 bd
       0.10692109 0.19369099 0.015190038 -0.11992261
000180 6b 7e 36 3e 80 cd a5 3c 07 1d c0 bb 51 a8 dc bd
       0.17821662 0.020239592 -0.0058628353 -0.10774291
000190 fd ea 9b 3d 07 94 e5 3e f8 f6 92 3e a7 22 86 3e
       0.0761318 0.44839498 0.28704047 0.26198313
0001a0 ba 44 38 3e 77 22 f9 3c 48 5c dc 3d 22 b7 79 3e
       0.17994967 0.030411942 0.10759789 0.24386266
0001b0 8b 78 26 3d 32 bf 2a 3e 7f 6f 6f 3e 75 f9 40 3e
       0.040642302 0.16674498 0.23382376 0.1884516
0001c0 d4 84 da 3e 63 94 82 bd c2 b7 c7 be a6 0f 0d bd
       0.42679465 -0.06375959 -0.39007384 -0.03443875
0001d0 ca e7 54 3e e9 d8 19 3e b2 4e 32 3d 6d cb 96 3d
       0.20791546 0.15024151 0.04353208 0.07363019
0001e0 b5 82 3d 3c 5a 59 98 be c1 a8 65 bd 3e 86 ab bc
       0.0115668075 -0.2975567 -0.05606914 -0.020938035
0001f0 61 aa 7e 3e 84 7f a0 bd 0b 77 6c 3e 82 c3 55 3e
       0.24869682 -0.07836822 0.23092286 0.20875362
000200 ae 0a c4 bd 3f 32 19 3e a8 4d 04 be e3 61 5a bd
       -0.095723495 0.14960574 -0.12920249 -0.05331601
000210 76 0c 76 bd 79 31 2a bd 5b 1d 6d 3d ba b4 87 3b
       -0.060070477 -0.041551087 0.057889324 0.0041414173
000220 47 5e aa 3c ef 24 11 3d ce 7a b5 3b a5 6a 2e bd
       0.020796908 0.035435613 0.005538321 -0.042582173
000230 e8 61 c3 bd 46 7f ec 3d d5 5e 18 bd ca fc 15 3e
       -0.095401585 0.11547713 -0.037199814 0.14647213
000240 42 58 ce 3d b2 01 c4 bd aa ae a0 bd 47 85 d2 3c
       0.100754276 -0.09570636 -0.078458145 0.025698317
000250 a5 55 73 3d fb 8e 83 3d 09 59 47 bd c8 74 73 bd
       0.05940785 0.06423756 -0.048668895 -0.059437543
000260 51 b7 42 bd a0 73 2c bd 48 40 d9 3d f2 dc 32 bc
       -0.047538105 -0.042102456 0.10607964 -0.010916935
000270 eb 88 a7 3d a5 67 ca bd 9f 2f 62 bc 78 a4 a7 bd
       0.08180412 -0.0988305 -0.013805299 -0.08185667
000280 bb 8d 8a bc c5 20 1c bb 5a e8 26 3d 03 b7 62 bb
       -0.016913285 -0.0023823243 0.04074893 -0.0034593947
000290 20 58 c1 3d 75 44 5a bd fc 2f bb 3b d1 8b 28 3c
       0.09440637 -0.053287942 0.0057125073 0.010287241
0002a0 ef 4b 27 3d 18 01 78 bd c9 80 00 bd 1c 30 e5 bd
       0.0408439 -0.060547918 -0.03137282 -0.11190817
0002b0 e9 aa b0 3d 32 18 8d bd 0a 3f 59 3d c4 ca 26 bc
       0.086263485 -0.068893805 0.053038634 -0.010180179
0002c0 77 f6 1f be b2 ad ec bd b2 1d d7 3d 23 06 d5 bd
       -0.15621363 -0.11556567 0.10503711 -0.10401561
0002d0 e5 14 e3 3d 2b d9 4b bd 97 cd db 3d 11 1c f7 bd
       0.1108797 -0.049767654 0.107325725 -0.120659
0002e0 aa d9 af 3d 9e 61 a1 3b de ca 03 3e 98 e7 d8 3c
       0.08586438 0.004924967 0.12870356 0.02647762
0002f0 76 ae 18 ba 1e ba f8 bc 38 0b 6a bd da 7b bf 3d
       -0.00058243365 -0.030362185 -0.057139605 0.09349795
000300 83 e0 a7 3e 03 8c 87 3e ed d6 4c 3e a7 85 77 3e
       0.32788476 0.26474008 0.20003863 0.24172078
000310 99 28 27 3e 46 e1 9e 3d 41 53 8f 3e 40 8f 2d 3d
       0.1632408 0.07757811 0.27993205 0.042372942
000320 68 e5 82 3e 1c c5 09 3f ce b8 02 3e 07 6f d7 3d
       0.25565648 0.5381639 0.1276581 0.10519224
000330 6b bc bc 3e 06 ed f5 3d ef ea e0 3e 6e 8b e8 3b
       0.36862502 0.12008099 0.4392924 0.0070966994
000340 95 d1 0d 3f 26 2b 34 3d 8d 96 a4 3d ba 50 60 3e
       0.5539792 0.043986462 0.08036528 0.21905795
000350 e7 e5 4a 3e 2a 11 5a 3e a9 7d a9 3e e8 03 ea 3e
       0.19814263 0.2129561 0.33103684 0.45706105
000360 ca 0a 0f 3f af d4 82 3e 31 86 43 bc c0 36 80 3e
       0.5587584 0.2555289 -0.011933849 0.2504177
000370 7d 48 6e 3e 14 12 a2 3e b7 3d 7e 3d d1 d7 f7 3e
       0.2326984 0.31654418 0.062070575 0.48406842
000380 ef ee a7 3e d0 7e 97 3e 30 44 24 3f ce fd 05 3f
       0.3279948 0.29588938 0.64166546 0.523404
000390 93 ff ad 3e 2b 07 9f 3d 0e 48 fd 3d f4 ea 80 bc
       0.3398405 0.07765039 0.12367259 -0.015737034
0003a0 09 c7 82 3e d5 0e b2 3e 7b 2e 0d 3f 6c 43 89 3e
       0.25542477 0.3477694 0.5514905 0.2680925
0003b0 e2 aa ae 3e 3f 82 11 3f d0 d5 77 3e 4a ec 06 3e
       0.34114748 0.56839365 0.24202657 0.13176075
0003c0 21 19 0e 3e e4 83 6d 3e d6 55 41 3f e4 0c 4b 3e
       0.13876773 0.23194844 0.755216 0.19829136
0003d0 66 a5 5e 3e 65 c5 c8 3e 06 58 70 3e 6f 18 98 3e
       0.21742782 0.392131 0.23471078 0.2970614
0003e0 41 b2 11 3f f0 19 bb 3e 7c 0b af 3e c2 50 33 3e
       0.5691262 0.36543226 0.3418845 0.17511275
0003f0 26 2d ab 3e 65 c1 c9 3e f2 f3 e2 3d 0b 6c 75 3c
       0.33432883 0.3940536 0.11081685 0.014979373

lstm.bias_hh_l0 f4 [256]
000000 a2 9a 9b 3d 93 04 e0 3e 77 93 15 3e 08 41 c3 3e
       0.07597853 0.4375349 0.14607035 0.38135552
000010 b4 4f 7d 3e 65 30 b0 3d 29 ee c9 3e 51 92 30 bd
       0.24737436 0.086029805 0.39439514 -0.04310829
000020 ee e3 ac 3d ae ff d6 3e 53 6b 29 3b 61 22 31 be
       0.08441912 0.41991943 0.0025851324 -0.17298271
000030 42 c8 d7 3e 13 96 e6 3d 4b 1d 40 3e 7f 3b 06 be
       0.42144972 0.11259093 0.18761174 -0.13108633
000040 76 24 3f 3e 35 ce ba 3c 62 be 4f 3d 84 79 88 3d
       0.18666252 0.022803405 0.050718673 0.06663802
000050 8a 64 d9 3e 3c 4e d2 3d 86 db 4e 3e 54 6a ac 3e
       0.42459518 0.10268828 0.20200929 0.33674872
000060 70 4b fb 3e 6c d5 39 3f b6 56 49 3c ec 91 30 3e
       0.49080992 0.7259128 0.01228874 0.17243165
000070 28 07 46 3f ca f5 78 3d e4 bb fc 3d 3e 19 e0 3e
       0.7735467 0.060781278 0.12340525 0.43769258
000080 db 5c 7c 3d 0f 71 c2 3e e3 ed ed 3e 72 7b b6 3e
       0.06161199 0.37976882 0.46470556 0.35641056
000090 0c 73 e0 3e 7d 00 26 be a2 7d c6 3e 24 fd 95 3d
       0.43837774 -0.16211124 0.38767725 0.07323673
0000a0 f4 f2 92 3e e1 8c de 3e 94 8e 03 3f ec fe 17 3f
       0.28700984 0.43466857 0.5138943 0.59373355
0000b0 ae 12 c4 3e 52 08 ff 3e 20 fb 59 3e 7b 93 94 3e
       0.382955 0.49811035 0.21287203 0.2901877
0000c0 bd 91 90 3e 1e a4 c7 3e 7e 53 b9 3e 3f 12 7b 3e
       0.2823619 0.389924 0.36196512 0.24518679
0000d0 e3 88 a1 3e b3 94 8e 3e d1 d3 6c 3e fd ee e8 3e
       0.3154975 0.27847824 0.23127677 0.45494834
0000e0 f3 dc e0 3e 0d b3 19 3f 64 3c bd 3e bb 8a 6c 3e
       0.4391857 0.60038835 0.36960137 0.23099796
0000f0 e1 12 86 3e f0 f2 8b 3e ef e4 6f 3c b7 65 cd 3d
       0.26186278 0.27333784 0.014641984 0.10029166
000100 7c f8 22 3e 56 30 d5 3e 2c f1 19 3e 12 8c 10 3e
       0.15915102 0.4163844 0.15033406 0.14115933
000110 5c 10 fd 3d f3 76 81 3d 02 01 84 3e 00 6f 24 3f
       0.12356636 0.06321516 0.2578202 0.6423187
000120 1f 24 0a 3e 71 c8 79 3d 58 31 49 3e c3 0b e4 3d
       0.13490342 0.06098217 0.1964773 0.11135056
000130 76 bb c3 3d 94 13 d5 3a 72 dc 95 3e 61 57 75 3e
       0.0955724 0.0016256445 0.2926975 0.23959114
000140 fc 3c 3a bd c9 1d 08 3e 2c 54 2e 3e aa 50 39 3d
       -0.045468315 0.13292612 0.17024297 0.045242943
000150 77 4d b1 3e 9b 6b 7e 3e 8e c4 19 3e dd 0f 16 bf
       0.34629413 0.24845736 0.15016386 -0.58617955
000160 03 06 54 3e db 9e d7 3d bd d8 cf 3d ae 63 c1 bd
       0.20705418 0.10528346 0.101487614 -0.094428405
000170 82 d1 e2 bd 9a 32 cb bc d0 9b 34 3e 99 16 57 be
       -0.11075117 -0.024804402 0.17637563 -0.21004714
000180 b9 a9 93 3e b9 33 0a be db a9 20 be 93 5f d6 bd
       0.28840426 -0.13496293 -0.15689795 -0.10467448
000190 72 20 62 3d d8 09 03 3f c2 93 81 3e c0 3a a4 3e
       0.055206724 0.51186895 0.25308043 0.32076073
0001a0 c0 f1 29 3e ba 4a d9 3c c6 e8 dc 3b d6 9f 74 3e
       0.16596127 0.02652489 0.006741616 0.23889098
0001b0 ed 59 30 3e 68 fa d2 3d 34 36 4f 3e d7 dc 3f 3e
       0.17221804 0.103016675 0.2023552 0.18736587
0001c0 04 2b ad 3e c8 55 f4 3d 07 07 d5 be 41 57 38 3e
       0.3382188 0.11930424 -0.41606924 0.18002035
0001d0 96 53 13 3e f2 e6 87 bd af cc da 3d 51 c2 3a 3c
       0.14387354 -0.06635846 0.106835715 0.011398868
0001e0 89 59 32 3d 06 43 a8 be 39 38 fe 3d 71 f4 33 bd
       0.04354242 -0.32863635 0.12413067 -0.04393429
0001f0 73 55 cc 3d 32 7f 15 be 07 f2 80 3e 8a b1 5a 3e
       0.09977236 -0.14599302 0.25184652 0.21356788
000200 6c 48 e3 3c 10 04 cb 3c fe 3f 20 3d c9 6c 1d bd
       0.027744494 0.02478221 0.039123528 -0.038433824
000210 f6 e7 10 bd 4d 25 af bd a8 1e c4 3c e1 80 c3 3c
       -0.035377465 -0.085520364 0.0239404 0.023865165
000220 b8 93 61 bd d0 29 a8 bd 5b 72 8d 3d e8 e0 4b 3d
       -0.055072516 -0.082111 0.06906577 0.049775034
000230 82 f5 89 3d 7e 03 a6 bd 70 5f b2 3d 88 9a f9 3d
       0.0673628 -0.08106135 0.087096095 0.121876776
000240 92 a8 00 3c 4a e2 d9 bd 84 d0 f8 bd f5 e1 f8 3d
       0.00785269 -0.10638864 -0.12149146 0.12152473
000250 da e4 5a 3d df 95 1e 3e 44 c2 01 3d bf 1f f8 3c
       0.053440906 0.15486859 0.031679407 0.030288575
000260 18 6f 8b bd f0 7d 96 bd bf 78 cc 3d ca a6 4a 3d
       -0.06808299 -0.073482394 0.09983968 0.04947547
000270 80 fa 6f 3d 0b 79 9c 3c c9 a9 ca 3d 01 aa 17 3d
       0.058588505 0.019100687 0.09895665 0.037027363
000280 33 0a ce bb fb df c9 3a 99 18 27 bd 41 a2 22 bd
       -0.006287837 0.0015401834 -0.040794943 -0.03970552
000290 19 65 b3 bb 1e 01 d3 3c e6 86 31 be 30 bb 16 3d
       -0.0054746983 0.025757369 -0.17336616 0.03679961
0002a0 e9 02 07 bd 7d 39 7f bd ef 4d 1d bd 0a f1 d7 bc
       -0.03296176 -0.062310684 -0.0384044 -0.026360054
0002b0 51 ab 09 3d 05 87 92 3d 09 26 26 3d ff 62 0f be
       0.033610646 0.07154659 0.040563617 -0.14002608
0002c0 99 d6 32 be 05 89 30 3d f8 2c d5 3d b8 83 d0 bd
       -0.17464675 0.043099422 0.10408968 -0.10181373
0002d0 d6 be 4d bd d9 58 66 3d 4b 4b db 3d da 5b cf bd
       -0.050230823 0.056237075 0.1070772 -0.10124941
0002e0 0e 39 96 bc 71 25 21 be 44 ab 9b bd fb ec e9 bc
       -0.018337753 -0.15736939 -0.07601026 -0.028555384
0002f0 8c a3 02 3c 27 e5 b8 bd 16 cc 94 3d bb aa e0 bc
       0.007973563 -0.09028082 0.07265489 -0.02742516
000300 8f 9e 7b 3e 94 0b b5 3d cc 96 b7 3d 18 d4 32 3e
       0.24572204 0.08840099 0.08964309 0.1746372
000310 df dd 3a bd 6f 1a 75 3d b0 dc ff 3d e8 07 b8 3d
       -0.04562175 0.059839662 0.12493265 0.08985883
000320 91 98 e2 3d 53 15 1f 3f 49 74 b3 3b 3b 31 42 bb
       0.11064256 0.62141913 0.0054765088 -0.0029631394
000330 c4 bc f3 3e 32 bb 14 3e 04 58 ed 3e ca 29 0e 3e
       0.47604954 0.14524534 0.46356213 0.13883129
000340 64 1b 08 3f e3 01 a6 3d b7 3c 9e 3d 0f c6 96 3e
       0.53166795 0.081058286 0.07726424 0.29447982
000350 8c 03 a9 3e 9a 83 6e 3e 62 ed f5 3e ea 7d d2 3e
       0.3301052 0.2329239 0.4803267 0.4111169
000360 45 22 0e 3f 03 81 93 3e 44 c6 43 3e b5 6b 2c 3e
       0.5552104 0.28809366 0.19118601 0.16837962
000370 84 3d ca 3e 54 d2 79 3e 36 1a 9c 3d 3c 6b c0 3e
       0.39500058 0.2439664 0.07622187 0.37581813
000380 80 4c 78 3e b2 e9 8f 3e 56 d9 21 3f d1 ff e2 3e
       0.24247932 0.28107983 0.63222253 0.44335797
000390 0c 1d c8 3e fa de 71 3e 52 d7 ca bd e4 62 a6 bc
       0.3908466 0.23620215 -0.0990435 -0.020310827
0003a0 07 98 c6 3e 74 bf e2 3e 93 d9 07 3f 3e 1f bd 3e
       0.38787863 0.44286692 0.53066367 0.36937898
0003b0 29 dc bd 3e ac 91 be 3e 5f ac 1a 3e a4 fc c1 3d
       0.3708203 0.37220514 0.15104817 0.094720155
0003c0 f2 56 12 bd f9 d9 9f 3e a7 fc 2c 3f fe 20 4f 3e
       -0.03572745 0.31220987 0.67573017 0.2022743
0003d0 f2 f5 ae 3e 69 a2 b7 3e 8d e7 64 3e b0 5f 92 3e
       0.34172016 0.35866097 0.22353955 0.2858863
0003e0 c9 ea 01 3f 3c 9b c5 3e 4b 83 cc 3e 3e cd 0a 3e
       0.5074888 0.38594997 0.3994392 0.13554856
0003f0 3d 62 ae 3e 83 4e bb 3e 38 ae a5 3d 89 59 05 3d
       0.34059325 0.36583337 0.0808987 0.03255609

lstm.weight_ih_l1 f4 [256, 64]
000000 b9 15 6a 3c 1c be 1b 3f 7b 53 36 bf 72 1d 8b be
       0.014287406 0.6083696 -0.7122113 -0.27170902
000010 d2 3c 6c 3d 32 81 d3 be ed 64 6c 3e 32 69 1e be
       0.05767519 -0.41309506 0.23085375 -0.15469816
000020 1d f2 11 bf 8d 73 20 3e 21 a1 86 3e 31 0b 54 bb
       -0.5701006 0.15669079 0.26294807 -0.0032355303
000030 bb 86 da bd 68 bc 98 bd cc 7a b5 be 0c 84 42 3d
       -0.10670229 -0.07457811 -0.3544525 0.04748921
000040 df 35 cb bf c0 3c f7 be d3 00 55 3e 1a 41 0c 3f
       -1.5875815 -0.48288536 0.20801096 0.5478684
000050 20 4e e9 3d da 25 1f 3d 44 28 d5 ba a5 f3 10 3f
       0.11391854 0.038854457 -0.001626261 0.5662177
000060 53 4f 92 bd 43 a6 09 3a bc ea 87 3e 17 b8 07 bf
       -0.07144036 0.000525091 0.26546276 -0.53015274
000070 f3 bf e5 3d bf 77 2b 3f 5e 78 f1 be 98 09 3f bf
       0.11218252 0.66979593 -0.47162145 -0.74624014
000080 11 ca 37 bf 1b 96 5c bf 39 3f 33 3f 54 a5 8d 3d
       -0.71792704 -0.8616654 0.70018345 0.069162995
000090 1d 33 d7 3e a0 70 b0 3d d7 bc cd be 11 bb 84 3e
       0.42031184 0.086152315 -0.40183136 0.2592397
0000a0 82 a9 dc bd 2a 97 21 bf 6a 10 95 3e 2e bf f6 3e
       -0.107745185 -0.63121283 0.29114085 0.48192734
0000b0 96 b8 94 3e a3 40 b0 bd 1d 9a 14 3f 9a e0 4f bf
       0.29047078 -0.086060785 0.5804766 -0.8120209
0000c0 7b e0 23 3e ab 52 bd bb 60 ed a6 be ae de c4 bd
       0.16003601 -0.005777677 -0.32602978 -0.09612785
0000d0 7c 60 86 bf 9a 0d 4f 3e 3a 86 cf bb c0 82 57 be
       -1.0498195 0.20220032 -0.0063331397 -0.21045971
0000e0 53 3c 63 3f d0 e2 43 3f 4a 43 97 bc 88 ab f2 3e
       0.8876392 0.76517963 -0.018464703 0.47396493
0000f0 25 aa 08 3d 97 47 8e bf 9c 4f e0 3e ba 4d c2 be
       0.033365387 -1.1115597 0.43810737 -0.37949926
000100 81 96 48 3e 87 59 9e 3e 03 b9 c1 be ec bd d2 be
       0.19588663 0.3092768 -0.37836465 -0.41160524
000110 14 ae a7 be 84 20 65 be eb 62 2b 3f ec 45 2f 3d
       -0.3275 -0.22375685 0.6694781 0.042791292
000120 43 eb cd be 7b 80 3b 3e 92 1d 08 3d f9 12 09 3f
       -0.40218553 0.1831073 0.033231325 0.53544575
000130 24 4e 67 3e 58 45 2b bf e5 72 ee 3e 1a 92 ce be
       0.22588402 -0.66902685 0.46572033 -0.40345842
000140 3a 59 87 be 2a 0a 12 bd 8d 23 d4 3c 10 6e b9 3e
       -0.26435262 -0.035654224 0.025895858 0.36216784
000150 96 c2 c1 3e a1 9e 9f 3e a5 ac 09 3f 34 43 c9 3d
       0.3784377 0.31175712 0.5377906 0.09827271
000160 3b 46 98 be a0 49 f8 bc d0 e7 27 3f d7 fd 0c be
       -0.29741082 -0.030308545 0.6558809 -0.13768707
000170 a7 89 38 3f 97 87 b7 3e 36 0c 8e 3c e3 b8 14 be
       0.7208504 0.35845634 0.017339807 -0.14523654
000180 a1 0f e7 3c 0e a3 a3 be 5d 7a cc 3e bb 4b ba 3e
       0.028205695 -0.31960338 0.39937106 0.36385903
000190 75 ce b5 bd 5a 7b 0d 3e 51 78 93 be 27 75 3c 3e
       -0.08877269 0.13816586 -0.28802732 0.18404065
0001a0 b8 31 a7 3e f4 b5 b2 3e 57 12 0e 3f c0 47 1f be
       0.3265512 0.34904444 0.55496734 -0.15554714
0001b0 ff 2c 42 3e 3d 17 a1 3d df 91 f2 be 7b a5 a3 3b
       0.18962477 0.078657605 -0.47376916 0.004994092
0001c0 3c 29 fe 3e 0c 66 db be ab 81 cd be cc 8f 60 3e
       0.49640834 -0.42851293 -0.4013799 0.21929854
0001d0 27 bd ad be 62 45 11 3f 94 d1 8a 3f 5c 1c d0 be
       -0.33933374 0.56746495 1.0845208 -0.40646636
0001e0 92 45 d2 bd 87 9a e7 be ab 82 ba bd 2e 30 15 3f
       -0.10267176 -0.45235083 -0.09106954 0.5827664
0001f0 80 49 44 bd d7 50 41 be 48 b0 11 3e 90 45 68 3d
       -0.047921658 -0.18878494 0.14227402 0.056706965
000200 e7 91 2d 3e f6 c1 22 3f 40 f1 ba be 14 6b 51 bf
       0.16950189 0.6357721 -0.36512184 -0.81804013
000210 ce b7 fa 3e 46 25 be be c0 9d bf be 30 2a a2 3e
       0.48968357 -0.37137812 -0.3742504 0.31672812
000220 c0 2a a1 3d a2 3f 92 be 30 fa 89 3e bb f7 d6 3d
       0.07869482 -0.28564173 0.2694869 0.104964696
000230 a6 2d 5f be 37 56 6a 3d 12 c5 b0 3e 8c 08 b7 3d
       -0.21794757 0.057211127 0.34525353 0.08937177
000240 06 be a6 3e c4 33 14 be f9 aa 13 3e ff 06 13 be
       0.3256685 -0.14472872 0.1442069 -0.14358138
000250 aa e5 d8 be ef 21 99 be 30 f5 cc 3e 9c d7 3d 3f
       -0.4236272 -0.29908702 0.40030813 0.7415712
000260 ee 21 0b be 2c 02 8a be 1c f1 cc 3e 2a 9b d6 be
       -0.13587162 -0.26954782 0.40027702 -0.41915256
000270 70 96 85 3f 86 44 cb bd f7 e8 02 be 38 1c 10 3f
       1.0436535 -0.09925179 -0.12784182 0.5629306
000280 9f 67 10 be 9f 99 9b bf 0d 35 65 bf 92 44 99 3e
       -0.14102028 -1.2156256 -0.89534074 0.29935127
000290 94 07 07 be 78 3f 37 bf 99 91 13 3f 71 52 44 be
       -0.13186485 -0.7158122 0.5764404 -0.19172074
0002a0 2f 85 0c bd 2e 75 e6 be 21 6c 60 bf 1d 7f 54 be
       -0.0343067 -0.45011276 -0.8766499 -0.20751615
0002b0 d9 34 0f 3f 67 fd 37 bf bb 4f 5c 3e e1 ed 77 3e
       0.55940014 -0.71871036 0.2151479 0.24211837
0002c0 cd 89 98 3e 38 da 8b bd d5 55 27 3e 3b de d7 3d
       0.29792634 -0.06828731 0.16341336 0.10540434
0002d0 8b 63 0f 3f 38 c4 18 3f bd eb 4c 3d 35 0c e9 be
       0.56011266 0.59674406 0.050029505 -0.45517126
0002e0 65 52 9e 3e 21 e9 ce 3d 20 45 1e 3f 65 c0 a0 3e
       0.30922237 0.101030596 0.61824226 0.31396785
0002f0 9c dd 12 3f 98 40 38 3e cf 78 52 3d ff 88 84 3e
       0.573694 0.1799339 0.051384743 0.2588577
000300 da 5a 1f bc 2d 4f 77 3f e8 d5 17 3f eb 44 5c bf
       -0.009726251 0.9660519 0.5931077 -0.8604266
000310 b5 8d 8b 3e b7 1a 45 bd c6 44 c0 bc ea a9 ba 3e
       0.2725655 -0.04812118 -0.023470294 0.3645776
000320 11 8c 94 be fd 3a 36 be d4 d5 3f 3e ea 67 24 3f
       -0.29013112 -0.1779594 0.18733913 0.6422106
000330 87 7f 87 bd f2 9b 4b 3e cb 41 a4 3e e4 47 5b 3c
       -0.06616121 0.19883707 0.32081446 0.013383839
000340 24 fc 0c bd 4c 6b ed 3e 99 a9 e0 3d e9 92 4d 3e
       -0.034420148 0.46370924 0.10969848 0.20075573
000350 1d 39 c4 3e 89 f4 5d 3e 79 04 57 3f d6 6d 38 3e
       0.38324824 0.21675314 0.839912 0.18010649
000360 a6 0e 87 3e ee 28 8e 3e cd 81 3a 3e 34 ec 0b bf
       0.26378363 0.27765602 0.18213578 -0.5465729
000370 d0 3c 68 be 4c 02 e0 3e bf 53 d6 be ef 46 ce bd
       -0.22679448 0.43751752 -0.41860768 -0.10072123
000380 52 b2 4e 3f 90 53 b6 3c a1 c7 f8 be 75 55 94 be
       0.80740845 0.022256643 -0.48589805 -0.2897145
000390 4a c9 0f be 64 92 9b be e6 c0 1d bf a8 3f 7b bc
       -0.1404163 -0.30385125 -0.61622465 -0.015335001
0003a0 12 7f 25 3e 57 f7 bc bd 37 48 b2 be 80 74 a0 bc
       0.16161755 -0.09226864 -0.3482072 -0.019586802
0003b0 e5 3d 83 3e 05 f7 c9 bf 34 6e 13 3e 85 03 25 3e
       0.2563316 -1.5778509 0.14397508 0.16114624
0003c0 60 99 47 be 56 7c 5b 3d 48 f7 26 3d b0 9c 33 bf
       -0.19492102 0.053585373 0.04076317 -0.7016096
0003d0 c1 f7 42 bf 52 29 52 3f bf 73 a9 3e f6 a3 0b bf
       -0.7615929 0.820943 0.3309612 -0.5454706
0003e0 16 1f 2a bf 0a e1 7d 3e d7 78 88 3d 3c 6d d8 bd
       -0.66453683 0.24792877 0.06663673 -0.1056771
0003f0 ef b7 99 3e 96 62 b0 3e 63 31 c8 3e 1d a9 2c 3f
       0.30023143 0.34450215 0.3910018 0.67445546

lstm.weight_hh_l1 f4 [256, 64]
000000 7b d1 66 3e 96 81 cf 3d 4d 41 7c 3e 39 59 d8 3e
       0.22540848 0.101321384 0.24634285 0.4225557
000010 0b 00 c4 bf 89 13 f7 3e 6c e4 0c 3f fa 86 4b 3e
       -1.5312513 0.48257092 0.55036044 0.19875708
000020 dd 79 d7 3e e1 10 03 3f 10 b0 65 3e be 54 7b 3e
       0.42085162 0.5119763 0.22430444 0.24544045
000030 e9 1f 24 3f cf ee e4 be eb 40 ff bc 1b 63 8e 3f
       0.6411119 -0.44713446 -0.031158885 1.1123995
000040 39 e6 2b bf 8c e9 c4 3e e9 93 a6 be 92 34 f4 3e
       -0.67148167 0.38459432 -0.32534721 0.47696358
000050 e2 14 a2 be 5e d3 2a bf ad 1b 70 3f 61 a5 3b bf
       -0.31656557 -0.6672877 0.9379223 -0.73299223
000060 2e c0 73 bf 63 a0 10 3e e3 30 2a 3f c1 27 76 3f
       -0.9521512 0.14123683 0.66480845 0.9615441
000070 3c 1e 5b bf 20 94 22 bf af 29 42 3f f0 b8 85 3e
       -0.8559301 -0.6350727 0.75844854 0.2611766
000080 7f ec 23 bf 6f 9f 0f bd 9f e9 88 be 9b c1 80 3e
       -0.6403274 -0.035064157 -0.2674074 0.2514771
000090 ed ee 5d 3e 01 ed 3e bf 3b e5 1b 3e b2 73 de 3e
       0.21673174 -0.7458039 0.15224163 0.43447644
0000a0 57 88 67 be 4c d2 75 be 20 84 d1 be f8 6b 83 3e
       -0.22610603 -0.24006003 -0.40921116 0.2566831
0000b0 22 0e 89 bf 2d 3e 96 be 6f dd 26 be 8e bd 36 3f
       -1.0707438 -0.2934431 -0.16295408 0.7138299
0000c0 f9 8d 02 bf 6f 6b 06 bf 56 12 3d bf 92 06 ee 3e
       -0.50997883 -0.5250768 -0.73856103 0.46489388
0000d0 af b3 29 3f 4b 86 e0 bf 4a a2 9e bf 40 dc 3a bf
       0.662898 -1.7540983 -1.2393277 -0.72992325
0000e0 4c 17 86 be 3e 73 84 3d 59 f4 d0 3e 38 d4 6a be
       -0.2618965 0.06467293 0.40811422 -0.22932518
0000f0 a8 b5 94 bf 5a 5b ac bf 9a 31 1d bf 15 3b b5 3e
       -1.1617937 -1.3465378 -0.6140381 0.3539664
000100 a5 b8 7b 3e a1 fc bc 3d 7f b2 c3 be 3a e4 81 be
       0.24582155 0.09227873 -0.3822212 -0.25369436
000110 22 ef 1f bf 5c c3 f8 be b5 33 20 3e 67 66 e3 be
       -0.6247426 -0.48586547 0.15644725 -0.44414064
000120 ac 8a 34 3f fb f6 ca 3e 51 1a 1d 3f 97 fc 6c 3e
       0.70524096 0.39641556 0.6136828 0.2314323
000130 01 40 34 3e ac 3c af 3e 50 b9 a8 be d9 f0 f3 3e
       0.1760254 0.34225976 -0.32953882 0.4764469
000140 5d 33 19 be cc 40 9a 3d 4f 46 b3 3e 14 88 45 be
       -0.14961 0.0753189 0.3501458 -0.19290191
000150 8b a7 61 be 9e 7e f5 be 58 68 84 be ed 46 c9 bd
       -0.22036569 -0.47948164 -0.25860858 -0.09827981
000160 fd a9 0d 3f 66 59 35 3f 7d db 04 bf aa 30 90 bb
       0.55337507 0.70839536 -0.5189741 -0.0044003325
000170 d5 5c 02 bf 25 cb 60 be 18 0f 24 3f a7 9d 51 3f
       -0.509229 -0.21952493 0.6408553 0.81881183
000180 41 5d 5c be 37 53 b9 bd 6b 75 08 be fa cb 07 3f
       -0.21519949 -0.09049075 -0.13326041 0.5304562
000190 13 46 34 3f 8f 08 56 be af e3 e9 3e f6 06 c4 be
       0.70419425 -0.20901702 0.4568152 -0.3828656
0001a0 c7 10 90 3e 87 94 14 bf b9 1d 92 be 7f a1 25 bf
       0.281378 -0.58039135 -0.28538302 -0.6469955
0001b0 ff a4 d3 be a4 8e ab 3d 21 f7 73 3e ec 8b df be
       -0.4133682 0.08376816 0.23824741 -0.4366144
0001c0 ba 99 43 be 9c 3d 63 bf c6 95 db bf 58 eb 38 be
       -0.19101611 -0.88765883 -1.7155082 -0.18058527
0001d0 39 a7 d2 3e 4f ca 83 3e ab 11 61 bc 46 6c a1 be
       0.41143206 0.25740287 -0.0137371225 -0.3152792
0001e0 13 e7 29 3f 1a 6f 27 3e 32 7d 14 bf 37 1a b0 3d
       0.66368216 0.16350976 -0.5800353 0.0859875
0001f0 52 db a0 bf e4 fc fe be d4 78 2f 3f 38 20 7a 3e
       -1.2566931 -0.49802315 0.68543744 0.24426353
000200 0a d3 cb be fb fe 67 3f a8 9d 58 3f a6 43 24 3f
       -0.39809448 0.90623444 0.84615564 0.64165723
000210 d9 53 54 be 75 2e b3 be 7a da 1d bf cf 24 d5 3f
       -0.2073511 -0.3499638 -0.61661494 1.6651858
000220 2c 60 d1 3e 0c 4d 8c be 60 ec de bd 00 f0 35 3f
       0.40893686 -0.27402532 -0.10884929 0.71069336
000230 12 a4 20 3f f6 6f 1c bf 7a 08 60 3e c1 29 81 3d
       0.6275035 -0.6110834 0.21878234 0.06306792
000240 f5 68 da be 3f 53 2a be 47 2e c4 bf 96 fa 3a 3e
       -0.426582 -0.16633318 -1.5326623 0.18259653
000250 68 72 36 3e f3 e8 c1 bd 5f 1d e6 3d e8 dc 3c bf
       0.1781708 -0.0946826 0.11236071 -0.73774576
000260 e5 40 20 3f 50 48 d0 bf 14 39 c9 3e 64 cc c9 3e
       0.6259902 -1.6272068 0.3930136 0.3941375
000270 fe 5e 2e 3f 6c 82 24 3f 89 f5 c2 be d4 f8 3c bf
       0.68113697 0.6426151 -0.38077953 -0.7381718
000280 64 ac 14 3f 61 5a 3a bf 8d ac 2e bf 60 67 86 be
       0.5807555 -0.7279416 -0.6823204 -0.26250744
000290 7a f1 e0 be 1c 03 52 bf ef f3 b0 3e 4d 8b 9d be
       -0.43934232 -0.82035995 0.34561107 -0.3077034
0002a0 15 2e cd be c0 68 94 bd 93 51 ee 3e 7a 03 84 3e
       -0.4007422 -0.07246542 0.4654661 0.25783902
0002b0 09 97 a5 3d b5 39 2e 3f 33 20 93 be cc f9 aa be
       0.08085448 0.68056804 -0.28735504 -0.33393705
0002c0 1b 2b 8e 3e 86 f7 34 bf 0a c1 b9 be d7 19 6a bf
       0.27767262 -0.7069019 -0.3628009 -0.9144568
0002d0 42 00 dd bd a7 66 1b bf 99 ea 4d 3e dc 75 3e 3f
       -0.10791065 -0.6070351 0.20109023 0.7439859
0002e0 62 3f 40 3c 73 0c 0d bf de 0d a4 bf 25 6d 78 3e
       0.011733862 -0.5509712 -1.2816732 0.24260385
0002f0 5d 8e 7c be 9f 21 c6 3e 93 76 59 3e 12 fc 97 3e
       -0.24663682 0.38697526 0.21236639 0.29684502
000300 45 60 22 bf 70 e7 50 be 5f 22 ad 3e 3c 2a d7 bd
       -0.63428146 -0.20400786 0.33815286 -0.105061024
000310 c3 bb b3 be db c1 fd 3e c0 b0 2d bf e6 0c 2e 3e
       -0.35104188 0.49561962 -0.67847824 0.16997108
000320 de c5 15 3f 3c c2 1c be 57 b1 e8 bd 9c 53 65 be
       0.58505046 -0.1530847 -0.1136195 -0.22395176
000330 d0 c9 b4 bf 39 8a 04 bf 33 08 c1 3e ec 12 b6 3f
       -1.4124088 -0.5177341 0.37701568 1.4224524
000340 29 2f 43 3e b0 0f bd be 95 a6 e6 be a7 4d 63 3f
       0.19060959 -0.3692603 -0.45048967 0.88790363
000350 09 00 d8 be dc b3 20 bf 67 1b 43 3e 0b 07 33 bf
       -0.42187527 -0.62774444 0.19053422 -0.6993262
000360 0c b1 d7 bd 94 50 cc bf 27 fd 09 be 15 a4 9b bd
       -0.10531816 -1.596209 -0.13475476 -0.075996555
000370 7c 2d dc 3c 43 76 bc bd 9f 1d 06 3c 18 b7 6b 3f
       0.026877157 -0.09202244 0.008185773 0.92076254
000380 0f 7b a9 3f f2 2f 4a bd 3d bd ef be b5 8b f7 3e
       1.324068 -0.04936213 -0.46824065 0.48348776
000390 e9 a3 89 3f 20 a2 d2 bd c5 a0 1b be 44 52 60 bf
       1.0753146 -0.10284829 -0.15198047 -0.8762553
0003a0 d8 02 b5 be c4 ba 30 be 09 9b 95 3e 3c 4d 7a be
       -0.35353732 -0.17258745 0.29219845 -0.24443525
0003b0 3d 22 a6 be be e4 a3 be c3 a2 b7 3e b2 cd 56 3e
       -0.32447997 -0.32010454 0.35866365 0.20976904
0003c0 df ac 91 3e 3c 87 49 3e f1 c4 85 be 77 2d 70 bf
       0.28452203 0.19680494 -0.26126817 -0.93819374
0003d0 40 8f ab 3e 9b 06 31 bf de 9c 86 bf 54 af b6 bd
       0.3350773 -0.69150704 -1.0516622 -0.0892016
0003e0 e2 b9 7a bc c2 be 19 3f a2 19 34 3e 52 01 09 3d
       -0.015303107 0.600567 0.17587903 0.033448525
0003f0 b8 ef 14 3e e9 2e 20 3e 58 4e b6 3d 48 d1 4f 3e
       0.1454457 0.15642895 0.08901662 0.20294678

lstm.bias_ih_l1 f4 [256]
000000 e8 65 c8 3d e7 96 de 3d 0a 86 85 3e 46 21 d4 3e
       0.09785062 0.10868626 0.26078826 0.41431636
000010 77 43 33 3e df 68 2d 3e 27 07 be 3d a9 42 1f 3f
       0.17506205 0.16934536 0.09278708 0.6221109
000020 00 da d1 bb c3 ef 28 3e 82 e5 e8 3e 9a 29 05 3f
       -0.0064041615 0.16497712 0.454876 0.52016604
000030 30 b1 a0 3e 60 69 6e 3e 7d b3 bd 3e 18 7b 87 3e
       0.31385183 0.23282385 0.37051 0.264611
000040 bd c2 93 3d f0 03 85 3e 3b dd 0f 3e db e7 b6 3e
       0.07214878 0.25979567 0.14049236 0.35723767
000050 71 47 8e 3d 22 65 d9 3e 91 4c 40 3e 35 0f ba 3d
       0.0694722 0.4245997 0.18779208 0.09084932
000060 b9 b7 33 3f b2 63 8f 3e 8b 1e 92 3e a2 c6 8a 3e
       0.70202214 0.2800575 0.28538927 0.2710467
000070 41 89 98 3e d1 8a a2 3e 04 13 78 3e 68 26 e4 3e
       0.29792216 0.31746534 0.24226004 0.44560552
000080 13 f9 17 3f a9 ae 45 3f 81 45 ae 3e 34 fe a4 bd
       0.5936443 0.77219635 0.34037402 -0.08056298
000090 1b f3 22 3e d4 3f 91 3e 9d 34 a4 3e 9b ce 1c 3f
       0.1591305 0.2836901 0.3207139 0.61252755
0000a0 10 08 00 bd c2 b2 c2 3e c8 5f ef 3d 4b 47 b0 3d
       -0.03125769 0.38027006 0.11688191 0.08607348
0000b0 d4 96 13 3e 32 c4 4c be 8e 58 25 3f 5b 80 07 3c
       0.14413005 -0.19996718 0.6458825 0.008270348
0000c0 dd ba 13 3f 12 27 be 3e c7 ed cc 3e 4e b9 85 3e
       0.57707006 0.37139183 0.4002516 0.2611794
0000d0 c5 e7 0c 3d a3 65 41 3e d9 92 cb 3d fa 75 d3 bd
       0.03440072 0.18886428 0.09940118 -0.103252366
0000e0 19 2d 78 3e 78 90 9e 3e 24 6d 49 3e 92 28 f6 bc
       0.24235953 0.30969596 0.1967054 -0.030048642
0000f0 2f 7f 8c 3e 3c cd 61 3d 52 1c 3a 3e 7f 43 c0 3e
       0.27440783 0.055127367 0.18174866 0.37551495
000100 4f 85 82 be 24 b5 af bd 10 0d ff bd 37 8a 28 bd
       -0.2549233 -0.08579472 -0.12453663 -0.041147437
000110 c8 ba 3f 3e f1 9f bb 3e 3e 7c 35 3e f5 60 25 be
       0.18723595 0.36645463 0.17723176 -0.16150267
000120 3b e0 93 3e 91 fc 34 be f9 73 a3 3e d4 ec 0f be
       0.28882012 -0.17674471 0.31924418 -0.14055187
000130 3d c8 2a 3b eb 0e 0d be a0 8f 8b 3e 88 33 6b 3e
       0.0026059293 -0.13775222 0.27258015 0.22968876
000140 68 f4 da 3e d0 dd 11 bd 1d fa b7 3e cc 96 43 be
       0.42764592 -0.035611928 0.3593301 -0.19100493
000150 42 bf e0 be 6f ea d1 be 70 16 e3 bb f9 18 e1 3e
       -0.43895918 -0.4099917 -0.006930165 0.43964365
000160 7f 4d fd 3d 73 ec 10 3f d0 7c 8c 3d 44 f0 50 bd
       0.12368297 0.5661079 0.068597436 -0.051010385
000170 84 10 ae 3e 13 79 ac be c1 e4 04 3f c2 84 28 3d
       0.33996975 -0.33686122 0.5191155 0.041142233
000180 b5 fe 7a be 77 3f 6b be b9 7c 09 3e f3 8e 21 3e
       -0.24511226 -0.22973429 0.13426484 0.15777187
000190 e9 82 50 be 72 9a ba 3d 67 c8 fa 3d c7 0a 39 be
       -0.20362438 0.09111489 0.12245255 -0.18070517
0001a0 f7 c5 44 3c 22 29 28 be dd f5 c3 3e 74 64 b1 be
       0.012010089 -0.16421941 0.38273516 -0.34646952
0001b0 05 0e 87 3d 85 eb fa bd ec 5f 84 3d ce 86 9b bd
       0.06594471 -0.12251953 0.06463608 -0.07594071
0001c0 31 b2 b2 bc 72 bf 74 3e 22 10 08 3d 59 21 5b 3d
       -0.021813484 0.23901156 0.03321851 0.0534986
0001d0 29 f5 5e be 5e bf 7d 3e d2 cd 63 3d 0d d9 bf 3e
       -0.21773209 0.24780032 0.055616207 0.37470284
0001e0 4d f2 06 be c7 96 c7 be 36 b7 fd 3e b0 b8 28 3e
       -0.13178368 -0.3898222 0.4955384 0.16476703
0001f0 56 09 22 be 96 19 88 be c8 b7 90 be 6a 9b 12 3d
       -0.15823874 -0.2658202 -0.28265214 0.035792746
000200 f7 29 f5 bd 6b 9e 0d 3e e6 d3 8e be 98 02 ae be
       -0.11970895 0.13829963 -0.2789604 -0.33986354
000210 d5 ed fd bd 43 12 1b be e9 44 34 be 1f 7a b5 be
       -0.123988785 -0.15143685 -0.17604412 -0.35444734
000220 71 a2 ec be 24 01 2b 3e 73 3b 23 3e 2e 4c 7d bd
       -0.46217683 0.16699654 0.15940647 -0.06184023
000230 0c c4 53 3e fd f1 0e ba e8 6a b7 3d 25 29 89 bc
       0.20680255 -0.0005452929 0.089559376 -0.016743252
000240 25 cf cd 3d 5f eb c0 3c 6f 68 8a be c6 69 f3 bd
       0.10049275 0.023549734 -0.27032802 -0.11885409
000250 aa ae 2f 3e d8 8b 00 be 67 d2 57 3e 91 1f ab bd
       0.17156473 -0.12553346 0.21076356 -0.0835563
000260 a4 d1 af 3e 66 c1 8b 3d 4d c5 02 3d f4 c7 35 3c
       0.3433963 0.06823997 0.031926442 0.011095036
000270 f4 8f b9 3d 9f a3 1a be 86 4a 36 3d 60 13 c5 3c
       0.0906066 -0.15101479 0.044504665 0.02405709
000280 71 3b 1e be c3 9e 26 be ca 8f 5e 3e 31 52 e0 3c
       -0.15452363 -0.162715 0.21734539 0.027382942
000290 39 65 72 3c 7e de c0 3d 6f b1 83 3c 97 ca 93 3d
       0.014794641 0.09417437 0.016075818 0.07216375
0002a0 7c be ab 3d 62 6f 4c be e2 7e 8c be 2d dc c4 3e
       0.083859414 -0.19964364 -0.27440554 0.3844923
0002b0 de 3f 01 be 4c 78 56 bd 16 e6 e8 3e 27 30 90 bd
       -0.1262202 -0.052360818 0.45488042 -0.07040434
0002c0 8a af b0 be 75 ef 6f be 13 aa 8f bd 65 7a 43 be
       -0.34508926 -0.2343119 -0.07014861 -0.19089659
0002d0 1b 1c 03 3d 6d 90 60 3b 3c 45 38 3e 55 8c e7 bd
       0.032009225 0.0034265772 0.17995161 -0.11306063
0002e0 76 f7 29 3e 11 aa 8f bd e6 d3 c6 be bb 6a 1c 3e
       0.16598305 -0.070148595 -0.3883354 0.1527509
0002f0 ce 1e ef 3d 0d 63 16 be 8a 05 73 3e c4 ae 89 3e
       0.116757974 -0.14686222 0.23732582 0.26891148
000300 f1 ec 44 3d c0 7e 06 3e c6 32 e0 3e 8a 23 b0 3e
       0.048077527 0.13134289 0.43788737 0.34402114
000310 ac 31 c2 be 9e 1b 99 3e 37 cf 9d 3e 32 0a 1c 3f
       -0.37928522 0.29903883 0.30822155 0.60953057
000320 48 54 89 be c8 ea 28 3f d9 9b fd 3e b6 ed 6e 3f
       -0.26822114 0.6598325 0.49532965 0.9333147
000330 c6 57 45 3d 86 84 ea 3e 5a 2f e7 3e 6e dd 22 be
       0.04817941 0.45804232 0.45153314 -0.15904781
000340 78 8b 28 be d2 5c cc 3e 54 df bb 3e 9c c5 27 3f
       -0.16459453 0.39914566 0.36693823 0.655359
000350 74 8a b7 3e 3c f0 9d 3e 1f 92 1c 3e c3 fa d5 3e
       0.3584782 0.30847347 0.15290116 0.41792879
000360 19 f9 03 bc 9a 5e b3 3e a7 0d 1f 3e 68 50 6d 3d
       -0.008054995 0.35033113 0.15532552 0.05793801
000370 77 b4 e7 bd 25 be 3a 3e 2b 74 cd 3d d7 c4 0a 3f
       -0.11313718 0.18236597 0.10031923 0.54206604
000380 c5 6d 48 3e e1 6f 8a 3c ff 60 aa 3e 72 2a 71 3e
       0.19573124 0.016899051 0.33277127 0.23551348
000390 e0 13 2a 3e 73 d0 46 3e 55 f6 4e 3f 3e 3c 0e 3f
       0.16609144 0.19415455 0.8084462 0.5556067
0003a0 44 94 06 3e c4 4b cc 3e 55 29 f0 bd be 11 9e 3e
       0.13142496 0.39901555 -0.117266335 0.3087291
0003b0 1f 0e 55 be 41 00 cb 3e 9b 87 10 3e 70 54 98 3e
       -0.20806168 0.3964863 0.1411423 0.2975192
0003c0 2b 08 48 3f d7 90 fd 3d 82 fc 74 3d 00 77 b2 3d
       0.78137463 0.12381142 0.059811123 0.08714104
0003d0 06 4f b0 3e 97 86 ec bd b1 95 92 be 29 b3 af 3d
       0.3443529 -0.115491085 -0.2862983 0.08579094
0003e0 1a 86 a3 3e 98 22 ec 3e 25 8a 12 bd 89 30 84 3e
       0.3193825 0.46120143 -0.035776276 0.2581828
0003f0 2e ff 16 3f 61 00 06 3f 3f b8 b6 3e 59 9c ad 3e
       0.58983123 0.5234433 0.35687444 0.33908346
