model/epoch_537.pth (torch, 500259 bytes, 18 tensors)

lstm.weight_ih_l0 f4 [256, 20]
-0.8059874 0.020366587 -0.8984245 -1.0409296 -0.43276647 0.54478407 0.87274534 0.54806113
0.26231197 0.935259 -0.15007553 -0.57784075 -0.5698151 0.9391636 -1.0017428 0.26793945
-0.65048355 1.088425 0.21996522 0.9691717 -0.735415 2.0650983 1.2977313 0.99804145
0.48914686 1.0475718 0.055081807 -0.9136008 0.03552503 -0.4131722 -0.50332904 0.6730435
0.04630331 -0.84434193 -0.4828185 -0.99850816 -1.3617681 1.3828808 -1.3498399 0.49702314
-0.29348275 0.030826956 -0.20677093 -0.013174625 1.1236875 0.36876422 0.3464225 0.9101348
0.31405258 -0.47066888 -0.8109566 -0.43851927 -0.08346209 -0.6229179 0.19686277 0.45614147
0.3823358 0.14721195 0.0698096 -0.21349144 0.99870634 1.7066094 -0.41928247 0.55284023
-0.23572545 0.45106176 -0.22397292 -0.6430887 1.3918377 -0.9126022 -0.08277322 0.12112544
-0.27056813 0.09806537 0.15631284 0.40325996 1.4735645 -1.6829355 0.33443534 -1.059257
-0.34999165 0.84602076 2.0915496 0.54830885 -1.7649559 -0.29891294 -0.11809215 -1.5219773
-0.50546294 3.0903842 0.069955766 0.71606386 0.91096735 -0.28494436 -0.11903122 -0.2592087
-0.11607189 0.78080016 -0.94406587 -0.42442107 -0.3712305 -1.898567 1.4718496 -0.38104218
1.085422 0.21236844 -0.074268036 -0.48746866 -0.7698796 0.6130931 0.35143176 -0.21071416
-0.13337153 -0.3034196 -0.9771345 0.14508098 1.3666276 -1.162178 0.094575375 1.0819727
-2.1039839 1.4831908 -0.17766172 2.217979 -0.46910363 -0.64429396 -0.42885938 0.96395034
-0.5312084 0.24514546 0.15002586 0.6280577 0.51261955 -0.27927974 -0.09078877 1.3039954
0.00033913206 -0.10772801 -0.8327583 0.33333403 0.25126302 -0.43559024 1.217501 -1.7712464
-0.04413383 0.29519174 0.6743384 -0.96060777 -1.5112226 0.905712 -0.7057441 0.32915482
-0.19287871 0.8443573 0.40670517 -0.2213265 1.7981378 -0.6544067 -1.0393717 0.71940964
-0.3102241 0.6532057 0.93556523 0.9858152 -1.7483554 -1.7776822 0.5164182 1.1751425
0.2499406 0.20646653 1.3318634 -0.38357335 -1.0702963 -0.71959364 0.31062633 -0.18090598
0.8875541 0.57263166 -1.393067 0.8158526 -0.10316466 0.58006436 0.826494 1.107771
0.6488992 -0.25702026 -1.119225 0.07082651 -1.67879 0.48449025 -0.3835576 1.0982631
-0.9072358 1.0369881 0.2885403 0.09637959 -0.7993618 1.0211945 1.3207027 -0.5275188
1.3757733 -1.828796 -0.26474595 -1.1584351 -0.5803992 -0.08643135 0.11427871 0.18130244
-0.08128737 -0.6088179 -1.4715731 1.6308812 -0.12634914 -1.0255653 0.24753977 -0.09887197
-0.78924817 1.8534304 -0.4058115 0.176124 2.167843 1.2145052 -0.12048785 1.483398
0.60726273 0.6471573 -0.30272084 -0.21386625 0.05039222 0.08560588 0.36647823 0.6375001
-0.2926981 -0.8668252 -0.54515433 0.3107241 0.1237208 -0.06988397 2.6740928 -0.8377192
-0.30840212 1.4384636 1.8399807 -0.026890231 1.5187355 0.7041637 0.8734672 -0.6041039
0.511362 -1.0629206 0.46402287 0.8798013 -0.20690079 0.058284312 -0.3704809 0.15328616
00000000: 3155 4ebf d4d7 a63c 26ff 65bf 2e3d 85bf
00000010: 9193 ddbe f876 0b3f 3d6c 5f3f bc4d 0c3f
00000020: c14d 863e 226d 6f3f 66ad 19be 5fed 13bf
00000030: 67df 11bf 076d 703f 1c39 80bf 5c2f 893e
00000040: 1786 26bf 8351 8b3f 903e 613e a31b 783f
00000050: 2844 3cbf 922a 0440 0f1c a63f a57f 7f3f
00000060: 7571 fa3e d516 863f 769d 613d bee1 69bf
00000070: b282 113d 4e8b d3be 2cda 00bf 944c 2c3f
00000080: 8aa8 3d3d cb26 58bf fd33 f7be 3b9e 7fbf
00000090: 6b4e aebf 3d02 b13f 8ec7 acbf d179 fe3e
000000a0: 5f43 96be d088 fc3c c2bb 53be 62da 57bc
000000b0: fed4 8f3f aace bc3e 4a5e b13e 98fe 683f
000000c0: 80cb a03e 83fb f0be da9a 4fbf 9985 e0be
000000d0: 2cee aabd 8c77 1fbf 6596 493e 608b e93e
000000e0: 85c1 c33e bbbe 163e 56f8 8e3d 809d 5abe
000000f0: 38ab 7f3f 2d72 da3f 31ac d6be f086 0d3f
00000100: 0362 71be 91f1 e63e 2859 65be 76a1 24bf
00000110: bd27 b23f 4ca0 69bf 0285 a9bd 9d10 f83d
00000120: e887 8abe 7fd6 c83d 7910 203e 1778 ce3e
00000130: c39d bc3f 6e6a d7bf 1c3b ab3e bc95 87bf
00000140: 1b32 b3be d194 583f f3db 0540 f85d 0c3f
00000150: 13ea e1bf 1e0b 99be 4cda f1bd 27d0 c2bf
00000160: 0566 01bf dbc8 4540 f844 8f3d f64f 373f
00000170: 2835 693f 3ae4 91be a4c6 f3bd 01b7 84be
00000180: 19b7 edbd 85e2 473f 4dae 71bf b84d d9be
00000190: ed11 bebe 3e04 f3bf 9165 bc3f f617 c3be
000001a0: 1cef 8a3f 1d77 593e d719 98bd 7e95 f9be
000001b0: d416 45bf abf3 1c3f ddee b33e 74c5 57be
000001c0: 8c92 08be d059 9bbe 7d25 7abf 1c90 143e
000001d0: a7ed ae3f 40c2 94bf bcb0 c13d 157e 8a3f
000001e0: aca7 06c0 32d9 bd3f f4ec 35be 5ef3 0d40
000001f0: 5a2e f0be 73f0 24bf 7593 dbbe 73c5 763f
00000200: 46fd 07bf 6907 7b3e 61a0 193e 64c8 203f
00000210: 093b 033f c1fd 8ebe 76ef b9bd 52e9 a63f
00000220: 89cd b139 81a0 dcbd a62f 55bf c2aa aa3e
00000230: 8ca5 803e af05 dfbe 13d7 9b3f 34b8 e2bf
00000240: adc5 34bd 5f23 973e 71a1 2c3f 64ea 75bf
00000250: be6f c1bf bedc 673f a5ab 34bf fb86 a83e
00000260: ff81 45be cd27 583f a93b d03e 6aa3 62be
00000270: 6129 e63f 3387 27bf 220a 85bf 3b2b 383f
00000280: b1d5 9ebe 7d38 273f 3481 6f3f 635e 7c3f
00000290: 1cca dfbf 178b e3bf fc33 043f 126b 963f
000002a0: 6ef0 7f3e f66b 533e 807a aa3f ba63 c4be
000002b0: 78ff 88bf 4a37 38bf 6a0a 9f3e 6b3f 39be
000002c0: bf36 633f fd97 123f 0550 b2bf b7db 503f
000002d0: fe47 d3bd 197f 143f 1c95 533f 71cb 8d3f
000002e0: 421e 263f 2998 83be c442 8fbf 7d0d 913d
000002f0: 97e2 d6bf 1b0f f83e a961 c4be e393 8c3f
00000300: 9b40 68bf 07bc 843f 8ebb 933e aa62 c53d
00000310: faa2 4cbf 80b6 823f c90c a93f 790b 07bf
00000320: 5719 b03f fd15 eabf c88c 87be 9a47 94bf
00000330: 0b95 14bf eb02 b1bd f50a ea3d 59a7 393e
00000340: fe79 a6bd 7ddb 1bbf 825c bcbf b7c0 d03f
00000350: ab61 01be b945 83bf 117b 7d3e 637d cabd
00000360: 2b0c 4abf 353d ed3f 86c6 cfbe da59 343e
00000370: f1bd 0a40 e874 9b3f 55c2 f6bd fcdf bd3f
00000380: 9275 1b3f 1aac 253f 3afe 9abe c1ff 5abe
00000390: 1368 4e3d 2352 af3d 09a3 bb3e 3533 233f
000003a0: 86dc 95be 42e8 5dbf 3c8f 0bbf 3b17 9f3e
000003b0: 5561 fd3d 541f 8fbd 5624 2b40 c474 56bf
000003c0: e2e6 9dbe 931f b83f 7d84 eb3f e748 dcbc
000003d0: ed65 c23f 1244 343f 8c9b 5f3f 8ea6 1abf
000003e0: 9fe8 023f c80d 88bf 6894 ed3e a83a 613f
000003f0: cddd 53be 88bb 6e3d acaf bdbe 0cf7 1c3e

lstm.weight_hh_l0 f4 [256, 64]
0.617716 0.3778004 -0.5973905 -0.43575087 -0.41329506 0.72441494 -0.111610845 -0.067672044
-0.31377673 -0.16650984 0.4009459 -0.4170433 -0.0032830848 0.1292608 -0.53592 0.66035527
0.17388804 -0.1442284 0.17305343 0.3324325 0.073136635 0.5362996 0.17015089 -0.00030789198
-0.012022821 0.39417115 0.6142922 -0.08175597 -0.66510594 0.09887707 -0.19382429 0.09491656
-0.011842177 -0.66652364 -0.41597772 -0.14725402 0.57214344 0.58639985 0.059677247 -0.7068872
-0.8907497 -0.04876221 -0.2569295 -0.44337958 -0.037842494 -0.54792714 0.3866616 0.25601852
1.2884111 0.7211734 -0.08145267 -0.47685066 0.499797 1.2185589 -1.0173305 0.42728692
-0.24152069 0.54160374 -0.3454975 0.15798306 -1.2970951 -0.5590613 -0.28433844 0.10128662
0.18304133 -0.1828178 0.11621115 -0.99353874 0.034853615 -0.16538365 0.58287585 0.0025884851
0.66423553 0.73400843 -0.03897467 0.30919397 0.66495615 -0.101011366 -0.511862 0.36905286
-1.0367535 0.5198349 0.13780136 0.55452186 -0.7334067 -0.4544321 -0.2445667 0.57522136
0.2434985 0.2821606 0.17153649 0.1718299 -0.8462492 -0.34606776 0.07821877 -0.17208911
-0.8571553 -0.047466286 0.08281597 -0.7163939 0.25131953 -0.02304739 0.6620837 0.48941064
0.14636682 0.5012729 -0.50694305 0.12706451 -1.2590035 0.15076882 -0.5162959 -0.34336236
0.17932822 0.13215831 -0.13410388 0.13637626 1.1493078 0.3305807 0.31480303 -0.10223875
-0.22297345 -0.5999901 0.16878206 0.5557375 0.19914913 0.7511903 -0.22023453 0.15848002
0.7639529 -0.29855755 -0.117887236 0.025208231 -0.42316017 0.4234668 0.15766321 -0.36886206
-0.0062477347 -1.0384369 -0.06603057 0.25170195 0.52447146 0.1102439 0.008181959 0.37874344
-0.121246286 -0.7506729 0.057913247 -0.21306072 -0.55011237 -0.40966418 0.26624182 -0.2930032
-1.0798571 0.29639298 0.65137994 0.3092018 0.18626058 -0.6268275 -0.3873063 -0.19978184
0.20540546 -0.36144218 0.5455256 -0.6098944 -0.24791098 -0.63047194 0.43035212 0.9434892
-0.5075507 0.1030659 -0.1935882 0.21215495 -0.036901228 0.16663526 0.8651232 -0.12429014
-0.5297148 0.121269815 0.4643365 0.06358054 0.222206 0.28639397 0.14212349 0.3654708
-0.19285889 -0.83343583 -0.21011932 0.5381737 -0.6563306 0.085397676 0.050707433 -0.80107313
0.085568294 0.1712517 0.58429325 -0.7597296 0.37156412 0.005960958 -0.64637375 0.8915979
0.29894808 -0.38938656 -0.21665211 -0.23346391 -1.1085409 0.07477493 0.17749535 0.33544067
-0.27752116 -0.61290413 0.10126752 -0.4948095 0.09652945 0.06941687 -0.06722024 0.32130978
-0.16539524 0.3306897 -0.29230943 0.30543712 -0.67898595 -1.0087794 -0.23977852 0.3825092
0.20632407 -0.2599467 -0.8387492 0.33011934 0.41419783 -0.0678183 0.23144662 -0.26365823
0.11763787 0.008429153 -0.42233008 0.25366133 -0.847534 0.1830813 0.15207624 0.77045774
0.23106582 0.45437923 0.19321162 0.6209232 -0.21592008 -0.21580602 0.137793 0.38450944
0.29345095 0.13021706 -0.06365933 0.25734457 -0.39312696 0.4884328 0.27432096 0.17416148
00000000: a322 1e3f 0e6f c13e 95ee 18bf bd1a dfbe
00000010: 699b d3be 4273 393f 3a94 e4bd a497 8abd
00000020: 58a7 a0be 8e81 2abe c848 cd3e b386 d5be
00000030: 0629 57bb f15c 043e 0e32 09bf 0b0d 293f
00000040: b50f 323e 9cb0 13be eb34 313e 9834 aa3e
00000050: a9c8 953d ee4a 093f 093c 2e3e 906c a1b9
00000060: 5efb 44bc cdd0 c93e 4142 1d3f ad6f a7bd
00000070: 6244 2abf 1080 ca3d e079 46be 9d63 c23d
00000080: b105 42bc 4ba1 2abf 08fb d4be c2c9 16be
00000090: fe77 123f 4d1e 163f 2170 743d 8ff6 34bf
000000a0: 2c08 64bf e2ba 47bd 438c 83be a602 e3be
000000b0: bb00 1bbd f444 0cbf 82f8 c53e dc14 833e
000000c0: a8ea a43f d29e 383f a8d0 a6bd c525 f4be
000000d0: 64e5 ff3e bdf9 9b3f e337 82bf 5ac5 da3e
000000e0: 3351 77be 8ba6 0a3f 0ce5 b0be 50c6 213e
000000f0: 3607 a6bf a41e 0fbf cf94 91be 5c6f cf3d
00000100: 306f 3b3e 9734 3bbe 1d00 ee3d 8e58 7ebf
00000110: aac2 0e3d 555a 29be 5a37 153f 93a3 293b
00000120: 570b 2a3f fae7 3b3f e7a3 1fbd ac4e 9e3e
00000130: 913a 2a3f 0cdf cebd 6309 03bf 7ff4 bc3e
00000140: 57b4 84bf e613 053f cd1b 0d3e 25f5 0d3f
00000150: 8bc0 3bbf 53ab e8be b16f 7abe b541 133f
00000160: ac57 793e 5b77 903e 43a7 2f3e 2df4 2f3e
00000170: caa3 58bf cb2f b1be 2a31 a03d 2138 30be
00000180: 886e 5bbf 026c 42bd 6b9b a93d 9765 37bf
00000190: f4ac 803e e1cd bcbc 517e 293f 0894 fa3e
000001a0: 2fe1 153e 6c53 003f 05c7 01bf 331d 023e
000001b0: 0727 a1bf 2463 1a3e f82b 04bf 31cd afbe
000001c0: d1a1 373e 8254 073e 8752 09be 38a6 0b3e
000001d0: 851c 933f e041 a93e dd2d a13e 8d62 d1bd
000001e0: 2753 64be f498 19bf 34d5 2c3e d044 0e3f
000001f0: c0ed 4b3e 024e 403f 2985 61be 9648 223e
00000200: 6b92 433f 89dc 98be dd6e f1bd 7e81 ce3c
00000210: 73a8 d8be a4d0 d83e 7772 213e 7ddb bcbe
00000220: ccb9 ccbb 80eb 84bf 093b 87bd 14df 803e
00000230: c343 063f 8ec7 e13d a00d 063c a9ea c13e
00000240: f94f f8bd 192c 40bf 7136 6d3d 972c 5abe
00000250: 2ad4 0cbf 81bf d1be d950 883e 8404 96be
00000260: c238 8abf d2c0 973e d6c0 263f b34f 9e3e
00000270: 18bb 3e3e c477 20bf 034d c6be 9c93 4cbe
00000280: cf55 523e f30e b9be 91a7 0b3f 0a22 1cbf
00000290: 60dc 7dbe 9c66 21bf 1d57 dc3e 8288 713f
000002a0: d8ee 01bf 3714 d33d fc3b 46be 263f 593e
000002b0: be25 17bd 6fa2 2a3e b778 5d3f d48b febd
000002c0: 649b 07bf 4f5c f83d 84bd ed3e 8436 823d
000002d0: f889 633e 3ba2 923e d288 113e fd1e bb3e
000002e0: cd7c 45be 0d5c 55bf 8529 57be c0c5 093f
000002f0: 4805 28bf fae4 ae3d 99b2 4f3d 2113 4dbf
00000300: 6e3e af3d 9b5c 2f3e 3e94 153f a47d 42bf
00000310: a73d be3e 2454 c33b c078 25bf c33f 643f
00000320: b90f 993e ad5d c7be 0dda 5dbe 2a11 6fbe
00000330: abe4 8dbf 9923 993d 57c1 353e e1be ab3e
00000340: 4117 8ebe 49e7 1cbf 5865 cf3d ac57 fdbe
00000350: 3bb1 c53d 6f2a 8e3d c4aa 89bd b782 a43e
00000360: 5f5d 29be 2950 a93e 95a9 95be 4162 9c3e
00000370: 06d2 2dbf af1f 81bf 8088 75be 3fd8 c33e
00000380: 9e46 533e bc17 85be 44b8 56bf 6705 a93e
00000390: bd11 d43e 52e4 8abd 5800 6d3e 36fe 86be
000003a0: 20ec f03d 6e1a 0a3c a63b d8be e6df 813e
000003b0: fdf7 58bf aa79 3b3e e0b9 1b3e b83c 453f
000003c0: 859c 6c3e 65a4 e83e 44d9 453e d3f4 1e3f
000003d0: 271a 5dbe 41fc 5cbe 9c19 0d3e 6cde c43e
000003e0: 343f 963e 9f57 053e d35f 82bd abc2 833e
000003f0: f047 c9be dd13 fa3e cc73 8c3e 6357 323e

lstm.bias_ih_l0 f4 [256]
-0.106864065 0.09688194 0.30553278 0.19513339 0.57675946 0.027418263 -0.09820872 0.15684982
0.22849831 0.66495794 -0.031120865 0.084644146 0.36188066 0.31593403 0.18650949 0.4372214
0.16582917 0.40992045 0.55240136 0.27251002 0.03724728 0.27112547 0.38097435 0.42859608
-0.117790535 0.15623203 0.1305469 0.6650484 0.3983394 0.59593165 0.42260596 0.053288843
0.30130145 0.6008072 0.45773908 0.6121804 0.066933095 0.2916497 0.19460073 0.29055
0.50249076 0.17023869 0.034913268 -0.14475892 -0.11280905 0.5773047 0.691246 0.09844418
0.10549442 0.2849064 0.112076454 -0.17523997 0.24204856 0.06010809 0.2770538 0.2714039
0.17575663 0.22408241 0.32145226 0.2667486 0.21681902 0.034487262 0.5105368 0.047126602
-0.055400234 -0.19391593 0.37657192 0.11427317 0.12213444 -0.22231677 0.3932962 -0.2557895
0.02911494 -0.24896306 -0.15517317 0.2181835 -0.22220501 0.37896696 0.10726565 0.06792795
0.42448902 0.3700932 0.02387535 0.2782864 0.3976128 -0.10518998 0.09406214 -0.020276625
0.2827019 0.22772014 0.35750312 0.07901094 0.12124911 -0.1325831 0.0804124 0.2569187
0.42076433 -0.14436151 0.124102235 -0.02853151 0.060609955 0.32038283 0.015372457 0.10286081
-0.33729577 0.2761 -0.10431742 -0.14193052 -0.043462347 -0.48422864 0.040395644 -0.07278273
-0.019500298 0.28480303 -0.13229163 0.22935024 0.07173413 0.10631817 0.093261406 -0.15432927
0.14288346 0.0455312 0.17441739 0.38279632 -0.044449896 -0.3762055 0.2738125 0.18082732
0.11011515 0.049602795 0.04759779 -0.060684808 -0.12796508 -0.10448752 -0.17004052 0.06416541
0.008046442 -0.058101866 0.06780319 -0.05616226 0.0022915378 0.02515566 0.026640143 -0.107574046
0.032767586 0.06027852 0.116605416 -0.020476712 0.012119418 0.0029465542 0.005372015 0.0696078
0.16630176 -0.06966679 0.06388706 -0.033321865 0.04276514 -0.030495085 0.010002987 0.1543231
-0.13267264 0.06025937 -0.016017359 0.06492533 -0.03843321 0.07893605 -0.075597666 0.055850677
-0.03877232 -0.0369558 -0.1127627 0.04706099 0.08311889 -0.09305462 0.06482151 0.032265756
-0.03129096 0.09204732 0.061445344 0.03629886 0.013917315 -0.023524357 -0.039663516 -0.039416805
-0.020005263 0.053452577 -0.0020410984 0.15643466 -0.0035991285 -0.026906928 0.060614813 -0.0744484
0.21605398 0.237658 -0.2197693 0.092926405 0.20777285 0.48974246 0.2912957 0.596158
0.1807781 0.1921364 -0.16623747 -0.13111562 0.5180599 -0.23382811 0.13507484 0.54503644
0.1718654 -0.012674483 0.32853848 -0.10216906 -0.17760202 0.3559881 -0.04640782 0.3864404
-0.30806014 -0.2670147 0.08926122 0.44393018 0.14346229 0.50470096 0.32683375 -0.34585732
0.10793445 0.29011804 0.10330962 0.56426746 0.50145954 0.20988111 0.2415657 0.39156127
0.4786695 0.4321379 -0.03379322 0.14200345 0.2569514 0.106820434 0.15820707 0.14212985
0.29325038 0.045318663 0.35879326 0.03267732 0.4182734 0.38951233 0.20352285 0.37833396
0.22938035 0.14274122 -0.010148306 -0.04668084 0.017420629 0.33064303 -0.023335848 0.09120353
00000000: 8cdb dabd 0a6a c63d cb6e 9c3e 0cd1 473e
00000010: 82a6 133f 449c e03c a721 c9bd 3d9d 203e
00000020: 76fb 693e af3a 2a3f 2ff1 febc e959 ad3d
00000030: 6c48 b93e 1bc2 a13e 58fc 3e3e 7cdb df3e
00000040: 1fcf 293e 18e1 d13e 2d6a 0d3f 6f86 8b3e
00000050: 9b90 183d f5d0 8a3e 120f c33e f270 db3e
00000060: 2a3c f1bd 4afb 1f3e 16ae 053e 9d40 2a3f
00000070: 24f3 cb3e fa8e 183f cf5f d83e 6745 5a3d
00000080: 2f44 9a3e 80ce 193f c75c ea3e dbb7 1c3f
00000090: 3814 893d 1c53 953e 6a45 473e f8c2 943e
000000a0: 3ca3 003f 0d53 2e3e 3701 0f3d af3b 14be
000000b0: 6e08 e7bd 3eca 133f 7ff5 303f 1a9d c93d
000000c0: 750d d83d 40df 913e 5788 e53d 1b72 33be
000000d0: 94db 773e e733 763d ffd9 8d3e 74f5 8a3e
000000e0: 8cf9 333e dc75 653e 6495 a43e 4693 883e
000000f0: ce05 5e3e 8442 0d3d 8ab2 023f d307 413d
00000100: 5beb 62bd e691 46be 09ce c03e 0d08 ea3d
00000110: 9f21 fa3d 02a7 63be 1f5e c93e d7f6 82be
00000120: 7482 ee3c 2cf0 7ebe b7e5 1ebe 7f6b 5f3e
00000130: b689 63be f507 c23e 18ae db3d cf1d 8b3d
00000140: a056 d93e db7c bd3e 3d96 c33c 8e7b 8e3e
00000150: e893 cb3e d86d d7bd a7a3 c03d 2a1b a6bc
00000160: 4ebe 903e 782f 693e a60a b73e 7dd0 a13d
00000170: 7451 f83d ddc3 07be 42af a43d d98a 833e
00000180: 6c6e d73e 81d3 13be 5029 fe3d eaba e9bc
00000190: 2542 783d 3809 a43e c2dc 7b3c b0a8 d23d
000001a0: 08b2 acbe fb5c 8d3e 5fa4 d5bd 3c56 11be
000001b0: 9305 32bd d1ec f7be e775 253d 1d0f 95bd
000001c0: 17bf 9fbc b4d1 913e 7577 07be cada 6a3e
000001d0: 58e9 923d 57bd d93d d6ff be3d 7e08 1ebe
000001e0: 0b50 123e ec7e 3a3d 799a 323e e1fd c33e
000001f0: 1811 36bd 029e c0be 2731 8c3e cc2a 393e
00000200: 0d84 e13d 4d2c 4b3d e6f5 423d a290 78bd
00000210: 4709 03be 8efd d5bd 1a1f 2ebe 2869 833d
00000220: 39d5 033c 39fc 6dbd 66dc 8a3d 660a 66bd
00000230: a02d 163b 3e13 ce3c 6e3c da3c c84f dcbd
00000240: 4e37 063d 9ce6 763d d2ce ee3d c7be a7bc
00000250: 8690 463c fa1a 413b ba07 b03b 898e 8e3d
00000260: 024b 2a3e 76ad 8ebd 38d7 823d 827c 08bd
00000270: 802a 2f3d d4d0 f9bc 92e3 233c e006 1e3e
00000280: 56db 07be 87d2 763d d636 83bc 92f7 843d
00000290: 246c 1dbd 39a9 a13d f3d2 9abd aec3 643d
000002a0: b9cf 1ebd f75e 17bd 21f0 e6bd 06c3 403d
000002b0: 3d3a aa3d 6c93 bebd 24c1 843d 1929 043d
000002c0: f32a 00bd 4e83 bc3d 1dae 7b3d 1dae 143d
000002d0: 7305 643c 27b6 c0bc 3676 22bd 8473 21bd
000002e0: 14e2 a3bc 17f1 5a3d f3c3 05bb 6830 203e
000002f0: 5bdf 6bbb eb6b dcbc 3d47 783d 6778 98bd
00000300: 413d 5d3e 9e5c 733e 340b 61be 3350 be3d
00000310: 68c2 543e 86bf fa3e b624 953e d09d 183f
00000320: e51d 393e 68bf 443e 283a 2abe 2c43 06be
00000330: 939f 043f a370 6fbe 0f51 0a3e 8287 0b3f
00000340: 7cfd 2f3e a2a8 4fbc 3236 a83e 033e d1bd
00000350: 4edd 35be 1244 b63e 2016 3ebd 84db c53e
00000360: 0fba 9dbe 27b6 88be 96ce b63d d14a e33e
00000370: c7e7 123e 1534 013f c156 a73e 3614 b1be
00000380: bd0c dd3d 5a8a 943e fe93 d33d d573 103f
00000390: a75f 003f 13eb 563e 005d 773e b87a c83e
000003a0: 2b14 f53e 2e41 dd3e c26a 0abd 5a69 113e
000003b0: 228f 833e acc4 da3d 0901 223e 7d8a 113e
000003c0: ea24 963e 10a0 393d c0b3 b73e a7d8 053d
000003d0: ee27 d63e 296e c73e 4b68 503e fdb4 c13e
000003e0: afe2 6a3e c12a 123e 1545 26bc 6934 3fbd
000003f0: b5b5 8e3c 0b4a a93e d22a bfbc ebc8 ba3d

lstm.bias_hh_l0 f4 [256]
-0.070808426 -0.06458776 0.11079865 0.20818992 0.5688508 -0.01052672 -0.11447753 0.18316542
0.17601559 0.7419903 -0.23133695 0.02647274 0.35276622 0.31769112 0.26637965 0.56771964
0.0051319986 0.30601645 0.52090096 0.20052995 0.111919954 0.14631528 0.17565303 0.44073024
0.06307312 0.081219405 0.04954777 0.6465006 0.1908368 0.5845079 0.4732468 0.011359557
0.20827623 0.48060566 0.48796082 0.73634034 0.03926354 0.49417526 0.13359025 0.37523097
0.59541124 0.36295128 -0.033701163 -0.15873867 -0.14048444 0.5821363 0.76171327 0.13539916
0.24456799 0.33162415 0.19231609 -0.14421353 0.31325132 0.26871654 0.2875745 0.16674455
0.24575032 0.3023662 0.2901071 0.21450666 0.22846384 0.15626077 0.31550986 0.08194684
-0.012405661 -0.034374136 0.318467 0.097106315 0.112587914 -0.010214425 0.28322992 -0.28414398
-0.14227581 -0.25227016 -0.12402566 0.33188456 -0.3325712 0.29183272 0.066583484 0.04411988
0.4094094 0.48271054 -0.2024564 0.08833624 0.3649525 -0.025165292 0.14725591 0.055058006
0.43187106 0.10842283 0.36665934 -0.022552429 0.18879749 -0.107415915 0.024217572 0.27570048
0.30729768 -0.30756357 0.12890904 -0.21081883 0.022737654 0.27768478 0.058975108 0.1850487
-0.18279733 0.31193757 -0.15318465 -0.048246954 0.106047645 -0.608988 0.047995016 -0.07983208
-0.10729537 0.19253783 -0.20842206 0.15997949 0.25052938 -0.010937551 0.15393342 -0.0991931
0.119403 0.069173954 0.24894764 0.38203594 -0.03484087 -0.43731108 0.44397745 0.16175607
-0.09307416 0.031559814 -0.082466014 0.052149545 -0.08230161 0.0718674 -0.17811836 0.027594185
-0.10794302 0.045907896 -0.07321914 -0.06253341 -0.045164023 -0.002098786 0.10441624 0.10572927
-0.08902561 -0.072069116 0.123878755 0.13863389 -0.012421527 0.01261668 -0.011664719 0.016910296
-0.016410992 -0.004185528 0.082412764 -0.05335785 0.008832853 0.0736388 0.17470907 0.094297856
-0.18152732 0.087522246 -0.005294262 0.080712445 0.02645304 0.052085776 0.09722497 0.034211997
-0.025126986 0.15408632 -0.010725083 0.028867798 0.23710738 -0.028155442 -0.15256113 -0.18517363
-0.06184861 0.13607067 -0.008772348 -0.10474189 -0.041629657 -0.03689259 0.18873245 -0.019240303
-0.008279793 0.011042344 -0.072720505 -0.0489713 -0.05740268 -0.01820194 -0.091820076 -0.06776222
0.2500559 0.44560084 -0.0011261995 0.036537807 0.23422456 0.5040369 0.045287114 0.38224155
0.12950253 0.21656258 -0.044921435 -0.11415943 0.42735004 -0.12766424 0.06557739 0.4570059
0.2371462 0.04561348 0.3852205 -0.034512624 -0.19269148 0.51453626 0.011222642 0.43527368
-0.14737019 -0.037771765 0.060161546 0.5090506 0.2108951 0.43326092 0.37207147 -0.33496663
-0.0030865492 0.24446824 0.08515199 0.51477635 0.53067756 0.16932407 0.24390496 0.35027954
0.39488232 0.27133903 0.13811377 0.20420328 0.2578396 0.1357859 0.1655773 0.10223737
0.09867969 -0.004060168 0.2722158 -0.030195208 0.62085056 0.3989865 0.21972962 0.3282273
0.08850383 0.23428224 0.1417424 0.12306429 0.15589774 0.36193833 0.20261207 0.20378612
00000000: 0204 91bd 9646 84bd 67ea e23d bd2f 553e
00000010: 35a0 113f 4478 2cbc 3273 eabd b78f 3b3e
00000020: 6e3d 343e 14f3 3d3f 98e3 6cbe 5cdd d83c
00000030: c69d b43e 69a8 a23e ea62 883e 1356 113f
00000040: 532a a83b 30ae 9c3e c459 053f b957 4d3e
00000050: 4a36 e53d acd3 153e 63de 333e 65a7 e13e
00000060: 7b2c 813d 5c56 a63d 9af2 4a3d 1081 253f
00000070: b96a 433e 4fa2 153f 684d f23e 6f1d 3a3c
00000080: 5d46 553e f211 f63e 00d6 f93e cd80 3c3f
00000090: ced2 203d 8a04 fd3e e2cb 083e 461e c03e
000000a0: df6c 183f c0d4 b93e 3b0a 0abd 648c 22be
000000b0: 27db 0fbe e206 153f a4ff 423f 14a6 0a3e
000000c0: 0870 7a3e a4ca a93e 82ee 443e b6ac 13be
000000d0: 7a62 a03e 3795 893e f73c 933e 15bf 2a3e
000000e0: f9a5 7b3e becf 9a3e eb88 943e a2a7 5b3e
000000f0: 6df2 693e d302 203e 828a a13e bfd3 a73d
00000100: 1d41 4bbc e5cb 0cbd 1b0e a33e addf c63d
00000110: 7e94 e63d 675a 27bc 8303 913e 527b 91be
00000120: c0b0 11be 8e29 81be 2a01 febd c6ec a93e
00000130: c646 aabe 196b 953e ec5c 883d 0cb7 343d
00000140: 1c9e d13e d625 f73e bb50 4fbe a1e9 b43d
00000150: 0edb ba3e 7127 cebc 41ca 163e 8184 613d
00000160: 341e dd3e ca0c de3d c6ba bb3e dfbf b8bc
00000170: 2154 413e e0fc dbbd ee63 c63c 9d28 8d3e
00000180: 1f56 9d3e f978 9dbe bb00 043e e4e0 57be
00000190: 5144 ba3c b32c 8e3e e28f 713d 687d 3d3e
000001a0: 392f 3bbe 48b6 9f3e 70dc 1cbe 999e 45bd
000001b0: 822f d93d a3e6 1bbf 6c96 443d 007f a3bd
000001c0: adbd dbbd a328 453e 986c 55be aad1 233e
000001d0: 6345 803e 6a33 33bc b9a0 1d3e c125 cbbd
000001e0: 8f89 f43d 13ab 8d3d 21ec 7e3e 379a c33e
000001f0: 4db5 0ebd 3de7 dfbe 0351 e33e 62a3 253e
00000200: aa9d bebd dd44 013d f1e3 a8bd c39a 553d
00000210: bf8d a8bd 372f 933d a964 36be 330d e23c
00000220: 3b11 ddbd eb09 3c3d ebf3 95bd 8411 80bd
00000230: e9fd 38bd c98b 09bb 2ed8 d53d 9688 d83d
00000240: 0f53 b6bd f998 93bd 25b4 fd3d 0bf6 0d3e
00000250: a983 4bbc 31b6 4e3c 611d 3fbc 7687 8a3c
00000260: 5870 86bc c126 89bb 06c8 a83d c38d 5abd
00000270: acb7 103c f0cf 963d efe6 323e 3c1f c13d
00000280: 4ce2 39be dd3e b33d 7d7b adbb 914c a53d
00000290: 0cb4 d83c e557 553d e31d c73d e121 0c3d
000002a0: 1cd7 cdbc cec8 1d3e 42b8 2fbc 297c ec3c
000002b0: 47cc 723e 3ea6 e6bc fc38 1cbe 289e 3dbe
000002c0: f854 7dbd 1c56 0b3e e5b9 0fbc eb82 d6bd
000002d0: dc83 2abd af1c 17bd 1443 413e d79d 9dbc
000002e0: f8a7 07bc f3ea 343c 7dee 94bd 2196 48bd
000002f0: 131f 6bbd 3c1c 95bc 2a0c bcbd ebc6 8abd
00000300: 5407 803e cb25 e43e fc9c 93ba aba8 153d
00000310: 90d8 6f3e 9008 013f fb7e 393d 2ab5 c33e
00000320: 509c 043e 95c2 5d3e 8aff 37bd 6bcc e9bd
00000330: a0cd da3e 6aba 02be 704d 863d adfc e93e
00000340: 74d6 723e 33d5 3a3d 9f3b c53e 1c5d 0dbd
00000350: ea50 45be a6b8 033f 2cdf 373c 31dc de3e
00000360: 36e8 16be 91b6 1abd f46b 763d 2451 023f
00000370: e3f4 573e 60d4 dd3e 2780 be3e bf80 abbe
00000380: b447 4abb e255 7a3e 2b64 ae3d 62c8 033f
00000390: 7cda 073f 4a63 2d3e 39c2 793e d757 b33e
000003a0: 042e ca3e f3ec 8a3e b26d 0d3e aa1a 513e
000003b0: 8d03 843e 750b 0b3e 198d 293e d461 d13d
000003c0: 9418 ca3d 280b 85bb df5f 8b3e f15b f7bc
000003d0: 10f0 1e3f f547 cc3e cd00 613e 690d a83e
000003e0: 7f41 b53d afe7 6f3e eb24 113e 2109 fc3d
000003f0: a8a3 1f3e fb4f b93e 8a79 4f3e 4fad 503e

lstm.weight_ih_l1 f4 [256, 64]
-1.2418388 0.40597114 0.5572577 -0.4794474 0.14823337 0.45119014 0.13031544 0.39094916
0.70948106 0.23092565 -0.070728764 -0.26103765 -0.16794893 -1.0947056 -0.7499101 -0.3827446
0.030863654 -0.6129299 -0.011699132 -0.60542464 0.20793271 -0.8750824 0.57450485 -1.0430849
-0.089023754 -0.0647127 0.16839929 0.45177844 -0.08258208 0.25437427 -0.37417156 -0.67817104
0.33090523 0.26103458 0.16885239 -0.7817562 0.30863687 0.123447396 0.40653557 0.19851704
0.0056071524 -0.33361354 -0.59068024 -0.14980084 0.1772091 0.35113007 -0.36273348 0.12363645
0.20116353 0.4977568 -0.3974934 0.8536001 -0.0989962 -0.022185992 -0.9916065 -0.72479504
0.77952296 -0.4673862 0.29518765 -0.091339126 -0.79685444 0.0027059237 -0.7191152 0.581268
0.2283221 0.045732647 -0.8157292 0.45762104 -0.06580585 0.33829606 -0.32031214 -0.1282037
0.49632746 -0.07889609 -0.56998175 0.73517114 -0.03918771 -0.0019322888 -0.04906623 -0.21487476
0.7024191 0.44993553 0.12808877 0.6659458 0.53434014 -0.08356758 -0.07715879 0.15182966
0.5031935 0.40563694 0.47859564 -0.039543755 -0.41600117 -0.066987514 0.32828844 0.025479833
0.030787982 -0.08201183 -0.107151695 -0.12796046 0.5833347 0.06790982 -0.15280992 -0.8283119
0.113442205 0.0004342034 -0.31062236 0.24025236 -1.9524665 0.052366793 -0.10984093 -0.20351802
0.17727545 -0.64410686 0.4322036 -0.6997173 -0.07426055 -0.46680552 0.100376 0.020598402
0.24815916 -0.11992433 0.056852084 -0.07333637 0.065832615 -0.5178469 -0.057398636 -0.44879833
1.0967278 -0.32849994 0.27781096 -0.4348704 0.69855255 -0.20028381 -0.19503632 -0.47172564
0.14216453 0.491383 -0.19693427 -0.8472505 -0.73019725 0.10791718 0.9082279 -0.11911046
0.022665782 0.86072594 -1.3417693 -0.86727196 -0.108183995 0.12479106 0.04645827 0.20908438
-0.5044265 0.49185923 0.37946838 -1.2449012 0.1960901 -0.038788937 -0.06888612 0.5687935
-0.09920886 -0.56640035 -0.6336078 -0.0382094 0.79886293 -0.25594768 -0.78062624 0.15386517
-0.057485305 0.24066092 -0.005385763 -0.6020122 0.7297219 -0.54882187 0.38248104 -0.656166
0.13074195 0.028785402 0.0007971623 -0.19070798 0.20261241 0.1924553 -1.7223231 0.26530394
-0.7075401 0.13472837 -0.48508266 -0.27032712 -0.16176908 -0.040377162 -0.19286136 -0.6581096
0.83323336 -0.1715733 0.05447588 0.08486399 0.3769396 0.4776649 -0.0018275115 -0.33668667
-0.16600925 0.22442542 -0.67210555 -0.46873555 -0.48998022 0.31435242 -0.93579376 0.6127106
0.12141303 0.15487482 -0.27586055 -0.19940494 -0.35615978 -0.8026831 -0.15030156 0.3493756
-0.5221519 1.102785 -0.15468207 -0.64914936 -0.21155605 -0.54659593 -1.0460656 1.0433803
0.69275343 -0.56999147 -0.65775174 -0.12744159 0.45603555 0.46055183 0.71865225 0.06972171
0.33924407 0.06334517 0.34054255 -0.74163705 0.04342313 -1.0066319 1.5488619 0.5883743
0.2454532 0.78319836 0.51064235 0.29930365 -0.1933039 -0.48760426 -0.057989802 -0.20847633
-0.37014922 0.83178174 -0.52016574 1.1065097 -0.7517629 -0.37842935 0.08240722 -0.7681965
00000000: 93f4 9ebf 73db cf3e 71a8 0e3f 217a f5be
00000010: 7dca 173e 6502 e73e 6971 053e 7d2a c83e
00000020: 8da0 353f c677 6c3e 3eda 90bd baa6 85be
00000030: cefa 2bbe 501f 8cbf 1cfa 3fbf 1af7 c3be
00000040: c6d5 fc3c f9e8 1cbf b7ad 3fbc 1cfd 1abf
00000050: 50ec 543e 6605 60bf c012 133f ce83 85bf
00000060: 1652 b6bd 1888 84bd dd70 2c3e 814f e73e
00000070: cb20 a9bd 583d 823e 6a93 bfbe 9e9c 2dbf
00000080: 696c a93e 53a6 853e a4e7 2c3e 2d21 48bf
00000090: a705 9e3e fdd1 fc3d 6e25 d03e 0d48 4b3e
000000a0: 34bc b73b 65cf aabe d236 17bf 6465 19be
000000b0: 4d76 353e 52c7 b33e 34b8 b9be 1b35 fd3d
000000c0: d0fd 4d3e fbd9 fe3e 4184 cbbe 8985 5a3f
000000d0: 85be cabd 66bf b5bc ecd9 7dbf 2b8c 39bf
000000e0: d18e 473f 3e4d efbe d622 973e 0210 bbbd
000000f0: a7fe 4bbf de55 313b ef17 38bf fbcd 143f
00000100: 45cd 693e 2852 3b3d a1d3 50bf 4e4d ea3e
00000110: 38c5 86bd 2435 ad3e f4ff a3be d547 03be
00000120: a21e fe3e 4694 a1bd 53ea 11bf 2d34 3c3f
00000130: 4b83 20bd da44 fdba acf9 48bd 2108 5cbe
00000140: bdd1 333f f35d e63e b429 033e 6d7b 2a3f
00000150: 84ca 083f 7b25 abbd 6d05 9ebd 3c79 1b3e
00000160: 4ad1 003f a5af cf3e 7d0a f53e a2f8 21bd
00000170: 1bfe d4be c030 89bd 6c15 a83e 15bb d03c
00000180: 1437 fc3c d1f5 a7bd 5972 dbbd 1108 03be
00000190: 6c55 153f 4e14 8b3d 347a 1cbe 400c 54bf
000001a0: 6354 e83d cba5 e339 e509 9fbe b704 763e
000001b0: 6cea f9bf 907e 563d 48f4 e0bd 0767 50be
000001c0: b287 353e 30e4 24bf ca49 dd3e ac20 33bf
000001d0: ea15 98bd 2201 efbe ef91 cd3d fbbd a83c
000001e0: 6f1d 7e3e e39a f5bd bbdd 683d 6131 96bd
000001f0: 40d3 863d 9d91 04bf d51a 6bbd e5c8 e5be
00000200: 9461 8c3f 2531 a8be 3d3d 8e3e 55a7 debe
00000210: 57d4 323f 3317 4dbe 9ab7 47be 0686 f1be
00000220: 9493 113e 8d96 fb3e 23a9 49be 69e5 58bf
00000230: 35ee 3abf af03 dd3d a081 683f 2ff0 f3bd
00000240: 97ad b93c 8958 5c3f 19bf abbf 8905 5ebf
00000250: 928f ddbd 7592 ff3d 074b 3e3d 371a 563e
00000260: 1822 01bf f9d4 fb3e ae49 c23e ec58 9fbf
00000270: d8cb 483e 26e1 1ebd 2b14 8dbd 739c 113f
00000280: 042e cbbd 9dff 10bf 1f34 22bf 7681 1cbd
00000290: 4882 4c3f 930b 83be 1fd7 47bf d58e 1d3e
000002a0: b675 6bbd d16f 763e 0e7b b0bb 791d 1abf
000002b0: 0ecf 3a3f 977f 0cbf 8ed4 c33e 7ffa 27bf
000002c0: 38e1 053e 5dcf eb3c a8f8 503a f448 43be
000002d0: a179 4f3e 0113 453e 1575 dcbf ebd5 873e
000002e0: 5921 35bf 3cf6 093e c15c f8be 5168 8abe
000002f0: cba6 25be 8662 25bd 737d 45be df79 28bf
00000300: c84e 553f e9b0 2fbe 1a22 5f3d 2ccd ad3d
00000310: 3afe c03e 7e90 f43e 1c89 efba 3262 acbe
00000320: 54fe 29be c7cf 653e 1c0f 2cbf 1bfe efbe
00000330: b0de fabe cdf2 a03e 2e90 6fbf 9ada 1c3f
00000340: 65a7 f83d 8197 1e3e 983d 8dbe cf30 4cbe
00000350: 935a b6be a47c 4dbf a7e8 19be 5ce1 b23e
00000360: bfab 05bf 0f28 8d3f fa64 1ebe a72e 26bf
00000370: 26a2 58be b6ed 0bbf 7ae5 85bf 7c8d 853f
00000380: 4a58 313f f6ea 11bf 6b62 28bf 0c80 02be
00000390: 7e7d e93e 73cd eb3e 98f9 373f 42ca 8e3d
000003a0: 66b1 ad3e 1dbb 813d 985b ae3e eddb 3dbf
000003b0: 74dc 313d 50d9 80bf 1b41 c63f b39f 163f
000003c0: 1558 7b3e b07f 483f 75b9 023f 543e 993e
000003d0: 75f1 45be 44a7 f9be b786 6dbd d27a 55be
000003e0: 3384 bdbe a6ef 543f 9529 05bf 1ca2 8d3f
000003f0: 8973 40bf 7ec1 c1be 1ec5 a83d 87a8 44bf

lstm.weight_hh_l1 f4 [256, 64]
0.5079878 -0.13027225 0.27311462 -0.46285215 0.2959567 -0.015109724 0.9912032 0.47981772
0.77614146 -0.43629867 0.8019113 -0.08795358 0.18616831 -0.42498305 0.26853356 -0.12644435
-0.59926695 -0.41192415 0.29860345 -0.11248091 0.6772355 0.41869956 -0.33812028 -0.2998167
0.32065925 0.452989 1.3109057 -0.6112074 0.14029391 -0.05728721 0.62058413 -0.4435205
0.08064287 0.53060263 0.37280425 1.0917438 -0.010772411 -1.147962 0.3167388 -0.12552069
-0.11972918 -0.40362546 0.77612644 -0.2935064 0.06252726 0.85377336 0.21682368 -0.29728326
-1.0721159 0.3161938 8.242944e-05 -0.42805493 -0.6979835 0.2679245 -0.93726677 0.076119244
0.545551 -0.7488793 0.46893844 0.77517366 0.5922888 -0.33318034 0.63061 -0.338482
-0.5006415 0.20849165 -0.11189589 -0.16219743 0.20474064 -0.7838229 -0.062352885 0.62967443
-0.042413376 -0.15850314 0.30372328 -0.24425489 0.65478307 -0.3926733 -0.4353435 -0.13434848
-0.19323984 0.6385605 0.07960083 -0.3993309 -0.00034775463 -0.8559261 -0.52232295 1.0258883
0.33839244 -0.6668151 -0.04987201 0.100874186 0.36601952 0.28379664 0.90342146 -0.2324856
0.047703825 0.21349719 0.18568116 -0.24785173 -0.016866323 0.2973454 -0.8163359 0.4986362
-1.04519 0.19502854 -0.72239435 -0.10927984 -0.014168509 -0.46676418 -0.119098626 0.0032114156
-0.41887897 0.76727575 -0.8478459 -0.18641192 -0.8213255 0.53043634 -1.0750288 0.43850634
-0.50938725 -0.0547603 0.37274596 -0.23216069 0.589991 -0.13367726 0.5992408 0.7351513
-0.5084834 -0.52981544 -1.1237069 -0.472555 0.54308563 -0.70657027 0.39926443 0.88453
1.1247383 -0.24808703 -0.32835713 -0.53824824 -0.15217975 1.4119679 -0.31899738 0.56057376
0.26593626 0.05758067 0.32372385 -0.06741118 -0.3079966 0.21814857 0.9552505 0.07920202
-0.28349593 0.39920893 0.24604006 0.61696535 -0.013348304 0.10500154 0.13604951 -0.17831126
0.6291488 -0.9796053 -0.40597028 -0.37740567 0.7248928 0.2716962 -0.14661013 -0.47495323
0.25319958 -0.015261412 -0.8667337 -0.3057582 0.21101932 0.20102093 -0.08346843 0.15830351
0.21240042 -0.45232087 0.40360504 -1.4681754 1.0215359 -0.653226 0.39752764 0.11415383
0.061064206 0.37724978 0.19138019 -1.495919 0.2337462 -0.5283597 0.7172454 0.16085273
-0.6663561 -0.5715394 -0.21088299 -0.79165655 -0.27848583 0.7031434 -0.22406796 0.46283695
0.65564436 0.94593334 0.74178547 -0.30978993 -0.7476508 -0.002290152 -0.49299476 0.31753448
-0.15906875 0.72089416 0.035565577 0.40160692 -0.06972988 0.054077618 -0.21603285 -0.69047225
0.16958494 -0.004936236 -0.2115475 -0.4251091 -0.36061114 0.10087386 0.117698886 -0.031982396
-0.06431962 -0.9485161 -0.6687193 0.5795875 0.041849606 0.6365745 0.029009124 0.41144344
-0.333023 0.14622608 -0.56237704 0.85856426 0.2948324 0.45303562 -0.03181484 0.32773352
0.09637774 -0.11830736 0.28244308 -0.467498 0.46351784 1.3712294 0.51412207 0.20682521
-0.08392748 0.56323534 0.46421495 0.34360078 -0.17907064 0.017172905 -0.5091542 -0.33420652
00000000: 7d0b 023f 1766 05be aed5 8b3e f5fa ecbe
00000010: a387 973e c78e 77bc 7ebf 7d3f abaa f53e
00000020: 35b1 463f 8a62 dfbe 0f4a 4d3f 0221 b4bd
00000030: e8a2 3e3e 6197 d9be 3b7d 893e a17a 01be
00000040: 8f69 19bf b9e7 d2be 8de2 983e 645c e6bd
00000050: 4e5f 2d3f ca5f d63e 1a1e adbe 9381 99be
00000060: 732d a43e 2dee e73e c2cb a73f 1778 1cbf
00000070: 35a9 0f3e fea5 6abd 9ade 1e3f 1e15 e3be
00000080: 1728 a53d 93d5 073f 33e0 be3e 43be 8b3f
00000090: c47e 30bc 6bf0 92bf 972b a23e 7f88 00be
000000a0: 9334 f5bd ffa7 cebe 39b0 463f 7946 96be
000000b0: 4b0e 803d e490 5a3f 0707 5e3e 8335 98be
000000c0: 183b 89bf 27e4 a13e f8dd ac38 042a dbbe
000000d0: 0caf 32bf 662d 893e b7f0 6fbf 68e4 9b3d
000000e0: 3ba9 0b3f 8eb6 3fbf b318 f03e c871 463f
000000f0: 3da0 173f 9d96 aabe a86f 213f 834d adbe
00000100: 0b2a 00bf d67e 553e ac29 e5bd 1517 26be
00000110: 88a7 513e 9ea8 48bf bd65 7fbd 5832 213f
00000120: a6b9 2dbd a64e 22be 9e81 9b3e f41d 7abe
00000130: dd9f 273f 7a0c c9be 58e5 debe a692 09be
00000140: aae0 45be b378 233f c305 a33d 1a75 ccbe
00000150: d652 b6b9 f91d 5bbf f5b6 05bf 4f50 833f
00000160: c641 ad3e 65b4 2abf 9846 4cbd 2097 ce3d
00000170: e966 bb3e cb4d 913e a146 673f b510 6ebe
00000180: 1665 433d 029f 5a3e 3423 3e3e d8cc 7dbe
00000190: 3e2b 8abc a83d 983e 64fb 50bf 3e4d ff3e
000001a0: c9c8 85bf 90b5 473e d6ee 38bf 1cce dfbd
000001b0: 0923 68bc b7fb eebe fbe9 f3bd 9d76 523b
000001c0: 4e77 d6be 2f6c 443f 6e0c 59bf c4e2 3ebe
000001d0: 6342 52bf adca 073f 8b9a 89bf e783 e03e
000001e0: 3467 02bf 564c 60bd 8fd8 be3e 88bb 6dbe
000001f0: a609 173f b1e2 08be d867 193f e032 3c3f
00000200: f82b 02bf fca1 07bf a1d5 8fbf bbf2 f1be
00000210: a907 0b3f cae1 34bf 636c cc3e 8f70 623f
00000220: 6df7 8f3f 870a 7ebe 6d1e a8be a3ca 09bf
00000230: 02d5 1bbe 5dbb b43f a053 a3be c381 0f3f
00000240: cc28 883e b5d9 6b3d 22bf a53e df0e 8abd
00000250: bbb1 9dbe 5762 5f3e 4c8b 743f ab34 a23d
00000260: 6126 91be 1d65 cc3e edf1 7b3e 71f1 1d3f
00000270: d8b2 5abc 0c0b d73d 9050 0b3e 3a97 36be
00000280: e50f 213f 6ac7 7abf 56db cfbe 513b c1be
00000290: 9392 393f c41b 8b3e f720 16be 122d f3be
000002a0: 60a3 813e 000b 7abc 42e2 5dbf 578c 9cbe
000002b0: 7315 583e 6ed8 4d3e 7ff1 aabd 511a 223e
000002c0: 7f7f 593e 9a96 e7be 52a5 ce3e 2ced bbbf
000002d0: b0c1 823f d239 27bf be88 cb3e 7cc9 e93d
000002e0: 761e 7a3d e226 c13e 2bf9 433e 467a bfbf
000002f0: 2a5b 6f3e 9542 07bf 659d 373f 94b6 243e
00000300: 5096 2abf 6850 12bf b6f1 57be 01aa 4abf
00000310: b295 8ebe 3501 343f 1272 65be f7f8 ec3e
00000320: 4fd8 273f b028 723f a7e5 3d3f c99c 9ebe
00000330: 0b66 3fbf 6016 16bb cf69 fcbe e193 a23e
00000340: ebe2 22be 858c 383f 36ad 113d 6c9f cd3e
00000350: 8ace 8ebd 7e80 5d3d b737 5dbe cac2 30bf
00000360: ada7 2d3e 26c0 a1bb e89f 58be e6a7 d9be
00000370: 06a2 b8be f496 ce3d 1d0c f13d f9ff 02bd
00000380: 01ba 83bd f3d1 72bf 3031 2bbf d95f 143f
00000390: 7e6a 2b3d 8cf6 223f 8ba4 ed3c b7a8 d23e
000003a0: fe81 aabe 4abc 153e f1f7 0fbf deca 5b3f
000003b0: 46f4 963e 49f4 e73e 4750 02bd b0cc a73e
000003c0: b161 c53d 214b f2bd 619c 903e e65b efbe
000003d0: 3652 ed3e 7284 af3f 819d 033f fdc9 533e
000003e0: 2ce2 abbd 3130 103f 95ad ed3e 71ec af3e
000003f0: 4b5e 37be 31ae 8c3c ee57 02bf 1e1d abbe

lstm.bias_ih_l1 f4 [256]
0.3726032 -0.13252631 0.29376003 0.65686584 0.5508272 0.49036676 0.18306608 0.11347129
-0.50905526 0.6368937 0.08384652 -0.42857805 0.43527883 -0.21547538 0.10162446 0.33523053
0.6617352 0.7122703 0.43126988 0.16614488 0.7215761 0.49882194 0.7213087 0.08870723
0.8657516 0.7945039 0.35860792 0.569877 0.3813465 0.34003237 -0.01632285 0.33394477
0.09188184 0.65464777 0.8592708 -0.11165149 -0.20522952 0.8404094 0.4776767 0.37908515
0.6353967 0.50913185 0.25122154 0.32017857 -0.1955524 -0.023455843 0.19107197 0.44610208
0.090933785 0.26707813 0.68184376 0.3656024 0.12673838 0.16573127 0.27657044 0.5051705
0.55509937 0.3149454 0.78190124 0.35135105 0.3116537 -0.017551925 0.47594962 0.24232642
0.1011779 0.48400533 0.7689081 0.46355817 -0.14170809 -0.08562581 0.03584564 0.7733496
0.774422 -0.48363137 0.0767834 0.7939172 0.040675823 0.87555104 -0.14268407 0.028890166
1.0253797 -0.36644906 -0.03232752 0.30198917 -0.1306792 0.558311 -0.21667512 0.11664339
-0.320074 0.76403 0.68816596 0.054197807 0.24141107 0.4210228 0.2506502 -0.17034772
-0.05687679 0.15904215 -0.41362163 0.12534504 0.639449 -0.25642216 -0.2534498 0.2887584
-0.3378349 0.23106617 0.06351814 0.82273597 -0.2332635 0.3905002 -0.13245769 0.17987132
0.4190227 -0.48680413 0.031143067 0.43789226 0.33007455 0.24932635 0.438124 -0.19440313
-0.3651015 0.5109054 -0.49391615 -0.11339641 0.38021395 0.019871894 -0.27922556 -0.41772592
-0.16756038 -0.042894274 -0.20384102 -0.39268664 0.18512496 -0.18393315 -0.30137438 -0.23665674
0.17178199 -0.005871584 0.012290359 -0.29689673 0.028669659 0.07189858 0.078899 -0.057677947
-0.40856895 0.052252907 -0.1847993 -0.13649553 0.017848177 0.26955807 -0.07702222 0.08473232
0.098319046 -0.055954102 -0.01870952 0.39624983 0.33882976 -0.18188074 -0.2868591 -0.30133173
0.27315685 0.118130185 0.07458105 0.23762543 -0.07450802 0.0003670024 -0.24243227 -0.008736856
0.053682826 -0.26267788 -0.0821652 0.21409926 0.08159562 0.20102593 -0.0724539 -0.048086066
-0.18982364 -0.09937656 -0.05647858 -0.2103832 -0.2267048 -0.041373897 -0.15205835 -0.3054994
0.05894614 0.22502846 0.14803281 -0.11831412 0.001726845 0.40354833 -0.12725994 0.16402078
0.18623568 -0.18998148 -0.49194223 -0.27959338 0.33939207 0.57826346 0.22920175 0.14926718
0.039607137 0.24469812 0.24597873 -0.472166 0.41145343 -0.10238475 0.28382716 0.37366623
-0.6964689 0.38188654 0.52782524 -0.22613761 0.27967942 -0.39876872 0.7889884 0.19842964
0.5502936 -0.22767285 -0.22885428 0.2678184 0.03386347 0.02969614 0.6974727 0.05840647
0.062960446 0.7301022 1.0407014 0.18675414 -0.16671139 0.83121777 0.2954121 -0.020951094
0.11768558 0.62983114 0.2171963 -0.025670718 0.22110245 -0.58453155 0.6062135 0.5024966
-0.4535843 0.77697843 0.72667783 -0.26734468 0.7108823 0.028721036 0.09738112 0.3090629
0.52192795 -0.1545107 0.9891567 0.056161094 0.13636157 -0.11244205 0.18031277 0.2636125
00000000: d9c5 be3e fab4 07be b767 963e 5c28 283f
00000010: 0303 0d3f 5a11 fb3e ad75 3b3e a363 e83d
00000020: 7251 02bf 770b 233f b9b7 ab3d 956e dbbe
00000030: dedc de3e 94a5 5cbe 7c20 d03d 56a3 ab3e
00000040: 7a67 293f 5957 363f 68cf dc3e e221 2a3e
00000050: 36b9 383f 9765 ff3e b0a7 383f 23ac b53d
00000060: e6a1 5d3f 9c64 4b3f 759b b73e 76e3 113f
00000070: d93f c33e b918 ae3e 7fb7 85bc cffa aa3e
00000080: 8c2c bc3d ff96 273f 2cf9 5b3f 89a9 e4bd
00000090: b027 52be 1225 573f 0a92 f43e 7317 c23e
000000a0: 5ca9 223f 7756 023f 1ca0 803e 72ee a33e
000000b0: e33e 48be 7826 c0bc 5fa8 433e 7e67 e43e
000000c0: 7e3b ba3d 77be 883e 508d 2e3f 3d30 bb3e
000000d0: b5c7 013e 75b5 293e a49a 8d3e db52 013f
000000e0: fe1a 0e3f 8640 a13e ae2a 483f 49e4 b33e
000000f0: 1391 9f3e 0ec9 8fbc abaf f33e 6b24 783e
00000100: 5c36 cf3d 8ccf f73e 29d7 443f 7f57 ed3e
00000110: ed1b 11be 965c afbd e1d2 123d 3dfa 453f
00000120: 8540 463f 889e f7be 9d40 9d3d 283e 4b3f
00000130: b19b 263d 1d24 603f c61b 12be 12ab ec3c
00000140: a43f 833f 369f bbbe dd69 04bd 539e 9a3e
00000150: c5d0 05be 78ed 0e3f 15e0 5dbe bbe2 ee3d
00000160: bde0 a3be 7897 433f a52b 303f 85fe 5d3d
00000170: 7734 773e 4d90 d73e 3955 803e a26f 2ebe
00000180: a3f7 68bd f2db 223e 37c6 d3be 735a 003e
00000190: eeb2 233f c449 83be 2cc4 81be 24d8 933e
000001a0: b2f8 acbe 9c9c 6c3e cc15 823d d39e 523f
000001b0: a0dc 6ebe a4ef c73e fda2 07be 3030 383e
000001c0: 258a d63e 643e f9be bf1f ff3c 6a33 e03e
000001d0: 88ff a83e 684f 7f3e ca51 e03e 9d11 47be
000001e0: 95ee babe b2ca 023f 94e2 fcbe 613c e8bd
000001f0: 67ab c23e 62ca a23c a7f6 8ebe 2ce0 d5be
00000200: f394 2bbe e8b1 2fbd b3bb 50be 390e c9be
00000210: 6691 3d3e f958 3cbe be4d 9abe 2556 72be
00000220: 9ee7 2f3e 6b66 c0bb 805d 493c d902 98be
00000230: a2dc ea3c 903f 933d cd95 a13d b63f 6cbd
00000240: f32f d1be 2507 563d 073c 3dbe 7cc5 0bbe
00000250: 5736 923c 8403 8a3e d3bd 9dbd 2388 ad3d
00000260: 7f5b c93d 2130 65bd b544 99bc 42e1 ca3e
00000270: 187b ad3e f23e 3abe 32df 92be 2748 9abe
00000280: 37db 8b3e 3dee f13d f3bd 983d 1554 733e
00000290: a997 98bd 3a6a c039 2a40 78be 0825 0fbc
000002a0: 86e2 5b3d b77d 86be 3a46 a8bd d63c 5b3e
000002b0: 9b1b a73d bed9 4d3e b662 94bd e5f5 44bd
000002c0: 2161 42be f085 cbbd 1556 67bd b26e 57be
000002d0: 4e25 68be ad77 29bd 2fb5 1bbe 6b6a 9cbe
000002e0: 8271 713d dc6d 663e ea95 173e ac4e f2bd
000002f0: 4e57 e23a e39d ce3e 6e50 02be 10f5 273e
00000300: 91b4 3e3e 818a 42be dadf fbbe dd26 8fbe
00000310: ccc4 ad3e 1309 143f ddb3 6a3e 7fd9 183e
00000320: 183b 223d 2592 7a3e d9e1 7b3e bebf f1be
00000330: 06aa d23e 19af d1bd cb51 913e 2e51 bf3e
00000340: c94b 32bf a286 c33e 8e1f 073f 9e90 67be
00000350: 2432 8f3e 6a2b ccbe 25fb 493f 2431 4b3e
00000360: 0be0 0c3f 1223 69be c758 6abe 7e1f 893e
00000370: 6cb4 0a3d 5245 f33c 928d 323f 9f3b 6f3d
00000380: 68f1 803d fae7 3a3f b435 853f 7a3c 3f3e
00000390: 64b6 2abe b0ca 543f 4140 973e a1a1 abbc
000003a0: 2305 f13d 9d3c 213f b568 5e3e 664b d2bc
000003b0: ae68 623e dca3 15bf cf30 1b3f 9ea3 003f
000003c0: 343c e8be 0fe8 463f 8f07 3a3f 67e1 88be
000003d0: 62fc 353f 6148 eb3c c16f c73d 7e3d 9e3e
000003e0: 129d 053f 0e38 1ebe 6039 7d3f 2d09 663d
000003f0: 5ea2 0b3e 0448 e6bd e9a3 383e 38f8 863e

lstm.bias_hh_l1 f4 [256]
0.3025757 -0.07489533 0.4306808 0.5109662 0.63061386 0.5587141 0.20917533 0.14489654
-0.5220443 0.46932933 0.11820834 -0.55290365 0.27986223 -0.012052763 0.18129103 0.22342418
0.71161497 0.5843369 0.45859003 0.010392415 0.7954924 0.39580855 0.8935456 0.22139241
0.70528746 0.60438764 0.4271009 0.61501867 0.45672917 0.32702076 -0.0038206452 0.25951168
-0.03453335 0.57731605 0.70558107 -0.11025441 -0.15089078 0.9159894 0.50534683 0.48532614
0.8721828 0.5594485 0.17877348 0.31186348 -0.043087676 -0.0704087 0.24898961 0.51067847
0.25525844 0.26537555 0.5017808 0.36215344 0.2896561 0.19341238 0.21154949 0.5533228
0.46668312 0.39276102 0.9058529 0.5017275 0.4171963 0.010185346 0.45605516 0.26533774
0.2947086 0.45052114 0.77097046 0.37672627 -0.084088065 0.023017213 0.057416048 0.83762926
0.8340118 -0.48164088 0.10876318 0.84777963 0.021372728 0.79645467 -0.14196737 0.12964919
0.9517097 -0.3714544 0.0132570155 0.4989013 -0.10677172 0.4757422 -0.2981108 0.25669506
-0.20435517 0.86656994 0.62435985 -0.05422897 0.27856925 0.43138757 0.37006032 -0.07143682
-0.09106309 0.26998305 -0.28944266 0.037196632 0.73208064 -0.36584666 -0.35829043 0.22159928
-0.3256034 0.050064534 -0.16182381 0.98087347 -0.15056373 0.44659787 -0.0046843695 0.1794262
0.48422295 -0.49543825 0.15703186 0.34950778 0.25525486 0.26419523 0.47763678 -0.2790055
-0.3247605 0.5210494 -0.6048111 -0.14301866 0.43681708 -0.10919461 -0.08160341 -0.2783957
-0.2810921 -0.009931089 -0.09767921 -0.36530378 0.13921836 -0.1918373 -0.24537773 -0.17832826
0.111799605 -0.03174631 0.21797715 -0.18595964 -0.1663189 0.11160249 0.0866757 -0.06291305
-0.38311854 0.05509961 -0.16310975 -0.1332204 -0.09346486 0.1781975 -0.06935417 0.21595842
0.17674232 -0.09898927 0.022509111 0.30389985 0.1960768 -0.059040416 -0.14341483 -0.41670567
0.18368205 0.07341395 -0.056411434 0.17636617 -0.08958355 0.00842852 -0.11098469 -0.21408531
-0.19274749 -0.34668744 0.062818825 0.1528391 0.12304208 0.12246152 -0.10831873 0.10303076
-0.15841828 -0.20276636 -0.075680405 -0.24244659 -0.2335014 -0.110340856 -0.14392613 -0.1791236
0.101795584 0.11840358 0.024421765 -0.1892341 0.08261778 0.42633003 0.0046521123 0.04993079
0.19889043 -0.1338845 -0.30265802 -0.32617426 0.15916055 0.61221564 0.12845667 0.18690406
-0.044388644 0.23446395 0.34322804 -0.45714056 0.6458649 0.091820955 0.2455716 0.36397046
-0.895977 0.37580562 0.57965374 -0.18247312 0.06395181 -0.24542469 0.7716063 0.1711522
0.34411547 -0.2374533 -0.2256639 0.24377342 0.1095382 0.075334 0.71774864 -0.12903248
0.14540863 0.68387765 0.9996194 0.29621246 -0.10621508 0.5918525 0.16388787 0.12433327
0.08458743 0.7305457 0.097151734 0.18419865 0.16835207 -0.53939384 0.43563786 0.4875696
-0.5176718 0.87455016 0.7776317 -0.45872238 0.7819166 -0.00865509 -0.0026799755 0.31059223
0.6227661 -0.18405683 0.9655989 0.2592939 0.31487012 -0.2127062 0.1552921 0.3255552
00000000: 34eb 9a3e b962 99bd 3282 dc3e aece 023f
00000010: e96f 213f e307 0f3f 0f32 563e c25f 143e
00000020: b2a4 05bf ef4b f03e 3717 f23d 188b 0dbf
00000030: 1a4a 8f3e f478 45bc 5ba4 393e 4fc9 643e
00000040: 662c 363f 1a97 153f 50cc ea3e f344 2a3c
00000050: 64a5 4b3f 6ba7 ca3e 68bf 643f b1b4 623e
00000060: b88d 343f 26b9 1a3f f8ac da3e dd71 1d3f
00000070: 68d8 e93e 446f a73e ca63 7abb b7de 843e
00000080: d872 0dbd fcca 133f f6a0 343f 10cd e1bd
00000090: 1d83 1abe 487e 6a3f 695e 013f ab7c f83e
000000a0: 5f47 5f3f 0438 0f3f 6510 373e 92ac 9f3e
000000b0: b47c 30bd 7032 90bd 22f7 7e3e d3bb 023f
000000c0: 3cb1 823e 4edf 873e b574 003f 2d6c b93e
000000d0: ce4d 943e e50d 463e 6ea0 583e 90a6 0d3f
000000e0: 17f1 ee3e f917 c93e fae5 673f 3771 003f
000000f0: c19a d53e 70e0 263c 1080 e93e 59da 873e
00000100: 0ce4 963e b5aa e63e 525e 453f 44e2 c03e
00000110: 5d36 acbd 988e bc3c 172d 6b3d df6e 563f
00000120: cc81 553f a299 f6be 3bbf de3d 1608 593f
00000130: dc15 af3c 74e4 4b3f e55f 11be c2c2 043e
00000140: 3fa3 733f 452f bebe f433 593c fe6f ff3e
00000150: 22ab dabd 7b94 f33e fba1 98be 896d 833e
00000160: 7b42 51be 87d7 5d3f 0cd6 1f3f 321f 5ebd
00000170: a1a0 8e3e d5de dc3e 8c78 bd3e 784d 92bd
00000180: 497f babd 383b 8a3e d431 94be 7f5b 183d
00000190: a369 3b3f 4150 bbbe d871 b7be ecea 623e
000001a0: 7db5 a6be 7810 4d3d 24b5 25be 861a 7b3f
000001b0: 612d 1abe 7aa8 e43e 577f 99bb 80bb 373e
000001c0: 12ec f73e 15aa fdbe f6cc 203e aff2 b23e
000001d0: c4b0 823e 9944 873e cf8c f43e cfd9 8ebe
000001e0: 0247 a6be 7e63 053f e6d4 1abf 7c73 12be
000001f0: 7da6 df3e 6ca1 dfbd b01f a7bd e289 8ebe
00000200: 4eeb 8fbe 02b6 22bc 0a0c c8bd 1909 bbbe
00000210: 428f 0e3e ff70 44be 4d44 7bbe af9b 36be
00000220: 31f7 e43d 6b08 02bd 6735 5f3e 346c 3ebe
00000230: 804f 2abe d98f e43d 0883 b13d 8fd8 80bd
00000240: 1d28 c4be 21b0 613d 3e06 27be ee6a 08be
00000250: 816a bfbd 6879 363e 8f09 8ebd 3424 5d3e
00000260: f0fb 343e e3ba cabd 0765 b83c c398 9b3e
00000270: 5bc8 483e 5dd4 71bd 56db 12be 725a d5be
00000280: 2617 3c3e 0e5a 963d ad0f 67bd 5599 343e
00000290: 9577 b7bd c617 0a3c f14b e3bd 2e39 5bbe
000002a0: 995f 45be 0481 b1be 28a7 803d da81 1c3e
000002b0: 7cfd fb3d 1bcd fa3d 36d6 ddbd cb01 d33d
000002c0: 6738 22be fca1 4fbe 54fe 9abd eb43 78be
000002d0: fe1a 6fbe 63fa e1bd 5f61 13be 2d6c 37be
000002e0: 347a d03d 937d f23d 2710 c83c 95c6 41be
000002f0: 8333 a93d ee47 da3e bf70 983b 3a84 4c3d
00000300: efa9 4b3e 0519 09be fef5 9abe 5000 a7be
00000310: fcfa 223e 2aba 1c3f 258a 033e c763 3f3e
00000320: ded0 35bd 5117 703e 96bb af3e 540e eabe
00000330: 6757 253f a00c bc3d 1f77 7b3e 565a ba3e
00000340: c05e 65bf 9869 c03e 3064 143f 3cda 3abe
00000350: 2bf9 823d 9c50 7bbe fe87 453f 8642 2f3e
00000360: e72f b03e f526 73be 7014 67be bd9f 793e
00000370: 9055 e03d b648 9a3d 60be 373f 1721 04be
00000380: 00e6 143e 9b12 2f3f 0fe7 7f3f 29a9 973e
00000390: 4b87 d9bd a583 173f 39d2 273e 71a2 fe3d
000003a0: 2d3c ad3d 0b05 3b3f 7df7 c63d 929e 3c3e
000003b0: 7c64 2c3e b715 0abf ed0b df3e b9a2 f93e
000003c0: 2486 04bf 85e2 5f3f df12 473f a9dd eabe
000003d0: b02b 483f 14ce 0dbc 87a2 2fbb f205 9f3e
000003e0: 996d 1f3f 6579 3cbe 7d31 773f 2cc2 843e
000003f0: a836 a13e a7cf 59be e404 1f3e 2caf a63e
