model/epoch_1579.pth (torch, 242723 bytes, 10 tensors)

lstm.weight_ih_l0 f4 [256, 20]
000000 3b c1 6c 3f 11 55 af 40 d0 27 49 3e 66 c8 f2 3f
       0.92482346 5.479134 0.19644094 1.8967407
000010 5c 1f 81 bf a3 00 03 bf d6 53 7d bf 7c c0 31 40
       -1.0087695 -0.51172847 -0.9895605 2.7773733
000020 60 cb d2 3d 71 25 23 bf 8a 14 7b 3f 6d a2 b2 be
       0.10292697 -0.63729006 0.98078215 -0.34889546
000030 ef 29 76 bf 0e dd 28 40 a4 d0 e5 3e f4 f5 09 3f
       -0.96157736 2.638492 0.44885743 0.5389092
000040 c6 bb 7e 40 24 3f 00 bf 94 e1 25 c0 c6 59 52 3f
       3.9802108 -0.50096345 -2.5918932 0.82168233
000050 31 58 be 3e d8 7c ad 3f 2f f9 40 3f 82 be 38 bf
       0.3717666 1.3553724 0.75380224 -0.7216569
000060 8f c1 b6 3e b0 ea 1b 40 4d d5 33 bf 6c 60 53 3f
       0.35694548 2.4361992 -0.70247346 0.82569003
000070 37 b1 14 40 3f 22 07 bf 90 e1 96 bf 82 43 bd 3f
       2.3233163 -0.5278663 -1.1787586 1.4786227
000080 21 f9 5c bd 8e 87 c8 bf 49 8f 0e bf 99 2d dd 3f
       -0.053948525 -1.5666368 -0.55687386 1.727954
000090 b1 af 8a bf 82 ae 82 be 9c c9 2d 3f be 17 a1 3e
       -1.0834867 -0.25523764 0.67885756 0.31463426
0000a0 47 e6 b5 3b 1c 23 e8 be c4 88 11 3e 52 dc 8d 40
       0.005551133 -0.45339286 0.14212328 4.4331446
0000b0 33 63 07 c0 f1 5b cf 3e 63 55 2d 40 3b 84 f7 3b
       -2.1154296 0.40499833 2.7083366 0.007553605
0000c0 07 e6 15 bf 2e f5 48 3e 37 a7 d3 bd 5a e4 92 bd
       -0.5855412 0.19624779 -0.10334628 -0.07172461
0000d0 92 f9 b8 be 65 ef 21 3f 27 1a cd 3f 31 d1 25 bf
       -0.36127907 0.6325591 1.6023606 -0.64772326
0000e0 c8 d7 fc 3e 4a 0c 99 bd 3f 47 04 c0 04 aa a2 40
       0.49383378 -0.07473047 -2.0668485 5.083254
0000f0 b6 ad 87 3f b3 6e ad 3f 6e 18 c6 3f 7e 68 1d 3f
       1.0599887 1.3549408 1.5476205 0.6148757
000100 2e 71 dd be f8 79 62 3f 00 0a 6c bd dd 45 c4 bd
       -0.43250412 0.8846736 -0.057626724 -0.09583638
000110 fe 4e 01 c0 ac 32 1f 3f f3 31 4f 3e 97 c0 01 3f
       -2.0204463 0.62186694 0.20233898 0.50684494
000120 d3 bd 2e c0 15 e8 87 3f 2b 60 9f bd c7 4f 0c bf
       -2.730336 1.0617701 -0.077820145 -0.5480923
000130 fb cc d8 3f e2 f3 11 3f c7 fb cf bf 37 12 04 40
       1.6937555 0.5701276 -1.6248711 2.0636117
000140 c1 72 49 40 49 0b 1f 3f b3 4d 01 bf a6 6b 56 c0
       3.147629 0.62126595 -0.50509185 -3.3503203
000150 7c 9c 90 be b7 be eb be 3f 82 9b bf 14 a1 6a be
       -0.28244388 -0.4604394 -1.2149123 -0.22913009
000160 cd f6 76 3e 39 82 9e 3f ad 81 26 c0 c8 3d 73 3d
       0.24117585 1.2383491 -2.6016648 0.05938509
000170 82 96 cf 3c 85 99 d8 3f 93 3b f5 3f 84 ef 15 bd
       0.025340322 1.692185 1.9158806 -0.036605373
000180 ad 89 a5 3f 8e ff ca 3d 4e 45 93 bf 23 d6 8d 3f
       1.293264 0.099120244 -1.1505525 1.1080974
000190 5e 0c 0d c0 80 12 91 3f 20 a0 91 3e 24 7a e4 3e
       -2.2038798 1.1333771 0.28442478 0.44624436
0001a0 e7 05 b1 bf 31 17 64 3e 9f 89 d1 3f 2d 90 13 40
       -1.3829926 0.22274472 1.6370124 2.3056748
0001b0 56 31 42 3f 8f c5 e3 be 34 f8 55 3f f2 4d 1e bf
       0.7585653 -0.44486663 0.8358185 -0.61837685
0001c0 8b 5d ce bf 93 e3 92 be 89 a4 9f 3d c9 d4 5c 40
       -1.6122297 -0.2868925 0.077950545 3.4504874
0001d0 6d d1 9a bf b2 c1 5a 3f 62 fd f7 bf d4 35 ef bf
       -1.2095162 0.85451806 -1.9374201 -1.8688302
0001e0 83 d7 7c 3f b2 96 91 bf 63 c0 23 40 d0 a5 d6 3f
       0.98766345 -1.1374114 2.5586174 1.6769352
0001f0 7f 0a 0a 40 9a 8a da bf 53 d3 4e 3f 32 73 d2 40
       2.1568906 -1.7073548 0.80791205 6.576562
000200 22 80 0b 40 e3 85 0e c0 e1 28 29 3f 70 c6 57 3f
       2.1796956 -2.2269218 0.66078 0.84287167
000210 e7 ec 6f bf fe fe 06 3f d3 3c a8 3e b0 10 36 bf
       -0.9372086 0.5273284 0.32858905 -0.71119213
000220 34 fb a2 3f 61 b7 06 c0 10 86 6d bf 01 71 c1 3f
       1.2732911 -2.1049426 -0.9278269 1.5112611
000230 43 87 e3 3f c7 81 4d 3e 76 11 1f 3d 69 3a f2 3f
       1.7775654 0.20069037 0.03883501 1.8924075
000240 95 b5 9d bf f8 78 dc 3f f5 13 12 3f 22 f7 84 3e
       -1.232104 1.7224417 0.570617 0.25969797
000250 d8 19 c7 3e 44 c9 db 3e 33 c8 e0 bf 07 51 24 bf
       0.38886905 0.4292699 -1.7561096 -0.6418614
000260 2e 3e 17 3f 24 45 ab bf 61 f2 da bf 04 5b 1e 3f
       0.59079254 -1.3380475 -1.7105218 0.6185763
000270 8c a4 ad 3f cf 9b 6d 40 39 5a 49 40 24 1b be 3d
       1.3565841 3.7126348 3.1461318 0.092825204
000280 56 23 0b c0 c4 92 4e bf 27 e8 fe bd 3c e0 22 3f
       -2.1740317 -0.80692697 -0.12446623 0.63623405
000290 2e 29 62 3d 3a 5b ab bf 11 9e 6a 3f 49 6b 17 40
       0.055215053 -1.3387215 0.9164744 2.3659232
0002a0 9d 81 41 bd ca d6 5f bf 4e c9 c3 be 52 d0 3b 40
       -0.04724275 -0.8743712 -0.3823952 2.9345899
0002b0 52 62 55 40 32 77 66 3f 1e b7 ce 3e e7 32 36 bf
       3.334126 0.9002563 0.40374082 -0.7117142
0002c0 b2 90 3a 40 08 de 8f 40 71 55 00 40 e6 6d a1 be
       2.9150815 4.4958534 2.005215 -0.31529158
0002d0 90 c2 f8 3e 57 b8 99 3f d9 fa 2b be 3e 81 a0 be
       0.4858594 1.2009381 -0.1679491 -0.31348604
0002e0 0a 76 cf 3f e0 6c ae bf ad 89 5f be 6b 52 e5 bf
       1.6207898 -1.3626976 -0.21829863 -1.7915777
0002f0 a6 76 e2 3f ad 3d 99 bf 07 c3 ca bf f1 37 77 3f
       1.7692459 -1.1971947 -1.5840768 0.96569735
000300 ca 19 e1 be 40 66 21 3f 3f d0 3e 3f de 77 e3 3e
       -0.43964988 0.63046646 0.7453651 0.4442739
000310 d4 3f 00 3e f3 1e 2b 3f ea 1b 85 3f a7 41 aa be
       0.12524348 0.668441 1.0399144 -0.33253214
000320 03 b2 b5 bf b9 92 5c 3f bc bf 7f bf 4e 6e 0f 40
       -1.419495 0.8616138 -0.9990194 2.2411075
000330 1c 65 11 40 f4 dc b0 bf 2f cf 49 bd 9c 00 98 3f
       2.2717962 -1.381743 -0.04926985 1.1875186
000340 c0 09 61 bf 36 cc 92 3f b1 e9 93 3b 83 e2 a3 3c
       -0.879055 1.146857 0.004513942 0.02000547
000350 5c 77 33 3d 33 0f c0 be a4 8c a8 3f af 40 6b 3f
       0.043815 -0.37511596 1.316792 0.91895574
000360 25 ad 19 41 25 62 93 3e b0 21 92 3e 58 61 39 40
       9.604772 0.28785816 0.28541327 2.8965664
000370 8a 93 0e 3f 2f 26 df 3f d8 7a 86 3f 0d 75 d6 bf
       0.55693877 1.7433528 1.0506239 -1.6754471
000380 23 bb 13 bf 85 35 0d bf d1 d6 4b 3f 99 1f fd 40
       -0.5770742 -0.5515979 0.7962466 7.910107
000390 9f cf d7 be 8b 75 85 bf db 20 ac bf 06 c4 b4 3f
       -0.4215059 -1.0426496 -1.3447527 1.4122322
0003a0 ff be c9 bf 56 ad 70 bf 8f c5 0d 3f 75 9e 1f bf
       -1.5761412 -0.9401449 0.55379575 -0.6235116
0003b0 7c 36 bc 40 96 82 32 3e 03 e4 93 3e ad e9 8f 40
       5.881651 0.17432627 0.28884897 4.497275
0003c0 1d 32 6e bc 6e 09 b8 3f 49 69 10 40 98 b1 2f 40
       -0.014538315 1.4377878 2.256426 2.7452145
0003d0 0c fd d7 3f 8b b1 80 3f 45 0e 3b 3f 4b 3f 27 3d
       1.6874099 1.0054182 0.7306865 0.040831845
0003e0 24 ff 38 bf 38 f4 d5 3e 8d bf 54 40 36 c8 fa 3d
       -0.72264314 0.41787887 3.3241913 0.122452185
0003f0 f7 8a 8f 3f 2c 9f 05 c0 4e c5 33 bf 0d 14 04 3d
       1.1214284 -2.08784 -0.7022294 0.032245684

lstm.weight_hh_l0 f4 [256, 64]
000000 60 0e 3a bc a6 75 cd be 0a 98 eb 3e 78 6d df 3c
       -0.011355966 -0.4012882 0.46014434 0.027273878
000010 5c 61 98 be 2d 6a 3c 3f e0 c0 79 bf 82 e9 af be
       -0.2976178 0.7359951 -0.9755993 -0.3435784
000020 8d ec d7 be 9b 2a cd bf 8f 8a 68 bc 0c e9 8e bd
       -0.4217266 -1.6028627 -0.014193191 -0.06978044
000030 ae 8d 00 3e 7e c5 3a 3f 28 31 12 3f 6a 97 0e 3f
       0.12554047 0.729576 0.57106256 0.5569979
000040 de d9 2d bf 3c 18 0e 3f d0 00 21 bf b2 20 c0 be
       -0.67910564 0.5550573 -0.62891865 -0.37524945
000050 b0 a9 8c 3f 63 82 3f 3f 4e 4e 12 bd 28 1d 96 3e
       1.0989285 0.7480833 -0.03571921 0.2931912
000060 27 94 d2 3e 77 c0 cc bc 67 c3 c5 be 3f 5e 84 3f
       0.41128656 -0.024994118 -0.38625643 1.0341262
000070 d6 50 ed 3e 93 44 be be fd a6 f3 be 40 0f 70 bd
       0.46350735 -0.37161693 -0.4758834 -0.058608294
000080 37 87 3c be f0 c1 6e bf 16 45 71 be 22 85 14 bf
       -0.18410955 -0.93264675 -0.2356151 -0.58015645
000090 af 37 52 bf 7b 2b bc 3e 92 f7 07 3f 70 91 98 be
       -0.82116216 0.36751923 0.5311214 -0.2979846
0000a0 fa a2 61 be 1f 3a c2 3e fe c0 d3 3d 8d 14 a9 3e
       -0.22034827 0.37934968 0.10339545 0.33023492
0000b0 6b b8 1a 3f 48 25 d0 be d4 8a ef 3e 85 17 ae 3e
       0.6043765 -0.40653443 0.46785605 0.3400232
0000c0 f6 da 55 bf 50 10 54 bf 16 1b f4 3e 42 1f d3 3e
       -0.8353723 -0.8283739 0.47676915 0.41234785
0000d0 70 06 3f be 9b a0 86 3f 8e 73 44 3f 01 07 c7 3e
       -0.186548 1.0517763 0.7673882 0.3887253
0000e0 6d 3f ac 3e d7 6f f3 3d a1 2b f0 be 2c 68 10 3f
       0.3364214 0.11886566 -0.46908286 0.56408954
0000f0 9c 9d 83 3f bd f6 c5 be 5b 87 40 be 1c ec 65 be
       1.0282474 -0.3866481 -0.18801634 -0.2245335
000100 06 ec 8d bf 24 d7 09 3e 09 22 cf 3d 2f 5a 41 bf
       -1.1087654 0.13460976 0.101139136 -0.75528234
000110 52 86 30 be 31 a0 8d 3e 12 0c 39 3f 0e be 55 3f
       -0.17238739 0.2766128 0.7228404 0.83493125
000120 14 d6 64 3e 3d 91 09 3f 3c 9f 0f 3f 85 dd c5 bd
       0.2234729 0.5373724 0.5610235 -0.09661392
000130 64 9e 55 be 1c de 5b bf f8 ab 70 be c4 b9 ad 3e
       -0.20861202 -0.85885787 -0.23503101 0.3393079
000140 84 96 b9 3f 21 f1 44 be 66 b7 c6 3e 53 a3 39 3f
       1.4499059 -0.19232608 0.38811797 0.7251484
000150 32 98 23 3f 7a ae 61 3f f8 e3 db be 5f 61 87 bd
       0.63904107 0.88156855 -0.42947364 -0.06610369
000160 75 aa f3 be c1 e6 8e 3f a0 62 80 3f d4 81 15 bf
       -0.47590986 1.116417 1.0030098 -0.58401227
000170 66 77 84 3d aa 95 6d bf e1 52 8d be 1b 33 57 be
       0.06468086 -0.92806494 -0.27602294 -0.21015589
000180 38 2b f1 be 4f 5f f4 be 9f 9e 9b 3d 88 26 a3 be
       -0.47103286 -0.47728965 0.07598614 -0.31865335
000190 ab 3c 76 3f d9 b4 32 bf 9b f0 09 be c7 2a 35 3f
       0.9618632 -0.698072 -0.1347069 0.707684
0001a0 ff cd 72 3f 06 13 93 3d eb 2b 3c 3f 87 f2 82 3f
       0.94845575 0.07181363 0.73504514 1.0230263
0001b0 7f 40 7f 3f a0 fa 9b 3f 45 42 1a bf 90 05 2a 3e
       0.9970779 1.218586 -0.6025737 0.16603684
0001c0 e9 30 cc be 60 7c 76 bf e8 f8 38 be 08 49 bf 3e
       -0.39881065 -0.9628353 -0.180637 0.37360406
0001d0 99 b3 52 be e2 a7 2f bf be 2c 3f bf 5e 9a 4e 3e
       -0.20576324 -0.68615544 -0.74677646 0.20176074
0001e0 94 7e e6 bd 58 09 8f 3d 91 27 ce 3d 21 30 89 3f
       -0.112546116 0.06984204 0.100661404 1.0717813
0001f0 74 b6 dd bd 42 bd b1 3e 18 d9 24 be 0a 7c 1e 3f
       -0.10825816 0.34714705 -0.1609844 0.6190802
000200 00 3f 7c bd 76 98 16 3f c2 31 ea be 48 c7 93 bf
       -0.06158352 0.58826387 -0.45741087 -1.1545191
000210 64 d8 66 bf 71 b2 94 bd a9 d1 24 be 87 3b 8a bc
       -0.90173936 -0.072605975 -0.16095604 -0.016874088
000220 3c 1a 7f bd f4 5d 7e 3e 1c 04 ca be 7b ea 30 3f
       -0.06228088 0.24840528 -0.3945626 0.6910779
000230 85 b7 10 bf 50 1b a9 bf 90 9e aa be fd 67 5e bf
       -0.5653003 -1.321146 -0.333241 -0.86877424
000240 22 3c 21 3f 22 ed 14 3f 4d ea b5 3f ff 69 98 be
       0.6298238 0.58174336 1.4212128 -0.2976837
000250 fa 23 65 3f b1 4f eb be 85 fc 8b bf 03 b8 8f bf
       0.8950802 -0.45959237 -1.0936438 -1.1228031
000260 6f b5 74 bf 62 d4 9f 3f 47 09 8a bd d4 f0 ad 3f
       -0.95589346 1.2486689 -0.06740051 1.358912
000270 ae 34 f4 be 06 09 5b be a7 6f 14 bf 29 02 e4 bf
       -0.4769644 -0.21390161 -0.5798287 -1.7813159
000280 53 08 cb 3d 1a 76 3b 3f a9 54 df be 01 5a 17 3f
       0.09913697 0.73227084 -0.43619278 0.5912171
000290 96 88 4e bd dc 08 b8 bf e1 74 75 3b 01 4e e4 be
       -0.050423227 -1.4377704 0.0037453698 -0.44590762
0002a0 bb e8 a7 be c2 d7 47 3e 47 36 85 3f 43 af a3 bf
       -0.32794747 0.19515899 1.0407189 -1.2787861
0002b0 be f5 3c 3e 27 f8 02 c0 3e f8 8c 3d 16 32 5f bf
       0.18453118 -2.046396 0.06883286 -0.871858
0002c0 f6 0d 84 bf 2d 9e db be 40 ef 99 be f5 59 99 bf
       -1.031676 -0.42894116 -0.30065346 -1.1980578
0002d0 b4 0c e6 3e df b8 b0 be 7e 77 8f bf a0 25 78 be
       0.44931567 -0.34516045 -1.1208341 -0.24233103
0002e0 36 b4 a8 bf 99 57 09 c0 c4 fc 69 3f dc bc 2d 3f
       -1.3179996 -2.1459715 0.91401315 0.678663
0002f0 92 b8 07 3f 69 eb d7 be 91 6d 2f bf e7 eb 16 3e
       0.53016007 -0.4217179 -0.6852656 0.14738427
000300 a1 56 90 bf 24 1e e8 be 29 be 8d be fd d1 e3 bf
       -1.1276437 -0.45335495 -0.27684143 -1.7798458
000310 e4 b5 38 be c9 d7 91 bd 00 ff 35 3e f4 f8 91 3e
       -0.18038136 -0.07121236 0.17773056 0.2851025
000320 b6 21 b0 3e 08 c6 49 3f 18 bd c4 3d df 02 80 bf
       0.3440072 0.78817797 0.09606379 -1.0000876
000330 ac ca 03 3f 10 02 a9 3e a7 bc a7 bd 44 cd e3 3e
       0.5148113 0.33009386 -0.081902795 0.44492543
000340 da ad ce 3f e9 3c 84 bf dd 9f 6c be 40 a6 f6 3e
       1.6146805 -1.0331088 -0.23107858 0.48173714
000350 02 37 3a 3f 0e 0a 3f 3e 61 9e e1 3e 9e 4a b0 be
       0.72740185 0.1865618 0.44066146 -0.34431928
000360 00 f6 c9 3d ea 8b 7f 3f c7 1f c4 bd c1 9d a1 bf
       0.09861374 0.99822867 -0.095763735 -1.2626268
000370 9a e3 7d 3e 22 cb 21 bf 5e 48 16 be 7c 9a 96 bf
       0.24793854 -0.6320058 -0.14676043 -1.1765895
000380 21 5d 43 3f e6 11 68 3f 0a 96 a0 be 96 a5 b6 3f
       0.7631398 0.9065231 -0.3136447 1.4269283
000390 de 5d 7a 3f a5 9f de 3d ef 06 0c bf 79 e8 0c 3f
       0.9779948 0.108702935 -0.5469808 0.55042225
0003a0 66 c1 9d 3f 67 3e cb be c0 06 a6 3f f6 ca 33 3f
       1.2324646 -0.39696047 1.297081 0.7023157
0003b0 0d 0e 7a bf 63 1e 1b 3f e4 32 c0 3d 99 c0 b7 3e
       -0.9767769 0.6059324 0.093847066 0.35889128
0003c0 60 3a 61 3e 67 53 65 3e 22 d1 1a 3e 2e 3e 6a bf
       0.21994925 0.22395097 0.1511884 -0.9150113
0003d0 62 74 2f 3e 42 81 d9 3e 61 df f7 3c 6a 52 99 be
       0.1713424 0.42481428 0.030257883 -0.2994569
0003e0 cd 9c 9e be cc 2a 00 bf 58 3c 45 be ea 8d a6 3f
       -0.30979005 -0.500653 -0.192613 1.3012059
0003f0 3b 68 39 be 43 db a1 bf be bc f2 3e 36 1e 01 bd
       -0.18106167 -1.2645038 0.47409624 -0.031522952

lstm.bias_ih_l0 f4 [256]
000000 23 4f e5 bd e4 0f 07 3f 4b d1 c9 3e 06 04 3d 3e
       -0.11196735 0.5275862 0.3941749 0.18458566
000010 ed 64 60 3e f0 87 c5 bd f0 5b c5 3e 62 ae a8 3e
       0.219135 -0.09645069 0.38546705 0.32945544
000020 73 87 8b 3e 21 a7 28 3e 8f 3f 33 3f c9 c5 c7 3e
       0.27251777 0.16470005 0.7001886 0.39018086
000030 d7 cd 0a 3e 9a 0f 31 3e 8b 12 b9 3e 05 21 59 3f
       0.13555084 0.17291108 0.3614696 0.8481601
000040 13 3e 5e 3d 2f 40 de 3e 30 90 57 3f bc 48 04 3f
       0.054258417 0.43408343 0.8420439 0.51673484
000050 10 27 25 3f d9 7f 00 3f c8 b4 85 3f c4 b9 61 3f
       0.6451273 0.5019508 1.0445795 0.8817408
000060 0f c9 02 3f 43 d1 7f 3e c8 78 3d 3f 37 4f 1d 3f
       0.5108804 0.24982171 0.7401242 0.61449
000070 f6 f0 97 3e cf 11 1c 3f ad 61 92 3e 67 19 07 bf
       0.29676026 0.60964674 0.28590146 -0.52773136
000080 2f c3 3c 3f 9b ae 4b 3e 07 4b 8f 3f 12 e5 53 3f
       0.73735327 0.19890825 1.1194772 0.8277141
000090 af a4 fd 3e 5d cc 19 3f 87 25 b7 3e 8a 64 23 3f
       0.49539706 0.6007746 0.3577082 0.63825285
0000a0 18 26 9b 3e 7a 65 43 bd c0 11 1c 3f 7f 41 92 3e
       0.303025 -0.047704197 0.60964584 0.28565595
0000b0 9d 10 0a 3e a0 8d 2f 3e 81 42 d2 3e 1e 84 9e bd
       0.134829 0.1714387 0.41066363 -0.07740043
0000c0 fd c8 45 3f 6b 77 03 3f 72 d1 a1 3e d7 08 2b 3f
       0.7725981 0.5135409 0.31605107 0.66810364
0000d0 6d 65 26 3f 72 89 0a 3f e4 aa ed 3e 1d 09 0e be
       0.64998513 0.54115975 0.46419442 -0.13870664
0000e0 6c cf 98 3e b9 12 08 3e a1 a9 38 3f d2 4d a9 3e
       0.2984575 0.13288392 0.72133833 0.33067185
0000f0 0a ac 19 3c 90 c4 9d 3e 6d 16 d8 3e 9f 5d 38 3e
       0.009379396 0.30814028 0.4220461 0.18004464
000100 44 ed 0f 3f b3 bd e2 bd 0d 64 1c bf 44 c7 ab 3e
       0.56221414 -0.110713385 -0.61090165 0.33550465
000110 19 f1 7f 3e 08 31 6f 3d 45 ad 7a 3e 3d b9 07 3f
       0.24994315 0.05839637 0.2448016 0.53017026
000120 d6 87 31 3d 7b 32 fd 3c 31 fc db be b5 af 47 be
       0.043342434 0.03090786 -0.42965844 -0.1950062
000130 c0 ed b0 3e c8 2b 67 be 17 98 d1 3c 73 f4 12 3d
       0.3455639 -0.22575295 0.025585217 0.035877656
000140 20 ce 90 be 62 e2 ed bd 42 e1 47 3f 4f 92 98 3e
       -0.2828226 -0.11615445 0.7807809 0.29799125
000150 68 06 e5 3e 6c b3 d9 3e 5f 18 06 bf 5d 78 e2 3d
       0.4473145 0.425197 -0.5238094 0.11058114
000160 dc ea c0 3d 1b db 24 3e df ec b0 bd f0 42 3f bd
       0.09419796 0.16099207 -0.086389296 -0.046694696
000170 35 ff 6c 3f b3 98 33 be c5 34 14 3e 91 6c 2b 3f
       0.92576915 -0.17538719 0.14473255 0.66962534
000180 70 6e 7f 3e 5d 04 52 3e d8 6a 1d bc 84 7f 1d bd
       0.24944472 0.20509477 -0.009607993 -0.038451687
000190 3b 6c 5f 3e ce d1 09 bf e5 60 da 3e 7b b7 17 be
       0.2181863 -0.5383576 0.4265205 -0.14816086
0001a0 8d 2f ef 3d 92 36 0e 3e 90 1c 2d 3c 0e 9d f3 bd
       0.116789915 0.13888004 0.010565892 -0.1189519
0001b0 2a bb 53 be 83 e6 99 bd 4b 69 09 bf 24 4f 31 3d
       -0.20676866 -0.0751467 -0.5367629 0.043288365
0001c0 f5 8d 81 3e 29 2c 0e bf 59 cd 0a 3f fe 9b 95 3e
       0.25303617 -0.55536133 0.54219586 0.29220575
0001d0 0e 00 15 3e 26 e4 84 bd 6f 6e 5f be 0c d6 b6 3e
       0.14550802 -0.06488828 -0.21819471 0.3571018
0001e0 e6 94 9c 3e ee 38 35 3e f8 60 63 be 08 d6 c3 bd
       0.3058235 0.17697498 -0.2220496 -0.095623076
0001f0 66 11 84 3e b9 d4 98 be 5c 10 0d 3f fd a2 17 3e
       0.25794524 -0.29849795 0.5510309 0.14808269
000200 c6 1a 71 be 15 e6 c4 bd 08 68 0e bd 54 b5 7b bd
       -0.2354537 -0.09614197 -0.03476718 -0.061452225
000210 5e 2c 59 bd a9 e4 3c be aa 7e 84 bd c7 20 1c be
       -0.053020827 -0.18446602 -0.06469472 -0.15246879
000220 58 cc a9 bd 5d 7f 8e 3c 5f 8e 1d be 7d fc 1b 3d
       -0.082909286 0.017394716 -0.15386342 0.03808259
000230 d7 7a 5d be cb 54 4c 3c 20 eb 5b 3d ac 4a 97 bd
       -0.21628891 0.012471388 0.05369103 -0.073872894
000240 64 80 87 bd fc 5f f8 bd c5 68 54 bd e0 38 10 bb
       -0.066162854 -0.121276826 -0.05185773 -0.0022006556
000250 95 ae 95 3d c5 52 df bd fa 2f 81 3d 0b 27 31 be
       0.073086895 -0.10904459 0.06307979 -0.1730005
000260 8a e0 39 be d2 4e 5c 3c 48 73 d2 bd ed 69 35 3e
       -0.18152061 0.013446527 -0.102758944 0.17716189
000270 1e 4e 5c 3e 93 14 90 bd 50 51 c1 3a 81 98 05 be
       0.21514174 -0.07035174 0.0014748964 -0.13046457
000280 0e a3 1c bd 52 d6 9d 3d 01 64 b4 3d fc 70 b6 bc
       -0.03824144 0.07706894 0.08808137 -0.022270672
000290 0a 2e 27 3e 32 d9 a2 3d 8c ea bb bd 2e 56 1e bc
       0.16326156 0.07951583 -0.09175596 -0.0096641015
0002a0 89 65 fd bd 56 cf 04 be 7e 36 a3 bd 56 bd 6c bc
       -0.12372882 -0.12969717 -0.07969378 -0.014449438
0002b0 bc ed 2a 3e 77 84 99 bd 1b cb ea 3d a5 e9 dd bd
       0.16692251 -0.07495969 0.114645205 -0.1083558
0002c0 61 aa 02 be 18 53 de bd 9d a4 e0 bc 70 5a f0 bd
       -0.12760307 -0.108556926 -0.027422244 -0.117359996
0002d0 63 da e9 ba a4 c8 65 3e 80 78 37 3d e5 6f 21 be
       -0.0017841574 0.2243982 0.044792652 -0.1576534
0002e0 2a f6 ab bd b6 77 04 bd 50 cd b2 3b 49 3c 64 3d
       -0.083965614 -0.032340728 0.005456604 0.055721555
0002f0 b7 0d 01 bd e6 44 05 be 4b f3 20 be 21 78 63 be
       -0.03150722 -0.13014564 -0.15717809 -0.22213794
000300 a0 f6 a1 be b7 07 75 3e 3a 94 2f 3e d1 3b 91 bc
       -0.31633472 0.23928724 0.17146388 -0.017728718
000310 5b e8 f5 3d 70 68 06 3e e2 cf 06 3e 0e e8 ee 3e
       0.12007209 0.13125777 0.13165238 0.4666142
000320 ec cd 02 3f a5 38 88 3e 28 3d d1 3e 2f ce 16 3e
       0.5109546 0.26605716 0.4086697 0.1472709
000330 92 71 a9 3d 0b 74 aa 3e 16 3f ff 3e 93 a0 4e 3f
       0.08273615 0.3329166 0.49852818 0.80713767
000340 89 ff da 3e 45 72 a3 bd da f9 a1 3d 6f df 1f 3f
       0.42773083 -0.079807796 0.079089835 0.6245031
000350 04 e0 55 be ae be 10 3e c2 c8 24 3f 58 6c d6 3d
       -0.20886236 0.14135239 0.6436883 0.10469884
000360 58 90 59 3f 6c b6 98 3c 5d b6 1c 3f ca 81 11 be
       0.84985876 0.018641673 0.61215764 -0.14209667
000370 b9 63 cb bd 20 a1 bc 3e 7f 68 92 3e 1f 83 1d 3f
       -0.0993113 0.3684168 0.2859535 0.615282
000380 1d b3 74 3e 10 2c fc 3e 09 82 e8 3e cc a0 0d 3f
       0.23896451 0.49252367 0.4541171 0.5532348
000390 1a 39 ad 3e 00 4b 18 3f 6d a1 e5 3e e6 e0 b8 3e
       0.33832628 0.5948944 0.4484972 0.36109084
0003a0 d4 2e 8c 3e 4c 80 82 3e e5 5d 17 3f d6 da 41 3f
       0.27379477 0.25488508 0.59127647 0.7572454
0003b0 90 93 09 3f 41 e5 19 3f 46 70 5b 3f 56 02 a8 3e
       0.5374079 0.6011544 0.8571819 0.32814282
0003c0 2e 48 27 3e a1 f9 65 3e a3 b0 2e be 07 b5 d6 3d
       0.16336128 0.22458507 -0.17059569 0.10483747
0003d0 db f3 40 3f a4 73 c3 3e 42 e4 6c 3f d3 d2 41 be
       0.75372094 0.38174164 0.92535794 -0.1892808
0003e0 73 a3 ad 3e 80 35 80 3c 70 3a f0 3e 16 4c 89 3e
       0.33913764 0.01565051 0.46919584 0.2681586
0003f0 c2 87 d2 3e 24 91 0d 3f 57 3b 47 be 41 e9 17 3d
       0.411192 0.5529959 -0.1945623 0.037087683

lstm.bias_hh_l0 f4 [256]
000000 c1 4b d7 bd b5 7c 11 3f cd 67 99 3e 84 2b d2 3e
       -0.10512496 0.5683091 0.29962006 0.41048825
000010 6f 98 85 3e 93 a6 5e be 8c 75 ff 3e 20 fb 01 3e
       0.2609286 -0.2174323 0.4989437 0.12693453
000020 b6 b7 88 3e a2 e7 dd 3c 92 e2 5d 3f 8b e3 00 3f
       0.2670266 0.02708799 0.86673844 0.50347203
000030 5e 03 81 3d bf df c8 3d 90 63 cc 3e 4e c9 59 3f
       0.0629947 0.09808301 0.3991971 0.8507279
000040 7b b7 d0 3d 42 88 c8 3e 71 3c 68 3f 66 5d 1c 3f
       0.10191246 0.39166456 0.90717226 0.61080015
000050 f3 f1 29 3f 69 87 cd 3e 42 fa 96 3f 7b f6 4a 3f
       0.6638481 0.40142372 1.1795123 0.7928235
000060 61 9e 19 3f aa 4f 40 3e 03 b3 45 3f ab f8 1e 3f
       0.6000729 0.1878039 0.77226275 0.6209819
000070 ac 8e d3 3e 62 28 1b 3f 8a 51 ed 3e 93 f1 e9 be
       0.41319788 0.60608494 0.46351272 -0.4569212
000080 da 7b 4d 3f 26 f8 70 3d c1 3b 92 3f 4f 6e 1b 3f
       0.8026711 0.058830403 1.1424485 0.6071519
000090 97 b5 ed 3e 50 55 3d 3f e5 d2 a3 3e 84 1f 08 3f
       0.46427605 0.739583 0.31996837 0.5317309
0000a0 ee 43 ad 3e b4 e3 37 bd 2a 95 03 3f 0c 24 09 3e
       0.3384089 -0.04489489 0.5139948 0.13392657
0000b0 3e 0c 3f 3d e4 17 ef 3d ba 14 95 3e e4 f9 3a 3c
       0.046642534 0.11674479 0.29117376 0.011412118
0000c0 f4 37 4e 3f 42 78 12 3f 5c af ae 3e 6e db 22 3f
       0.8055413 0.5721475 0.34118164 0.63616073
0000d0 f0 da 53 3f fe 82 06 3f c1 41 91 3e 6d 93 10 3d
       0.8275595 0.5254363 0.2837048 0.035296846
0000e0 ee cc 79 3e 8d aa df 3d 82 1b 33 3f d8 4f 01 3f
       0.2439458 0.10921202 0.6996385 0.50512457
0000f0 cd 6b e0 3c 4e 4e 93 3e 0f 1d 0d 3f 0c f2 87 3e
       0.027395153 0.2877068 0.55122465 0.26551855
000100 c4 f2 14 3f b8 23 e5 bd 6c 72 05 bf e3 18 9a 3e
       0.5818293 -0.111884534 -0.5212772 0.30097112
000110 52 11 70 3e 69 f5 5f 3e 83 aa 2c 3e 15 4d 01 3f
       0.23444107 0.2187096 0.1686192 0.5050824
000120 0d 69 47 bd db 60 97 3d 45 40 00 bf e8 49 7a be
       -0.04868417 0.073915206 -0.5009807 -0.24442255
000130 8a a1 b0 3e 59 d2 1d be 07 d7 5c 3d f4 52 a0 3d
       0.34498245 -0.15412273 0.053916004 0.07828322
000140 dd 6b 77 be 43 4a a3 be 49 94 33 3f 2c 23 cb 3e
       -0.2416224 -0.31892595 0.7014814 0.39675272
000150 eb f2 ba 3e ce 3b bb 3e c4 f1 e9 be 5e 33 d7 3d
       0.36513457 0.36569065 -0.45692265 0.105078444
000160 00 99 8e 3d 1d 27 8c 3e cb 46 32 be 2b 5a 66 bd
       0.06962776 0.2737359 -0.17409818 -0.056238335
000170 65 45 45 3f bc 9c 08 ba 1e 37 d0 3d 10 86 14 3f
       0.7705901 -0.00052113435 0.10166763 0.58017063
000180 ff f4 b5 3d 92 08 b3 3d 47 ed 20 bd 80 15 ee bc
       0.0888462 0.08741869 -0.039288785 -0.029062986
000190 6d fd f4 3d a0 ce 04 bf 37 5a cb 3e 64 d6 70 3c
       0.119624 -0.51877785 0.39717266 0.014699552
0001a0 17 4c 3e bd c1 57 84 3e c8 b6 10 be 74 0d 9a 3c
       -0.046459284 0.258482 -0.14132226 0.018805243
0001b0 c7 d0 64 be eb 8d 92 be 48 7b b2 be 8c 87 16 3e
       -0.22345267 -0.286239 -0.3485968 0.14700145
0001c0 c5 bf e3 3e df 43 3f bf 9c 13 1a 3f d1 3e c1 3e
       0.44482246 -0.7471294 0.6018617 0.37743238
0001d0 7e 09 2d bd d0 8a a6 bc 00 aa 74 be 70 4b b2 3e
       -0.04224538 -0.020329863 -0.23892975 0.3482318
0001e0 24 62 9a 3e a1 a2 29 3e 57 fc d5 bd 10 94 7c 3d
       0.30153 0.16565944 -0.10448521 0.06166464
0001f0 7a 12 f6 3d b7 2b 4c be 8b 3f 01 3f 10 d3 29 3e
       0.12015243 -0.19938551 0.50487584 0.1658442
000200 45 e6 1c bd a8 79 0a 3e 27 31 86 bd 0c a1 08 be
       -0.03830554 0.1352297 -0.06552344 -0.13342685
000210 ad e1 1f bd 81 df df bd bc 40 7b 3c 02 0b 28 be
       -0.03903358 -0.10931302 0.015335258 -0.16410449
000220 0d ec c3 bd 74 a6 55 bc 9b cd 45 be c1 94 39 3c
       -0.095665075 -0.013040174 -0.19316714 0.01132697
000230 4e ce f7 bd 23 91 1d bd 11 86 3c 3d 54 00 59 3d
       -0.12099896 -0.03846849 0.046026293 0.05297883
000240 97 61 8b bc a6 f0 9a 3d 9a 3e 81 bd 37 e2 ef 3c
       -0.017014308 0.07565431 -0.063107684 0.029282672
000250 0c 5a 0f 3e df 53 f5 bd 23 a6 14 bd d2 55 af bd
       0.13999194 -0.11978888 -0.036291253 -0.08561291
000260 dd 7f 0e be 42 b6 f8 3d 34 23 0a bd 48 c4 7d 3d
       -0.13915963 0.12144138 -0.03372498 0.061954767
000270 e7 2b 4f 3d 60 3f 9f bd 5a 2d de bd a0 92 ff bd
       0.050578978 -0.0777576 -0.10848494 -0.124791384
000280 df 3c f3 3d 47 14 dd 3d e7 73 ad bc e7 df c5 bd
       0.118768446 0.10794883 -0.02117343 -0.096618466
000290 ee 56 1e 3e 9a 30 cd 3d 41 d5 fd 3a 24 e7 19 be
       0.15462849 0.10019036 0.0019365923 -0.1502958
0002a0 af 01 f6 bd 7d a2 8d bd 43 54 44 bc 09 be 12 be
       -0.1201204 -0.06915758 -0.01198298 -0.14330305
0002b0 f5 fe 13 3e 02 42 1f be 63 fe 85 bd 82 d5 e9 3d
       0.14452727 -0.15552524 -0.06542661 0.114176765
0002c0 31 e2 84 be d7 52 20 bc a8 25 cb bd 56 00 3b 3d
       -0.2595382 -0.009785376 -0.09919292 0.045654617
0002d0 97 58 be 3b e7 2a b5 bb a1 fd 03 bd 06 d9 2e be
       0.0058089006 -0.005528796 -0.0322243 -0.17074975
0002e0 b2 da ba bd a7 81 63 3b c7 94 ba bd ae 2e d0 3d
       -0.09123744 0.003471473 -0.09110408 0.101651534
0002f0 9d 8d e3 bd 37 1e 58 bb b4 37 3e be 7c 46 a6 be
       -0.11110995 -0.0032976994 -0.18575937 -0.3247565
000300 e8 52 6c be 43 ad b8 3e cd ed 02 3e 13 4f 77 bb
       -0.23078501 0.36069688 0.12786026 -0.003773634
000310 5f e6 ea 3d 7e 07 1e 3e 58 88 21 3e e2 26 b2 3e
       0.11469721 0.15432546 0.15774667 0.3479529
000320 34 fb dc 3e 94 5b 24 3e 55 0e f3 3e 96 fa 12 3e
       0.43160403 0.1605056 0.47471872 0.14353403
000330 07 71 09 3e cb 0f 81 3e 9a aa c7 3e ec 1a 54 3f
       0.13422023 0.25207362 0.38997346 0.8285358
000340 78 a5 f2 3e 3c ae 4b bd 8a 3b cd 3c 1a 26 09 3f
       0.47391868 -0.04972671 0.025052804 0.53573763
000350 3f 46 0f be 3b fe 8d bd 6f 64 f5 3e 6f 5a 0d 3e
       -0.1399164 -0.06933256 0.47928187 0.13804029
000360 40 d6 4b 3f 97 c3 7f bd 88 68 ff 3e 3c f5 6f bd
       0.79623795 -0.06244239 0.4988444 -0.058583483
000370 2f 70 d5 3d cf ec b5 3e a4 f8 8b 3e ce 6e 0c 3f
       0.10421788 0.35532233 0.27338135 0.54856575
000380 10 34 9c 3e d6 4d 8b 3e 95 68 c0 3e 04 c7 f2 3e
       0.3050847 0.27207822 0.3757979 0.47417462
000390 22 6e ad 3e a3 25 54 3f 77 0e a8 3e 90 82 b0 3e
       0.33873087 0.8286993 0.32823536 0.3447461
0003a0 a9 6d 87 3e 59 84 91 3e fc b6 23 3f a8 68 36 3f
       0.26450852 0.28421286 0.63951087 0.7125344
0003b0 6e b7 1b 3f 08 4a 04 3f 49 d3 47 3f 9c 3d 38 3e
       0.60826766 0.5167546 0.7805677 0.17992252
0003c0 3a 35 44 3e de 2c 0d 3e 72 bd 6f be 40 63 df 3c
       0.1916093 0.13786647 -0.23412111 0.027269006
0003d0 c8 60 62 3f eb 14 00 3f 75 ca 62 3f 24 70 85 be
       0.88428926 0.5003192 0.88590175 -0.2606212
0003e0 98 c9 9c 3e ee de 04 bd a4 4c 23 3f 9a 38 7b 3e
       0.30622554 -0.032439165 0.6378882 0.2453331
0003f0 02 9d c1 3e 51 fe fb 3e 85 ef 20 be 71 fb 8f 3d
       0.378151 0.49217466 -0.1571637 0.070303805

lstm.weight_ih_l1 f4 [256, 64]
000000 6a 79 eb 3e 42 7e 85 be 65 26 a5 be f2 97 82 3c
       0.4599107 -0.2607289 -0.32255855 0.015941594
000010 de 3c ca 3c cc 44 a5 3d c5 63 a8 3d f2 fd a9 be
       0.024687227 0.080697626 0.082221545 -0.33201557
000020 fb 11 4e 3e 5a 6f 4a 3e 38 c7 d1 3d 60 10 a6 be
       0.20124047 0.1976904 0.10243076 -0.32434368
000030 c6 6f d7 bd 57 6b a6 3e b7 de 1f 3e db 5d 60 bd
       -0.10519366 0.3250377 0.15612303 -0.054777008
000040 1b 85 39 be 68 03 e8 3d bb 0f 5d be b7 8c 43 3c
       -0.18117182 0.11328775 -0.21588032 0.0119354045
000050 cd 3c 62 3e 2f 17 ad be 18 9e b6 3d 75 d3 eb 3e
       0.22093506 -0.3380675 0.08916873 0.46059766
000060 47 6e 57 3e 73 f6 b7 3d e5 80 a3 be 9a 52 b3 bd
       0.21038161 0.08982553 -0.31934276 -0.087559894
000070 3f d2 a2 3e 68 4a 7f be cc c4 89 3e f9 66 87 bd
       0.3180103 -0.24930727 0.26907957 -0.06611437
000080 d1 1d 9b be c0 3e 3d 3e b8 a6 33 3d 78 9e aa 3d
       -0.30296186 0.18480968 0.043860167 0.08331007
000090 46 70 92 3c ad fa a9 3d 28 49 9d 3e a9 c9 77 be
       0.017875802 0.08299766 0.30719876 -0.24198021
0000a0 87 9c 1b bf 0a e0 42 3d 24 61 0d be db 7c 99 bd
       -0.60785717 0.04757694 -0.13806587 -0.074945174
0000b0 5d 59 53 3e f1 aa fe bc 31 b1 ea bd 09 0e 3e be
       0.20639558 -0.03108737 -0.11459578 -0.18560041
0000c0 2b db 73 be e1 7f 51 be 0e c8 e4 3e 2b d5 56 3d
       -0.23814075 -0.20458938 0.4468388 0.052449387
0000d0 46 86 62 be 24 af 0a 3e b1 c7 ae 3d f7 8e 7b 3d
       -0.22121534 0.13543373 0.08534182 0.06141564
0000e0 e1 ea 06 3e f4 42 99 3e 59 fc 17 bd 77 d4 1c 3d
       0.13175537 0.29933894 -0.03710589 0.03828856
0000f0 d6 5c 91 be 0a 23 f9 3e 08 12 05 3e 5c 27 a4 3e
       -0.2839114 0.48659545 0.1299516 0.3206128
000100 0d df a2 3e ef 10 38 bd 7a 42 b2 3e 84 e4 93 3e
       0.318108 -0.044938024 0.34816343 0.2888528
000110 41 af 27 3e c9 3a a5 3e da 58 44 3d 1c f2 78 be
       0.16375448 0.32271412 0.047936298 -0.24311107
000120 ee cb 48 3d b3 06 07 3f fe 6a fc 3d 56 c4 70 3e
       0.049022608 0.527446 0.12325095 0.23512396
000130 90 7f 4a 3e 27 8e c6 3e 9b d5 4a be d4 4c fd bd
       0.19775224 0.3878033 -0.19808047 -0.123681694
000140 bd 79 3d 3e f4 da d0 be 34 25 37 bf 65 57 ac 3d
       0.1850347 -0.40792048 -0.7154114 0.08415107
000150 32 56 5f bc 8f c7 07 bf f7 a1 d3 3e 9e f3 4d be
       -0.01363139 -0.5303888 0.41334507 -0.20112464
000160 8e a2 99 be b9 1f 8e be 40 c7 79 3e b2 b5 b0 3e
       -0.30006832 -0.27758577 0.24392414 0.34513623
000170 da 74 aa 3d c7 32 5d 3d 4c da 5b 3e f1 d4 39 3e
       0.08323069 0.054003503 0.21469992 0.18147637
000180 5a 5b 19 bf cc ae b7 be fe ec 64 bc c6 24 9f be
       -0.59905016 -0.35875547 -0.013972519 -0.31082743
000190 f7 36 6b be 19 7f 3c 3d a3 c0 1e 3e 93 2a cd 3d
       -0.22970186 0.046019647 0.15503173 0.10017886
0001a0 9d 07 c1 3e d5 dc ce 3e b5 76 02 3f ef 85 0e bf
       0.3770112 0.40402856 0.5096238 -0.55673116
0001b0 c8 b3 b2 bd 2f 01 7c bd ce ff 82 bd 5a a6 2a 3f
       -0.08725697 -0.061524566 -0.06396447 0.6666008
0001c0 0d e0 c4 be 5d f1 c7 be cd 6f 35 3e 14 1a 7c 3d
       -0.38452187 -0.39051333 0.1771843 0.061548308
0001d0 2c 04 f0 3e 33 e9 93 be d8 47 be 3e cc 0d 71 3e
       0.46878183 -0.28888854 0.37164187 0.2354042
0001e0 74 1d 06 bd f9 59 18 bd 0c 51 10 bf 5e 8a 2e 3f
       -0.032742932 -0.03719518 -0.5637367 0.6817988
0001f0 ee fb c1 be f6 71 21 3e 5f 63 7f 3d 2f 96 f3 3c
       -0.3788752 0.15766129 0.062350627 0.029734699
000200 99 95 1c bd 0c 45 54 bb b6 a0 16 3f 64 5b 70 be
       -0.038228605 -0.0032389788 0.58838975 -0.23472363
000210 be 07 27 bd 82 de 09 be 4b 6e 9f 3d 6f 05 21 be
       -0.040778868 -0.13463786 0.077847086 -0.15724729
000220 38 ee 80 bc ed 87 08 bf 50 93 9a 3b ad 26 27 3d
       -0.015738592 -0.53332406 0.004717268 0.04080837
000230 b9 ec e1 be c0 ed 9f bf 9f 76 20 bf 75 9e 95 bb
       -0.44125918 -1.249443 -0.62681 -0.0045660087
000240 80 0d 82 3e 20 7d d4 be 8a 7e cb bd 6f db 4c 3f
       0.25400925 -0.41501713 -0.09936245 0.8002233
000250 27 cc 00 3f 5a 4b 1f bd 75 a1 c4 3d 15 80 24 bf
       0.5031151 -0.03889022 0.09601108 -0.6425794
000260 ce ab 96 bf 4c 86 21 3e c2 c3 2b 3f e0 94 e6 3c
       -1.1771181 0.15773886 0.6709558 0.028147161
000270 a0 1c d7 3e 7d 25 bc be 85 d4 24 be a2 3c 3a 3c
       0.42014027 -0.3674735 -0.16096695 0.011366995
000280 0e 1b 43 3e 83 c7 10 3e 93 16 48 bf cd 86 9d 3e
       0.1905329 0.14138608 -0.78159446 0.30766907
000290 61 e5 22 bf 8d cb e2 3e 46 6b c4 be 93 df f7 be
       -0.63631254 0.44295922 -0.38363093 -0.4841276
0002a0 b7 70 0d bf 36 db a7 3e 77 d6 00 be bf 82 f9 3e
       -0.55250114 0.32784432 -0.12581812 0.48732564
0002b0 92 27 ae 3e cc de 29 bf 66 ed c4 3e f8 b9 93 bd
       0.34014565 -0.66355586 0.3846237 -0.07213205
0002c0 f4 84 06 bf f6 0b 20 3f 6b 8a 92 3e 5a 63 df 3e
       -0.5254662 0.6251825 0.2862123 0.43630487
0002d0 9c d5 b2 be b1 9a 8b be e1 6f 69 be bb 26 93 3e
       -0.34928596 -0.27266458 -0.22796585 0.28740487
0002e0 06 b8 8f be 62 79 d3 3c 3f e5 b7 3f 68 d7 ee be
       -0.28070086 0.025814716 1.4366835 -0.46648717
0002f0 c1 5f 59 bf b3 34 43 bf 47 76 2a bf 54 aa 42 3d
       -0.84911734 -0.7625229 -0.66586727 0.04752572
000300 b0 e5 fd bd 13 0d fe bc 16 c3 4a be e7 eb 2a bb
       -0.12397325 -0.031012094 -0.19800982 -0.002608055
000310 3e 44 a6 3e 29 9d 1c bd 7f e9 30 3e f3 95 fa be
       0.3247394 -0.038235817 0.17276572 -0.48942527
000320 58 2e f9 bd 8e d9 fe b9 ab 0f 52 bd 95 66 9f bd
       -0.121670425 -0.00048608746 -0.051284473 -0.07783238
000330 c6 2a 87 3c 7c 15 6f be 44 92 75 3e e8 a7 94 be
       0.016499888 -0.2334804 0.23981577 -0.29034352
000340 94 94 06 be 38 df 8b be 6e 54 f0 3d ef 75 25 3e
       -0.13142616 -0.2731874 0.11734854 0.1615827
000350 9b 28 4c 3d d5 09 5b 3e 0c a9 72 be 14 f3 32 3e
       0.049843412 0.2139047 -0.23697299 0.1747554
000360 44 29 8e 3d 6f bb dd bd 89 f2 bb bd b2 c7 2f 3d
       0.069414645 -0.10826766 -0.09177119 0.042915054
000370 4c 0b 4f be 12 51 90 bc 59 95 e4 bd 2d c0 7a 3c
       -0.20219153 -0.017616782 -0.11161298 0.015304607
000380 70 c3 af 3d 27 6f 3f bd db d1 1e bc ed 1f 1a 3d
       0.085821986 -0.046736863 -0.009693588 0.037628103
000390 53 b5 f0 3d 13 e4 ab bc 9c d3 15 be 48 ee 8b 3d
       0.11753335 -0.020982778 -0.14631504 0.06832558
0003a0 21 84 04 3e 91 e5 da bd ea 4e d8 bd bc 03 74 be
       0.12941028 -0.106883176 -0.10561927 -0.2382955
0003b0 97 c9 e9 3d 5d c9 15 bd f2 59 86 3e 89 65 32 3d
       0.11415403 -0.036568988 0.26240498 0.043553863
0003c0 c6 9b 95 bc 10 a3 2f 3d 1f 36 0c 3f ac 59 08 3e
       -0.018262755 0.042880118 0.5477008 0.13315457
0003d0 d5 b4 d5 bd 43 2d 98 3d c1 65 5b 3e 70 96 43 be
       -0.104348816 0.07430508 0.21425535 -0.19100356
0003e0 a9 87 ab bd cd 9d d9 be ba e1 8c 3e 1b ad 06 be
       -0.083754845 -0.42503205 0.27515966 -0.13151972
0003f0 6f 80 e0 bd 89 2a bc bd aa 71 56 be e3 f1 98 be
       -0.10961997 -0.091878004 -0.20941797 -0.29872045

lstm.weight_hh_l1 f4 [256, 64]
000000 5f 58 87 3f 56 1c 86 3e 99 aa 7d be c2 82 5d bf
       1.0573844 0.26193494 -0.24772109 -0.86527646
000010 1e 07 bb 3f ed 68 65 bf e1 d8 0b 3d cb 8f ad be
       1.4611547 -0.8961323 0.03414238 -0.33898768
000020 27 b0 26 3d dd db e5 3e 26 22 b1 bd 0f c8 e3 bc
       0.040695336 0.44894305 -0.086490914 -0.027805356
000030 a2 fb 7c be 48 36 11 bf 74 79 d1 bd c8 a5 82 3e
       -0.24705365 -0.5672345 -0.102282435 0.25517106
000040 d5 8f 18 be 64 9f 27 3f 40 5b 8a 3f df 3b 27 bf
       -0.14898618 0.65477586 1.0809097 -0.6532573
000050 ae 2d 91 3e 1f 57 ea 3e 43 06 93 bf fa 07 75 be
       0.28355163 0.45769593 -1.1486286 -0.23928824
000060 74 05 ac bd 88 c2 7b 3e 3f 64 ec bd c7 71 89 be
       -0.083994776 0.24585927 -0.11542558 -0.26844618
000070 84 ab 51 bf fd 66 4a 3f df 3a 5e bd fb d1 90 bf
       -0.8190234 0.790634 -0.054255363 -1.1314081
000080 05 31 81 3f a3 b6 5f 3e 71 a0 36 3f d7 84 a1 3e
       1.0093085 0.21847014 0.71338564 0.3154666
000090 d3 ed 1e 3f 3d 3b 86 3f c9 2a 21 3f 02 d7 71 bf
       0.6208164 1.0486828 0.6295591 -0.944687
0000a0 a6 81 a0 be 5b f3 c5 3e 1f b8 31 bf f3 fe 55 3e
       -0.31348914 0.38662228 -0.6942157 0.20898037
0000b0 07 97 e2 be a6 75 ab be 2c 17 a8 be 43 8b 7c bf
       -0.4425585 -0.33488196 -0.3283018 -0.98649997
0000c0 b9 87 02 bf 91 61 04 3b f7 39 11 3f 17 65 ee 3e
       -0.50988346 0.0020199756 0.5672907 0.465615
0000d0 65 67 73 be a7 df 9a be 48 91 43 bf 4d 85 14 3e
       -0.2376991 -0.30248758 -0.76393557 0.14503975
0000e0 94 c5 52 be b2 13 b2 bf d3 1a 17 3f ef a2 67 3f
       -0.20583183 -1.391226 0.59025306 0.9048299
0000f0 a1 cc 18 be 81 04 0e 3c 04 7f a5 be 10 7d 95 3d
       -0.1492181 0.008668066 -0.32323468 0.072992444
000100 38 11 b4 3d f2 b6 60 bf 2a ea 07 be b8 5d 89 3f
       0.08792347 -0.8777915 -0.1327292 1.0731726
000110 90 47 a6 3f a0 09 c0 bf 63 99 0a 3f 5c 78 0c bf
       1.2990589 -1.5002937 0.541403 -0.54871154
000120 bf 11 2c 3d f6 92 72 3e 48 68 36 be cd 12 5f 3e
       0.04200911 0.23688874 -0.17813218 0.21784516
000130 91 4e 86 3f 34 35 ef 3c 41 b8 04 3f 13 7c d9 bf
       1.0492727 0.029200174 0.5184365 -1.699099
000140 7c e5 f5 be a0 c2 0b 3d 29 d3 5c bf 24 22 7d 3e
       -0.48026645 0.034121156 -0.86259705 0.24720055
000150 2a 78 fe 3e e4 7e eb be e8 af e7 3e 23 7e b2 3f
       0.49701053 -0.45995247 0.45251393 1.3944744
000160 07 be 3b 3f 37 a1 b8 3e b7 5a 3e 3e 1c 3a a4 3e
       0.73336834 0.36060497 0.18589292 0.32075584
000170 54 cb d7 be 34 ff 42 be 51 c9 bc bf 1b 69 d5 3e
       -0.42147315 -0.19042665 -1.4748937 0.41681752
000180 60 9c 54 bc e2 d7 bd be 91 ac fb 3f 72 cb cf be
       -0.012976736 -0.37078768 1.9662038 -0.40584904
000190 f7 a0 d6 3e e0 88 94 bf 00 1f 8f 3e 3c dc f0 bd
       0.4191968 -1.1604271 0.2795334 -0.117607564
0001a0 6e 5d 42 be 93 22 06 3f 27 e1 b6 3e bd fb 26 3f
       -0.18980953 0.52396506 0.35718653 0.6522787
0001b0 68 d1 e5 3e 27 3c 73 3e c3 65 44 3e c2 26 08 3c
       0.44886327 0.23753415 0.19179444 0.008310022
0001c0 68 29 b3 be f0 e6 8c 3f ee dd 61 3c b0 14 19 3f
       -0.34992528 1.1007977 0.013785822 0.5979719
0001d0 b0 09 20 3f d0 76 d1 be 54 d1 a5 3f 66 17 77 bf
       0.6251478 -0.4091096 1.2954507 -0.9652008
0001e0 d2 42 bf 3e e6 be 15 3f 4e 12 fb be d2 17 d6 bf
       0.37355667 0.5849441 -0.49037403 -1.6726019
0001f0 f3 84 19 3d c6 fa c1 3e a7 cc c4 3e e0 db 53 bf
       0.037480306 0.37886637 0.38437387 -0.8275738
000200 16 7e f3 3f be d4 a5 3f c6 b2 f3 3e 16 ab 96 3f
       1.9022853 1.2955549 0.4759733 1.1770961
000210 fd 13 0b 3f 17 f4 12 3e 32 9d 2c 3f 39 7a 47 3f
       0.54327375 0.14350925 0.6742736 0.7792087
000220 a1 08 86 3f 06 0d 29 3f 69 f7 15 3e 5b e9 1b bf
       1.0471383 0.660355 0.1464516 -0.6090295
000230 ed 5b e9 3f 5c a0 6d bf 18 83 ed bf 58 fd 43 bf
       1.8231179 -0.92822814 -1.8555632 -0.76558447
000240 0d 54 87 bf ee 70 88 3e 19 60 e6 bc c3 07 2d bf
       -1.0572525 0.2664866 -0.028121995 -0.6758997
000250 c1 1f 40 3e d9 da 02 3f c2 1a 09 3b d8 69 8f bf
       0.18762113 0.51115185 0.002092049 -1.1204176
000260 51 bf f8 3e c3 b4 05 bf 32 7e 97 3e f4 cd cc 3f
       0.48583463 -0.52228945 0.29588467 1.6000352
000270 1a 90 00 bf 19 ae c0 3e 04 2f 87 bf d3 e8 fb bf
       -0.5021988 0.37632826 -1.0561223 -1.9680427
000280 15 7a bb be 75 7b 83 bf 1e 0f 8c bf 1e 4f b5 bd
       -0.3661658 -1.0272051 -1.0942113 -0.08852981
000290 01 d8 d4 bd a0 53 d8 bc d6 3e f0 be e0 f4 2a be
       -0.10392762 -0.026407063 -0.4692294 -0.16694975
0002a0 a8 e7 7f bf dd 75 24 40 87 5d 02 bf e5 db 59 bf
       -0.99962854 2.5696938 -0.5092396 -0.8510116
0002b0 92 dc 5f bf 52 af 94 3f a9 6d c8 be 0b 12 b4 3e
       -0.8744594 1.1616004 -0.39146164 0.35170016
0002c0 84 c7 1b 3f 4d 3a 6c bf d8 b4 eb 3f 26 a5 d2 3f
       0.6085131 -0.9227646 1.8414564 1.6456649
0002d0 d0 14 97 3f 51 7b 9e be ae de 04 40 57 43 03 3f
       1.1803226 -0.30953458 2.0760913 0.5127463
0002e0 e9 8d f7 bd f9 e9 6a 3f 8b ba 13 3d 03 78 b0 3f
       -0.12087614 0.91763264 0.036066573 1.3786625
0002f0 34 f1 1d bf ef bc 9b 3e 48 a3 6b bf 7c d1 87 bf
       -0.6169617 0.30417582 -0.9204602 -1.0610805
000300 f8 c3 55 bf 58 96 43 bf 88 be a2 bd 3d 67 a9 3f
       -0.8350215 -0.7640128 -0.07946497 1.3234631
000310 4d f0 ca be f8 1a de 3d 4d 8c a0 bf 77 59 07 3f
       -0.3963646 0.10844988 -1.2542816 0.5287089
000320 f0 e1 df 3e 77 ef 64 be 55 55 89 be 65 93 1a bf
       0.43727064 -0.22356974 -0.26822916 -0.60381156
000330 1d 2a 18 3f dc 50 14 3e 1f b0 30 bf 02 f3 ca 3e
       0.5943926 0.1448397 -0.6901874 0.39638525
000340 7d e8 6d 3e eb ae fe be 5f a6 35 3e 07 c2 24 bd
       0.23233218 -0.49742827 0.17739247 -0.0402241
000350 22 df e1 bd 0e 09 0f 3e 7f 5e 07 3d b7 58 23 bf
       -0.11028887 0.13968298 0.033049103 -0.63807243
000360 0a b5 89 3e 34 23 11 be d8 70 c2 3e d1 e0 1e bf
       0.26895934 -0.14173585 0.37976718 -0.6206179
000370 db 21 1d 3e d5 7a d3 3d 31 a2 11 bf e8 51 4d be
       0.15344946 0.10326163 -0.5688811 -0.20050776
000380 02 a2 39 bf af ba 35 be 20 8b c3 be 5a 7b 2b 3e
       -0.7251283 -0.17746995 -0.3819208 0.16746274
000390 b8 5e a3 bd fe 28 30 be 9f e3 88 3f 10 c0 13 bf
       -0.079770505 -0.17203137 1.0694464 -0.5771494
0003a0 93 23 bf be d1 07 6b bd ad 54 6f be 05 54 7f bd
       -0.37331828 -0.0573805 -0.23372145 -0.062335987
0003b0 cd cf 99 3d c9 1a 36 3e df fb b6 bd a7 2d 07 be
       0.07510338 0.17783655 -0.08934759 -0.13201009
0003c0 c9 72 a8 bd 9b c4 21 3e cd fe 6f be dd e0 b1 3e
       -0.082250185 0.15797655 -0.23437043 0.3474187
0003d0 25 1a 18 bf a2 1c 76 be dd 3e 57 3c fc 72 d3 3e
       -0.59414893 -0.2403436 0.013137546 0.41298664
0003e0 5f 94 84 ba 60 d7 3d 3f 73 22 d6 3d 1d 3d 8f 3d
       -0.0010115019 0.7415676 0.104557894 0.06994078
0003f0 1e 21 1a 3f c5 10 c1 3d 7c ca bd 3d 2a de 74 be
       0.6020678 0.09427027 0.092671365 -0.23912874

lstm.bias_ih_l1 f4 [256]
000000 05 df 78 3e 2f eb 87 3e 1d bb 34 bf 94 46 b4 be
       0.24303825 0.26546618 -0.7059801 -0.35210097
000010 a5 3a 8a 3f 72 eb 66 3f e5 9b 9f 3f f4 6b ab 3e
       1.0799147 0.9020301 1.246945 0.334808
000020 0e c5 05 3f 77 4c 3d 3d af e0 07 be 57 4e bc 3d
       0.52253807 0.0462155 -0.13269304 0.0919463
000030 fa c6 16 3e 43 bf dd 3d b5 fd 81 3e 2f 0c 1c bf
       0.14724341 0.10827496 0.25388876 -0.6095609
000040 6e 16 d0 be 05 71 fd be 58 54 ec 3e bd a9 d7 ba
       -0.40642112 -0.4950029 0.461581 -0.0016453784
000050 4a 90 72 3e ff b9 d3 bd b0 33 3f bd bc c7 39 bd
       0.23687854 -0.1033821 -0.046680152 -0.045356497
000060 16 c5 1e bd 17 bf 60 be 65 75 f0 3e ab 22 45 bf
       -0.038762175 -0.21947895 0.46964565 -0.77006024
000070 32 98 18 bd ce 56 b2 3e 9c 43 a7 be 04 3a 0b be
       -0.03725452 0.34831852 -0.3266877 -0.1359635
000080 84 4b 0f bf 21 11 75 be 2b f5 75 3f c9 ef 79 bf
       -0.559746 -0.23932315 0.9607722 -0.9763151
000090 21 5a b1 3e a2 f1 20 bf a8 f5 5e be 56 dc 76 3a
       0.34639075 -0.628687 -0.21773398 0.0009416988
0000a0 a3 c0 ab be 61 83 99 3e 31 7e 91 bf 31 01 07 be
       -0.33545408 0.29983047 -1.1366636 -0.13184048
0000b0 1f b8 a3 3e 4d 6d 35 3f 42 50 09 bf f2 03 c5 3e
       0.3197641 0.70869905 -0.5363809 0.38479573
0000c0 a9 1a 2a be 15 73 00 bf be 41 7f be 8b 8e 74 be
       -0.16611733 -0.501756 -0.24927422 -0.23882501
0000d0 fe 07 50 3f 00 c4 f2 3e 48 63 14 bf 67 9f 18 be
       0.81262195 0.4741516 -0.5796399 -0.14904557
0000e0 29 40 b1 3f 85 55 1a bf 22 6c 2c bd ff 0e 1c 3f
       1.3847705 -0.6028674 -0.04209531 0.6096038
0000f0 2e c6 24 3f 25 61 d0 3e 22 65 ee 3f a8 6b d6 3d
       0.643649 0.40699115 1.8624613 0.104697526
000100 1a 95 6c 3d 48 6a 30 be e0 25 f4 bd 21 55 69 3f
       0.05775938 -0.17228043 -0.119212866 0.9114552
000110 72 09 11 bf 34 ac 14 be b5 c4 07 3f a5 a5 62 3e
       -0.5665504 -0.14518815 0.53034526 0.22133501
000120 f0 c9 0a be b9 31 64 be 0c 7d 2f bf a7 80 74 3e
       -0.13553596 -0.22284593 -0.6855018 0.23877202
000130 af 5e 27 bf de 49 09 bf bc d9 14 3e 45 2d 7c 3f
       -0.6537885 -0.5362834 0.14536184 0.98506576
000140 4a 45 56 bf 33 13 d1 bd d7 73 a2 bf 81 b9 3d bf
       -0.83699477 -0.1020874 -1.2691602 -0.7411118
000150 00 16 2c be 31 0f 76 bf 82 77 e2 be b2 90 4b be
       -0.16805267 -0.9611693 -0.44231802 -0.19879416
000160 98 7a 0b bf d3 b3 8a 3e 68 65 bd be ed 30 07 3f
       -0.5448394 0.2709032 -0.3699143 0.5280903
000170 e9 08 9a be 85 70 ff be 1a cd cd bd 15 84 83 3f
       -0.30084923 -0.49890533 -0.10048886 1.0274683
000180 fa c0 b2 3e 24 29 ea be dd 6a 9c be 38 19 17 be
       0.34912854 -0.45734513 -0.3055028 -0.14755714
000190 f3 9e 71 be 87 4b c5 be 82 3b 65 3e 28 3b 51 bf
       -0.2359579 -0.38534185 0.22385982 -0.8173089
0001a0 69 46 82 bf d8 4f 19 3f f2 f8 3a bf 8d 19 df be
       -1.0177737 0.59887457 -0.7303611 -0.4357418
0001b0 64 c4 23 bf 5e c8 18 3e 45 07 6f 3e 38 e4 03 bf
       -0.63971543 0.14920184 0.23342617 -0.5152011
0001c0 ec 00 18 bf 3b ab b0 bf 97 ce b5 be 78 7e a3 be
       -0.59376407 -1.3802255 -0.35509178 -0.31932425
0001d0 9a d5 7e be 30 69 c3 3e 4c a8 37 3f 6d a0 06 bf
       -0.2488617 0.3816619 0.71741176 -0.5258854
0001e0 f6 cc d5 3d 45 2a 29 be 94 6f 4d be 5a 0d 51 3e
       0.10439484 -0.16520031 -0.20062095 0.2041525
0001f0 3b 85 a0 be d7 db 70 be c5 e3 da be 57 d9 eb 3e
       -0.31351647 -0.23521362 -0.427519 0.46064255
000200 90 ca 2b 3f 5a 3b 8e bc 89 a3 83 be 5f d6 91 3d
       0.6710596 -0.017362285 -0.25710705 0.07120966
000210 1f 65 a8 be 89 ea a7 3e 58 50 18 3d 96 95 bd be
       -0.3288965 0.32796124 0.037185997 -0.37028188
000220 f3 c9 e4 bd 13 f8 8d 3d 03 99 7a be eb 41 f1 be
       -0.11171331 0.06932082 -0.24472432 -0.47120604
000230 e3 e5 e7 3d 4e 6c ad bd 4d 55 07 be 90 36 7a be
       0.11323144 -0.08467923 -0.13216133 -0.24434876
000240 63 6b 28 3e 3b 51 aa 3e da fe d1 be f4 5d 95 bd
       0.16447215 0.332651 -0.4101475 -0.07293311
000250 7f 07 06 bd 77 9a 5d 3e b2 b0 f8 3d d6 dd 7e 3e
       -0.032721993 0.21640955 0.12143077 0.24889311
000260 e8 1f b9 3e f8 b4 38 3d 96 23 27 be f8 67 56 3e
       0.36157155 0.04509446 -0.16322169 0.20938098
000270 5d ee 81 3e 43 32 41 3e 08 8b 39 3e 3e 1e 90 be
       0.2537717 0.1886683 0.18119442 -0.28148073
000280 c7 f1 c1 bd ec 04 53 3e eb a8 84 3b 8d e3 0a be
       -0.094699435 0.20607346 0.004048457 -0.13563366
000290 86 bf 9a be df 32 45 3e 33 47 01 be 43 9d 11 bc
       -0.30224246 0.19257687 -0.12624817 -0.008887592
0002a0 9e 0d 12 3e 00 ef 9b 3d 77 8f 6f bd ae 34 fc 3c
       0.14263007 0.07613945 -0.058486428 0.030786838
0002b0 33 f0 7a be 18 1f ee bd 6d 47 f8 be 64 e6 8a 3e
       -0.24505691 -0.116270244 -0.48491994 0.271289
0002c0 42 9e 01 3d 68 ed 19 3e b4 39 46 3e fd 84 7b bc
       0.031645067 0.1503197 0.1935795 -0.015351531
0002d0 7e d8 78 3e bb d1 de be f1 5d a9 bc 8c f8 97 3d
       0.24301335 -0.43519387 -0.020674678 0.074204534
0002e0 6c e7 ea bd fc 72 b9 3e 58 28 0f 3e 0e cb 3d 3e
       -0.114699215 0.3622054 0.13980234 0.1853449
0002f0 39 d0 40 be 15 a5 77 bd 27 86 e7 be e8 25 50 3e
       -0.1882943 -0.06046017 -0.45219538 0.2032696
000300 b7 38 64 bf 72 49 03 3f d9 dd 73 be fc 1a 8c 3e
       -0.8914904 0.51283944 -0.23815097 0.27364337
000310 c1 88 58 be 23 ec 8e 3e c7 9e fc be f2 a3 a2 3d
       -0.21145917 0.27914533 -0.49339887 0.07941426
000320 5a 37 f4 3e cf a4 2f be 94 40 b9 be c7 1a 07 bf
       0.4769848 -0.17152713 -0.36182082 -0.52775234
000330 35 14 cd bd 64 60 f2 3e ed 01 09 bd ae 87 07 bf
       -0.1001362 0.47339165 -0.033449102 -0.52941406
000340 99 d4 bc be 57 14 b1 3e f4 e9 c3 3f ae 1b ee bd
       -0.3688095 0.3458583 1.5305772 -0.11626373
000350 01 d4 8a 3e ae cc 3d 3f b4 df a2 be e9 d4 74 bf
       0.2711487 0.7414044 -0.31811297 -0.95637375
000360 a7 03 73 3f 50 10 8f 3e 64 5f 91 3f 57 9f 36 bf
       0.9492745 0.27942133 1.1357236 -0.71336883
000370 61 c0 63 3e 70 e6 84 3e 1c d7 51 3d 4b 11 c2 be
       0.22241355 0.2595706 0.051230535 -0.37903818
000380 64 54 1e 3e 02 73 21 3f ce 51 25 bf a0 7d 70 bf
       0.1546188 0.63066113 -0.6457795 -0.9394169
000390 49 fe 3d be c7 2a bb 3a a1 8f 8e be a2 6a 32 bf
       -0.18554033 0.0014279716 -0.27843955 -0.6969396
0003a0 0c 12 9a 3d 6c f1 0e bf fb f5 23 be b2 8a 37 3e
       0.075229734 -0.5583713 -0.16011803 0.17924002
0003b0 a8 d6 a5 be 91 6f 5d bd 5f 35 f4 3e 22 68 0e bf
       -0.32390332 -0.054061476 0.4769697 -0.55627644
0003c0 38 d9 6c bf 9f 99 a2 be f3 ef 35 3e e4 c5 88 be
       -0.9251895 -0.3175783 0.17767315 -0.2671348
0003d0 a4 15 47 bf 7f c5 34 3e 14 21 36 bf 8a 76 6b 3e
       -0.77767396 0.17653464 -0.71144223 0.22994438
0003e0 b9 04 f4 3e a0 3c 7a 3f b9 f0 32 bf c9 7c 8a 3e
       0.47659853 0.97748756 -0.69898564 0.2704833
0003f0 14 1b 3e 3c d9 df 08 3f 07 31 7c 3f f9 fa 80 be
       0.011603136 0.53466564 0.9851231 -0.25191477
